Compiling Mixed Precision model...
# from tvm.script import ir as I
# from tvm.script import tir as T
# from tvm.script import relax as R

@I.ir_module
class Module:
    @R.function
    def main(input_ids: R.Tensor((1, 1), dtype="int64"), past_key_values_0_key: R.Tensor((1, 12, "past_sequence_length", 64), dtype="float32"), past_key_values_0_value: R.Tensor((1, 12, "past_sequence_length", 64), dtype="float32"), past_key_values_1_key: R.Tensor((1, 12, "past_sequence_length", 64), dtype="float32"), past_key_values_1_value: R.Tensor((1, 12, "past_sequence_length", 64), dtype="float32"), past_key_values_2_key: R.Tensor((1, 12, "past_sequence_length", 64), dtype="float32"), past_key_values_2_value: R.Tensor((1, 12, "past_sequence_length", 64), dtype="float32"), past_key_values_3_key: R.Tensor((1, 12, "past_sequence_length", 64), dtype="float32"), past_key_values_3_value: R.Tensor((1, 12, "past_sequence_length", 64), dtype="float32"), past_key_values_4_key: R.Tensor((1, 12, "past_sequence_length", 64), dtype="float32"), past_key_values_4_value: R.Tensor((1, 12, "past_sequence_length", 64), dtype="float32"), past_key_values_5_key: R.Tensor((1, 12, "past_sequence_length", 64), dtype="float32"), past_key_values_5_value: R.Tensor((1, 12, "past_sequence_length", 64), dtype="float32"), past_key_values_6_key: R.Tensor((1, 12, "past_sequence_length", 64), dtype="float32"), past_key_values_6_value: R.Tensor((1, 12, "past_sequence_length", 64), dtype="float32"), past_key_values_7_key: R.Tensor((1, 12, "past_sequence_length", 64), dtype="float32"), past_key_values_7_value: R.Tensor((1, 12, "past_sequence_length", 64), dtype="float32"), past_key_values_8_key: R.Tensor((1, 12, "past_sequence_length", 64), dtype="float32"), past_key_values_8_value: R.Tensor((1, 12, "past_sequence_length", 64), dtype="float32"), past_key_values_9_key: R.Tensor((1, 12, "past_sequence_length", 64), dtype="float32"), past_key_values_9_value: R.Tensor((1, 12, "past_sequence_length", 64), dtype="float32"), past_key_values_10_key: R.Tensor((1, 12, "past_sequence_length", 64), dtype="float32"), past_key_values_10_value: R.Tensor((1, 12, "past_sequence_length", 64), dtype="float32"), past_key_values_11_key: R.Tensor((1, 12, "past_sequence_length", 64), dtype="float32"), past_key_values_11_value: R.Tensor((1, 12, "past_sequence_length", 64), dtype="float32"), attention_mask: R.Tensor((1, "past_sequence_length + 1"), dtype="int64"), position_ids: R.Tensor((1, 1), dtype="int64")) -> R.Tuple(R.Tensor((1, 1, 50257), dtype="float32"), R.Tensor((1, 12, "past_sequence_length + 1", 64), dtype="float32"), R.Tensor((1, 12, "past_sequence_length + 1", 64), dtype="float32"), R.Tensor((1, 12, "past_sequence_length + 1", 64), dtype="float32"), R.Tensor((1, 12, "past_sequence_length + 1", 64), dtype="float32"), R.Tensor((1, 12, "past_sequence_length + 1", 64), dtype="float32"), R.Tensor((1, 12, "past_sequence_length + 1", 64), dtype="float32"), R.Tensor((1, 12, "past_sequence_length + 1", 64), dtype="float32"), R.Tensor((1, 12, "past_sequence_length + 1", 64), dtype="float32"), R.Tensor((1, 12, "past_sequence_length + 1", 64), dtype="float32"), R.Tensor((1, 12, "past_sequence_length + 1", 64), dtype="float32"), R.Tensor((1, 12, "past_sequence_length + 1", 64), dtype="float32"), R.Tensor((1, 12, "past_sequence_length + 1", 64), dtype="float32"), R.Tensor((1, 12, "past_sequence_length + 1", 64), dtype="float32"), R.Tensor((1, 12, "past_sequence_length + 1", 64), dtype="float32"), R.Tensor((1, 12, "past_sequence_length + 1", 64), dtype="float32"), R.Tensor((1, 12, "past_sequence_length + 1", 64), dtype="float32"), R.Tensor((1, 12, "past_sequence_length + 1", 64), dtype="float32"), R.Tensor((1, 12, "past_sequence_length + 1", 64), dtype="float32"), R.Tensor((1, 12, "past_sequence_length + 1", 64), dtype="float32"), R.Tensor((1, 12, "past_sequence_length + 1", 64), dtype="float32"), R.Tensor((1, 12, "past_sequence_length + 1", 64), dtype="float32"), R.Tensor((1, 12, "past_sequence_length + 1", 64), dtype="float32"), R.Tensor((1, 12, "past_sequence_length + 1", 64), dtype="float32"), R.Tensor((1, 12, "past_sequence_length + 1", 64), dtype="float32")):
        past_sequence_length = T.int64(is_size_var=True)
        R.func_attr({"num_input": 27})
        with R.dataflow():
            lv: R.Tensor((1, 1), dtype="int64") = R.reshape(input_ids, R.shape([1, 1]))
            lv1: R.Tensor((1, 1, 768), dtype="float32") = R.take(metadata["relax.expr.Constant"][0], lv, axis=0, mode="fast")
            lv2: R.Tensor((1, 1, 768), dtype="float32") = R.take(metadata["relax.expr.Constant"][1], position_ids, axis=0, mode="fast")
            lv3: R.Tensor((1, 1, 768), dtype="float32") = R.add(lv1, lv2)
            lv4: R.Tensor((1, 1, 1), dtype="float32") = R.mean(lv3, axis=[-1], keepdims=True)
            lv5: R.Tensor((1, 1, 768), dtype="float32") = R.subtract(lv3, lv4)
            lv6: R.Tensor((1,), dtype="int64") = R.arange(R.prim_value(0), R.prim_value(1), R.prim_value(1), dtype="int64")
            lv7: R.Tensor((1, past_sequence_length + 1), dtype="int64") = R.reshape(attention_mask, R.shape([1, past_sequence_length + 1]))
            lv8: R.Tensor((1, 1, 768), dtype="float32") = R.power(lv5, R.const(2.0, "float32"))
            lv9: R.Tensor((1,), dtype="int64") = R.add(lv6, R.const(1, "int64"))
            lv10: R.Tensor((1, 1, past_sequence_length + 1), dtype="int64") = R.expand_dims(lv7, axis=[1])
            lv11: R.Tensor((1, 1, 1), dtype="float32") = R.mean(lv8, axis=[-1], keepdims=True)
            lv12: R.Tensor((1, 1), dtype="int64") = R.reshape(lv9, R.shape([1, 1]))
            lv13: R.Tensor((1, 1, 1), dtype="float32") = R.add(lv11, R.const(9.9999997473787516e-06, "float32"))
            lv14: R.Tensor((1, 1), dtype="bool") = R.less(lv6, lv12)
            lv15: R.Tensor((1, 1), dtype="float32") = R.broadcast_to(metadata["relax.expr.Constant"][2], R.shape([1, 1]))
            lv16: R.Tensor((1, 1, 1), dtype="float32") = R.sqrt(lv13)
            lv_1: R.Tensor((1,), dtype="float16") = R.astype(metadata["relax.expr.Constant"][3], dtype="float16")
            lv17: R.Tensor((1, past_sequence_length), dtype="float16") = R.broadcast_to(lv_1, R.shape([1, past_sequence_length]))
            lv18: R.Tensor((1, 1), dtype="float32") = R.where(lv14, R.const(0.0, "float32"), lv15)
            lv19: R.Tensor((1, 1, 768), dtype="float32") = R.divide(lv5, lv16)
            lv1_1: R.Tensor((1, past_sequence_length), dtype="float32") = R.astype(lv17, dtype="float32")
            lv20: R.Tensor((1, past_sequence_length + 1), dtype="float32") = R.concat((lv1_1, lv18), axis=-1)
            lv21: R.Tensor((1, 1, 768), dtype="float32") = R.multiply(lv19, metadata["relax.expr.Constant"][4])
            lv22: R.Tensor((1, 1, past_sequence_length + 1), dtype="float32") = R.expand_dims(lv20, axis=[0])
            lv23: R.Tensor((1, 1, 768), dtype="float32") = R.add(lv21, metadata["relax.expr.Constant"][5])
            lv24: R.Tensor((1, 1, 1, past_sequence_length + 1), dtype="int64") = R.expand_dims(lv10, axis=[2])
            lv25: R.Tensor((1, 1, 1, past_sequence_length + 1), dtype="float32") = R.expand_dims(lv22, axis=[1])
            lv26: R.Tensor((1, 768), dtype="float32") = R.reshape(lv23, R.shape([1, 768]))
            lv2_1: R.Tensor((1, 768), dtype="float16") = R.astype(lv26, dtype="float16")
            lv3_1: R.Tensor((768, 2304), dtype="float16") = R.astype(metadata["relax.expr.Constant"][6], dtype="float16")
            lv4_1: R.Tensor((1, 2304), dtype="float32") = R.matmul(lv2_1, lv3_1, out_dtype="float32")
            lv27: R.Tensor((1, 2304), dtype="float16") = R.astype(lv4_1, dtype="float16")
            lv28: R.Tensor((1, 1, 1, past_sequence_length + 1), dtype="int64") = R.broadcast_to(lv24, R.shape([1, 1, 1, past_sequence_length + 1]))
            lv29: R.Tensor((1, 1, 1, past_sequence_length + 1), dtype="float32") = R.astype(lv28, dtype="float32")
            lv30: R.Tensor((1, 1, 1, past_sequence_length + 1), dtype="float32") = R.subtract(R.const(1.0, "float32"), lv29)
            lv5_1: R.Tensor((2304,), dtype="float16") = R.astype(metadata["relax.expr.Constant"][7], dtype="float16")
            lv31: R.Tensor((1, 2304), dtype="float16") = R.add(lv27, lv5_1)
            lv32: R.Tensor((1, 1, 1, past_sequence_length + 1), dtype="bool") = R.astype(lv30, dtype="bool")
            lv33: R.Tensor((1, 1, 2304), dtype="float16") = R.reshape(lv31, R.shape([1, 1, 2304]))
            lv34: R.Tuple(R.Tensor((1, 1, 768), dtype="float16"), R.Tensor((1, 1, 768), dtype="float16"), R.Tensor((1, 1, 768), dtype="float16")) = R.split(lv33, indices_or_sections=[768, 1536], axis=2)
            lv35: R.Tensor((1, 1, 768), dtype="float16") = lv34[0]
            lv36: R.Tensor((1, 1, 768), dtype="float16") = lv34[1]
            lv37: R.Tensor((1, 1, 768), dtype="float16") = lv34[2]
            lv38: R.Tensor((1, 1, 1, past_sequence_length + 1), dtype="float32") = R.where(lv32, R.const(-340282346638528859811704183484516925440.0, "float32"), lv30)
            lv39: R.Tensor((1, 1, 1, past_sequence_length + 1), dtype="bool") = R.astype(lv38, dtype="bool")
            lv40: R.Tensor((1, 1, 1, past_sequence_length + 1), dtype="float32") = R.broadcast_to(lv25, R.shape([1, 1, 1, past_sequence_length + 1]))
            lv41: R.Tensor((1, 1, 12, 64), dtype="float16") = R.reshape(lv35, R.shape([1, 1, 12, 64]))
            lv42: R.Tensor((1, 1, 12, 64), dtype="float16") = R.reshape(lv36, R.shape([1, 1, 12, 64]))
            lv43: R.Tensor((1, 1, 12, 64), dtype="float16") = R.reshape(lv37, R.shape([1, 1, 12, 64]))
            lv44: R.Tensor((1, 12, 1, 64), dtype="float16") = R.permute_dims(lv42, axes=[0, 2, 1, 3])
            lv45: R.Tensor((1, 12, 1, 64), dtype="float16") = R.permute_dims(lv43, axes=[0, 2, 1, 3])
            lv46: R.Tensor((1, 12, 1, 64), dtype="float16") = R.permute_dims(lv41, axes=[0, 2, 1, 3])
            lv6_1: R.Tensor((1, 12, 1, 64), dtype="float32") = R.astype(lv44, dtype="float32")
            lv47: R.Tensor((1, 12, past_sequence_length + 1, 64), dtype="float32") = R.concat((past_key_values_0_key, lv6_1), axis=-2)
            lv48: R.Tensor((1, 12, 64, past_sequence_length + 1), dtype="float32") = R.permute_dims(lv47, axes=[0, 1, 3, 2])
            lv7_1: R.Tensor((1,), dtype="float16") = R.astype(metadata["relax.expr.Constant"][8], dtype="float16")
            lv49: R.Tensor((1, 12, 1, 64), dtype="float16") = R.multiply(lv46, lv7_1)
            lv50: R.Tensor((1, 12, 64, past_sequence_length + 1), dtype="float32") = R.multiply(lv48, metadata["relax.expr.Constant"][9])
            lv8_1: R.Tensor((1, 12, 64, past_sequence_length + 1), dtype="float16") = R.astype(lv50, dtype="float16")
            lv9_1: R.Tensor((1, 12, 1, past_sequence_length + 1), dtype="float32") = R.matmul(lv49, lv8_1, out_dtype="float32")
            lv51: R.Tensor((1, 12, 1, past_sequence_length + 1), dtype="float16") = R.astype(lv9_1, dtype="float16")
            lv52: R.Tensor((1, 1, 1, past_sequence_length + 1), dtype="float32") = R.where(lv39, R.const(-340282346638528859811704183484516925440.0, "float32"), lv40)
            lv10_1: R.Tensor((1, 12, 1, past_sequence_length + 1), dtype="float32") = R.astype(lv51, dtype="float32")
            lv53: R.Tensor((1, 12, 1, past_sequence_length + 1), dtype="float32") = R.add(lv10_1, lv52)
            lv54: R.Tensor((1, 12, 1, past_sequence_length + 1), dtype="float32") = R.nn.softmax(lv53, axis=-1)
            lv11_1: R.Tensor((1, 12, 1, past_sequence_length + 1), dtype="float16") = R.astype(lv54, dtype="float16")
            lv12_1: R.Tensor((1, 12, 1, 64), dtype="float32") = R.astype(lv45, dtype="float32")
            lv55: R.Tensor((1, 12, past_sequence_length + 1, 64), dtype="float32") = R.concat((past_key_values_0_value, lv12_1), axis=-2)
            lv13_1: R.Tensor((1, 12, past_sequence_length + 1, 64), dtype="float16") = R.astype(lv55, dtype="float16")
            lv14_1: R.Tensor((1, 12, 1, 64), dtype="float32") = R.matmul(lv11_1, lv13_1, out_dtype="float32")
            lv56: R.Tensor((1, 12, 1, 64), dtype="float16") = R.astype(lv14_1, dtype="float16")
            lv57: R.Tensor((1, 1, 12, 64), dtype="float16") = R.permute_dims(lv56, axes=[0, 2, 1, 3])
            lv58: R.Tensor((1, 1, 768), dtype="float16") = R.reshape(lv57, R.shape([1, 1, 768]))
            lv59: R.Tensor((1, 768), dtype="float16") = R.reshape(lv58, R.shape([1, 768]))
            lv15_1: R.Tensor((768, 768), dtype="float16") = R.astype(metadata["relax.expr.Constant"][10], dtype="float16")
            lv16_1: R.Tensor((1, 768), dtype="float32") = R.matmul(lv59, lv15_1, out_dtype="float32")
            lv60: R.Tensor((1, 768), dtype="float16") = R.astype(lv16_1, dtype="float16")
            lv17_1: R.Tensor((768,), dtype="float16") = R.astype(metadata["relax.expr.Constant"][11], dtype="float16")
            lv61: R.Tensor((1, 768), dtype="float16") = R.add(lv60, lv17_1)
            lv62: R.Tensor((1, 1, 768), dtype="float16") = R.reshape(lv61, R.shape([1, 1, 768]))
            lv18_1: R.Tensor((1, 1, 768), dtype="float32") = R.astype(lv62, dtype="float32")
            lv63: R.Tensor((1, 1, 768), dtype="float32") = R.add(lv18_1, lv3)
            lv64: R.Tensor((1, 1, 1), dtype="float32") = R.mean(lv63, axis=[-1], keepdims=True)
            lv65: R.Tensor((1, 1, 768), dtype="float32") = R.subtract(lv63, lv64)
            lv66: R.Tensor((1, 1, 768), dtype="float32") = R.power(lv65, R.const(2.0, "float32"))
            lv67: R.Tensor((1, 1, 1), dtype="float32") = R.mean(lv66, axis=[-1], keepdims=True)
            lv68: R.Tensor((1, 1, 1), dtype="float32") = R.add(lv67, R.const(9.9999997473787516e-06, "float32"))
            lv69: R.Tensor((1, 1, 1), dtype="float32") = R.sqrt(lv68)
            lv70: R.Tensor((1, 1, 768), dtype="float32") = R.divide(lv65, lv69)
            lv71: R.Tensor((1, 1, 768), dtype="float32") = R.multiply(lv70, metadata["relax.expr.Constant"][12])
            lv72: R.Tensor((1, 1, 768), dtype="float32") = R.add(lv71, metadata["relax.expr.Constant"][13])
            lv73: R.Tensor((1, 768), dtype="float32") = R.reshape(lv72, R.shape([1, 768]))
            lv19_1: R.Tensor((1, 768), dtype="float16") = R.astype(lv73, dtype="float16")
            lv20_1: R.Tensor((768, 3072), dtype="float16") = R.astype(metadata["relax.expr.Constant"][14], dtype="float16")
            lv21_1: R.Tensor((1, 3072), dtype="float32") = R.matmul(lv19_1, lv20_1, out_dtype="float32")
            lv74: R.Tensor((1, 3072), dtype="float16") = R.astype(lv21_1, dtype="float16")
            lv22_1: R.Tensor((3072,), dtype="float16") = R.astype(metadata["relax.expr.Constant"][15], dtype="float16")
            lv75: R.Tensor((1, 3072), dtype="float16") = R.add(lv74, lv22_1)
            lv76: R.Tensor((1, 1, 3072), dtype="float16") = R.reshape(lv75, R.shape([1, 1, 3072]))
            lv23_1: R.Tensor((), dtype="float16") = R.astype(R.const(3.0, "float32"), dtype="float16")
            lv77: R.Tensor((1, 1, 3072), dtype="float16") = R.power(lv76, lv23_1)
            lv24_1: R.Tensor((), dtype="float16") = R.astype(R.const(0.044714998453855515, "float32"), dtype="float16")
            lv78: R.Tensor((1, 1, 3072), dtype="float16") = R.multiply(lv77, lv24_1)
            lv79: R.Tensor((1, 1, 3072), dtype="float16") = R.add(lv76, lv78)
            lv25_1: R.Tensor((), dtype="float16") = R.astype(R.const(0.79788458347320557, "float32"), dtype="float16")
            lv80: R.Tensor((1, 1, 3072), dtype="float16") = R.multiply(lv79, lv25_1)
            lv81: R.Tensor((1, 1, 3072), dtype="float16") = R.tanh(lv80)
            lv26_1: R.Tensor((), dtype="float16") = R.astype(R.const(0.5, "float32"), dtype="float16")
            lv82: R.Tensor((1, 1, 3072), dtype="float16") = R.multiply(lv76, lv26_1)
            lv27_1: R.Tensor((), dtype="float16") = R.astype(R.const(1.0, "float32"), dtype="float16")
            lv83: R.Tensor((1, 1, 3072), dtype="float16") = R.add(lv81, lv27_1)
            lv84: R.Tensor((1, 1, 3072), dtype="float16") = R.multiply(lv82, lv83)
            lv85: R.Tensor((1, 3072), dtype="float16") = R.reshape(lv84, R.shape([1, 3072]))
            lv28_1: R.Tensor((3072, 768), dtype="float16") = R.astype(metadata["relax.expr.Constant"][16], dtype="float16")
            lv29_1: R.Tensor((1, 768), dtype="float32") = R.matmul(lv85, lv28_1, out_dtype="float32")
            lv86: R.Tensor((1, 768), dtype="float16") = R.astype(lv29_1, dtype="float16")
            lv30_1: R.Tensor((768,), dtype="float16") = R.astype(metadata["relax.expr.Constant"][17], dtype="float16")
            lv87: R.Tensor((1, 768), dtype="float16") = R.add(lv86, lv30_1)
            lv88: R.Tensor((1, 1, 768), dtype="float16") = R.reshape(lv87, R.shape([1, 1, 768]))
            lv31_1: R.Tensor((1, 1, 768), dtype="float32") = R.astype(lv88, dtype="float32")
            lv89: R.Tensor((1, 1, 768), dtype="float32") = R.add(lv63, lv31_1)
            lv90: R.Tensor((1, 1, 1), dtype="float32") = R.mean(lv89, axis=[-1], keepdims=True)
            lv91: R.Tensor((1, 1, 768), dtype="float32") = R.subtract(lv89, lv90)
            lv92: R.Tensor((1, 1, 768), dtype="float32") = R.power(lv91, R.const(2.0, "float32"))
            lv93: R.Tensor((1, 1, 1), dtype="float32") = R.mean(lv92, axis=[-1], keepdims=True)
            lv94: R.Tensor((1, 1, 1), dtype="float32") = R.add(lv93, R.const(9.9999997473787516e-06, "float32"))
            lv95: R.Tensor((1, 1, 1), dtype="float32") = R.sqrt(lv94)
            lv96: R.Tensor((1, 1, 768), dtype="float32") = R.divide(lv91, lv95)
            lv97: R.Tensor((1, 1, 768), dtype="float32") = R.multiply(lv96, metadata["relax.expr.Constant"][18])
            lv98: R.Tensor((1, 1, 768), dtype="float32") = R.add(lv97, metadata["relax.expr.Constant"][19])
            lv99: R.Tensor((1, 768), dtype="float32") = R.reshape(lv98, R.shape([1, 768]))
            lv32_1: R.Tensor((1, 768), dtype="float16") = R.astype(lv99, dtype="float16")
            lv33_1: R.Tensor((768, 2304), dtype="float16") = R.astype(metadata["relax.expr.Constant"][20], dtype="float16")
            lv34_1: R.Tensor((1, 2304), dtype="float32") = R.matmul(lv32_1, lv33_1, out_dtype="float32")
            lv100: R.Tensor((1, 2304), dtype="float16") = R.astype(lv34_1, dtype="float16")
            lv35_1: R.Tensor((2304,), dtype="float16") = R.astype(metadata["relax.expr.Constant"][21], dtype="float16")
            lv101: R.Tensor((1, 2304), dtype="float16") = R.add(lv100, lv35_1)
            lv102: R.Tensor((1, 1, 2304), dtype="float16") = R.reshape(lv101, R.shape([1, 1, 2304]))
            lv103: R.Tuple(R.Tensor((1, 1, 768), dtype="float16"), R.Tensor((1, 1, 768), dtype="float16"), R.Tensor((1, 1, 768), dtype="float16")) = R.split(lv102, indices_or_sections=[768, 1536], axis=2)
            lv104: R.Tensor((1, 1, 768), dtype="float16") = lv103[0]
            lv105: R.Tensor((1, 1, 768), dtype="float16") = lv103[1]
            lv106: R.Tensor((1, 1, 768), dtype="float16") = lv103[2]
            lv107: R.Tensor((1, 1, 12, 64), dtype="float16") = R.reshape(lv104, R.shape([1, 1, 12, 64]))
            lv108: R.Tensor((1, 1, 12, 64), dtype="float16") = R.reshape(lv105, R.shape([1, 1, 12, 64]))
            lv109: R.Tensor((1, 1, 12, 64), dtype="float16") = R.reshape(lv106, R.shape([1, 1, 12, 64]))
            lv110: R.Tensor((1, 12, 1, 64), dtype="float16") = R.permute_dims(lv108, axes=[0, 2, 1, 3])
            lv111: R.Tensor((1, 12, 1, 64), dtype="float16") = R.permute_dims(lv109, axes=[0, 2, 1, 3])
            lv112: R.Tensor((1, 12, 1, 64), dtype="float16") = R.permute_dims(lv107, axes=[0, 2, 1, 3])
            lv36_1: R.Tensor((1, 12, 1, 64), dtype="float32") = R.astype(lv110, dtype="float32")
            lv113: R.Tensor((1, 12, past_sequence_length + 1, 64), dtype="float32") = R.concat((past_key_values_1_key, lv36_1), axis=-2)
            lv114: R.Tensor((1, 12, 64, past_sequence_length + 1), dtype="float32") = R.permute_dims(lv113, axes=[0, 1, 3, 2])
            lv37_1: R.Tensor((1,), dtype="float16") = R.astype(metadata["relax.expr.Constant"][22], dtype="float16")
            lv115: R.Tensor((1, 12, 1, 64), dtype="float16") = R.multiply(lv112, lv37_1)
            lv116: R.Tensor((1, 12, 64, past_sequence_length + 1), dtype="float32") = R.multiply(lv114, metadata["relax.expr.Constant"][23])
            lv38_1: R.Tensor((1, 12, 64, past_sequence_length + 1), dtype="float16") = R.astype(lv116, dtype="float16")
            lv39_1: R.Tensor((1, 12, 1, past_sequence_length + 1), dtype="float32") = R.matmul(lv115, lv38_1, out_dtype="float32")
            lv117: R.Tensor((1, 12, 1, past_sequence_length + 1), dtype="float16") = R.astype(lv39_1, dtype="float16")
            lv40_1: R.Tensor((1, 12, 1, past_sequence_length + 1), dtype="float32") = R.astype(lv117, dtype="float32")
            lv118: R.Tensor((1, 12, 1, past_sequence_length + 1), dtype="float32") = R.add(lv40_1, lv52)
            lv119: R.Tensor((1, 12, 1, past_sequence_length + 1), dtype="float32") = R.nn.softmax(lv118, axis=-1)
            lv41_1: R.Tensor((1, 12, 1, past_sequence_length + 1), dtype="float16") = R.astype(lv119, dtype="float16")
            lv42_1: R.Tensor((1, 12, 1, 64), dtype="float32") = R.astype(lv111, dtype="float32")
            lv120: R.Tensor((1, 12, past_sequence_length + 1, 64), dtype="float32") = R.concat((past_key_values_1_value, lv42_1), axis=-2)
            lv43_1: R.Tensor((1, 12, past_sequence_length + 1, 64), dtype="float16") = R.astype(lv120, dtype="float16")
            lv44_1: R.Tensor((1, 12, 1, 64), dtype="float32") = R.matmul(lv41_1, lv43_1, out_dtype="float32")
            lv121: R.Tensor((1, 12, 1, 64), dtype="float16") = R.astype(lv44_1, dtype="float16")
            lv122: R.Tensor((1, 1, 12, 64), dtype="float16") = R.permute_dims(lv121, axes=[0, 2, 1, 3])
            lv123: R.Tensor((1, 1, 768), dtype="float16") = R.reshape(lv122, R.shape([1, 1, 768]))
            lv124: R.Tensor((1, 768), dtype="float16") = R.reshape(lv123, R.shape([1, 768]))
            lv45_1: R.Tensor((768, 768), dtype="float16") = R.astype(metadata["relax.expr.Constant"][24], dtype="float16")
            lv46_1: R.Tensor((1, 768), dtype="float32") = R.matmul(lv124, lv45_1, out_dtype="float32")
            lv125: R.Tensor((1, 768), dtype="float16") = R.astype(lv46_1, dtype="float16")
            lv47_1: R.Tensor((768,), dtype="float16") = R.astype(metadata["relax.expr.Constant"][25], dtype="float16")
            lv126: R.Tensor((1, 768), dtype="float16") = R.add(lv125, lv47_1)
            lv127: R.Tensor((1, 1, 768), dtype="float16") = R.reshape(lv126, R.shape([1, 1, 768]))
            lv48_1: R.Tensor((1, 1, 768), dtype="float32") = R.astype(lv127, dtype="float32")
            lv128: R.Tensor((1, 1, 768), dtype="float32") = R.add(lv48_1, lv89)
            lv129: R.Tensor((1, 1, 1), dtype="float32") = R.mean(lv128, axis=[-1], keepdims=True)
            lv130: R.Tensor((1, 1, 768), dtype="float32") = R.subtract(lv128, lv129)
            lv131: R.Tensor((1, 1, 768), dtype="float32") = R.power(lv130, R.const(2.0, "float32"))
            lv132: R.Tensor((1, 1, 1), dtype="float32") = R.mean(lv131, axis=[-1], keepdims=True)
            lv133: R.Tensor((1, 1, 1), dtype="float32") = R.add(lv132, R.const(9.9999997473787516e-06, "float32"))
            lv134: R.Tensor((1, 1, 1), dtype="float32") = R.sqrt(lv133)
            lv135: R.Tensor((1, 1, 768), dtype="float32") = R.divide(lv130, lv134)
            lv136: R.Tensor((1, 1, 768), dtype="float32") = R.multiply(lv135, metadata["relax.expr.Constant"][26])
            lv137: R.Tensor((1, 1, 768), dtype="float32") = R.add(lv136, metadata["relax.expr.Constant"][27])
            lv138: R.Tensor((1, 768), dtype="float32") = R.reshape(lv137, R.shape([1, 768]))
            lv49_1: R.Tensor((1, 768), dtype="float16") = R.astype(lv138, dtype="float16")
            lv50_1: R.Tensor((768, 3072), dtype="float16") = R.astype(metadata["relax.expr.Constant"][28], dtype="float16")
            lv51_1: R.Tensor((1, 3072), dtype="float32") = R.matmul(lv49_1, lv50_1, out_dtype="float32")
            lv139: R.Tensor((1, 3072), dtype="float16") = R.astype(lv51_1, dtype="float16")
            lv52_1: R.Tensor((3072,), dtype="float16") = R.astype(metadata["relax.expr.Constant"][29], dtype="float16")
            lv140: R.Tensor((1, 3072), dtype="float16") = R.add(lv139, lv52_1)
            lv141: R.Tensor((1, 1, 3072), dtype="float16") = R.reshape(lv140, R.shape([1, 1, 3072]))
            lv53_1: R.Tensor((), dtype="float16") = R.astype(R.const(3.0, "float32"), dtype="float16")
            lv142: R.Tensor((1, 1, 3072), dtype="float16") = R.power(lv141, lv53_1)
            lv54_1: R.Tensor((), dtype="float16") = R.astype(R.const(0.044714998453855515, "float32"), dtype="float16")
            lv143: R.Tensor((1, 1, 3072), dtype="float16") = R.multiply(lv142, lv54_1)
            lv144: R.Tensor((1, 1, 3072), dtype="float16") = R.add(lv141, lv143)
            lv55_1: R.Tensor((), dtype="float16") = R.astype(R.const(0.79788458347320557, "float32"), dtype="float16")
            lv145: R.Tensor((1, 1, 3072), dtype="float16") = R.multiply(lv144, lv55_1)
            lv146: R.Tensor((1, 1, 3072), dtype="float16") = R.tanh(lv145)
            lv56_1: R.Tensor((), dtype="float16") = R.astype(R.const(0.5, "float32"), dtype="float16")
            lv147: R.Tensor((1, 1, 3072), dtype="float16") = R.multiply(lv141, lv56_1)
            lv57_1: R.Tensor((), dtype="float16") = R.astype(R.const(1.0, "float32"), dtype="float16")
            lv148: R.Tensor((1, 1, 3072), dtype="float16") = R.add(lv146, lv57_1)
            lv149: R.Tensor((1, 1, 3072), dtype="float16") = R.multiply(lv147, lv148)
            lv150: R.Tensor((1, 3072), dtype="float16") = R.reshape(lv149, R.shape([1, 3072]))
            lv58_1: R.Tensor((3072, 768), dtype="float16") = R.astype(metadata["relax.expr.Constant"][30], dtype="float16")
            lv59_1: R.Tensor((1, 768), dtype="float32") = R.matmul(lv150, lv58_1, out_dtype="float32")
            lv151: R.Tensor((1, 768), dtype="float16") = R.astype(lv59_1, dtype="float16")
            lv60_1: R.Tensor((768,), dtype="float16") = R.astype(metadata["relax.expr.Constant"][31], dtype="float16")
            lv152: R.Tensor((1, 768), dtype="float16") = R.add(lv151, lv60_1)
            lv153: R.Tensor((1, 1, 768), dtype="float16") = R.reshape(lv152, R.shape([1, 1, 768]))
            lv61_1: R.Tensor((1, 1, 768), dtype="float32") = R.astype(lv153, dtype="float32")
            lv154: R.Tensor((1, 1, 768), dtype="float32") = R.add(lv128, lv61_1)
            lv155: R.Tensor((1, 1, 1), dtype="float32") = R.mean(lv154, axis=[-1], keepdims=True)
            lv156: R.Tensor((1, 1, 768), dtype="float32") = R.subtract(lv154, lv155)
            lv157: R.Tensor((1, 1, 768), dtype="float32") = R.power(lv156, R.const(2.0, "float32"))
            lv158: R.Tensor((1, 1, 1), dtype="float32") = R.mean(lv157, axis=[-1], keepdims=True)
            lv159: R.Tensor((1, 1, 1), dtype="float32") = R.add(lv158, R.const(9.9999997473787516e-06, "float32"))
            lv160: R.Tensor((1, 1, 1), dtype="float32") = R.sqrt(lv159)
            lv161: R.Tensor((1, 1, 768), dtype="float32") = R.divide(lv156, lv160)
            lv162: R.Tensor((1, 1, 768), dtype="float32") = R.multiply(lv161, metadata["relax.expr.Constant"][32])
            lv163: R.Tensor((1, 1, 768), dtype="float32") = R.add(lv162, metadata["relax.expr.Constant"][33])
            lv164: R.Tensor((1, 768), dtype="float32") = R.reshape(lv163, R.shape([1, 768]))
            lv62_1: R.Tensor((1, 768), dtype="float16") = R.astype(lv164, dtype="float16")
            lv63_1: R.Tensor((768, 2304), dtype="float16") = R.astype(metadata["relax.expr.Constant"][34], dtype="float16")
            lv64_1: R.Tensor((1, 2304), dtype="float32") = R.matmul(lv62_1, lv63_1, out_dtype="float32")
            lv165: R.Tensor((1, 2304), dtype="float16") = R.astype(lv64_1, dtype="float16")
            lv65_1: R.Tensor((2304,), dtype="float16") = R.astype(metadata["relax.expr.Constant"][35], dtype="float16")
            lv166: R.Tensor((1, 2304), dtype="float16") = R.add(lv165, lv65_1)
            lv167: R.Tensor((1, 1, 2304), dtype="float16") = R.reshape(lv166, R.shape([1, 1, 2304]))
            lv168: R.Tuple(R.Tensor((1, 1, 768), dtype="float16"), R.Tensor((1, 1, 768), dtype="float16"), R.Tensor((1, 1, 768), dtype="float16")) = R.split(lv167, indices_or_sections=[768, 1536], axis=2)
            lv169: R.Tensor((1, 1, 768), dtype="float16") = lv168[0]
            lv170: R.Tensor((1, 1, 768), dtype="float16") = lv168[1]
            lv171: R.Tensor((1, 1, 768), dtype="float16") = lv168[2]
            lv172: R.Tensor((1, 1, 12, 64), dtype="float16") = R.reshape(lv169, R.shape([1, 1, 12, 64]))
            lv173: R.Tensor((1, 1, 12, 64), dtype="float16") = R.reshape(lv170, R.shape([1, 1, 12, 64]))
            lv174: R.Tensor((1, 1, 12, 64), dtype="float16") = R.reshape(lv171, R.shape([1, 1, 12, 64]))
            lv175: R.Tensor((1, 12, 1, 64), dtype="float16") = R.permute_dims(lv173, axes=[0, 2, 1, 3])
            lv176: R.Tensor((1, 12, 1, 64), dtype="float16") = R.permute_dims(lv174, axes=[0, 2, 1, 3])
            lv177: R.Tensor((1, 12, 1, 64), dtype="float16") = R.permute_dims(lv172, axes=[0, 2, 1, 3])
            lv66_1: R.Tensor((1, 12, 1, 64), dtype="float32") = R.astype(lv175, dtype="float32")
            lv178: R.Tensor((1, 12, past_sequence_length + 1, 64), dtype="float32") = R.concat((past_key_values_2_key, lv66_1), axis=-2)
            lv179: R.Tensor((1, 12, 64, past_sequence_length + 1), dtype="float32") = R.permute_dims(lv178, axes=[0, 1, 3, 2])
            lv67_1: R.Tensor((1,), dtype="float16") = R.astype(metadata["relax.expr.Constant"][36], dtype="float16")
            lv180: R.Tensor((1, 12, 1, 64), dtype="float16") = R.multiply(lv177, lv67_1)
            lv181: R.Tensor((1, 12, 64, past_sequence_length + 1), dtype="float32") = R.multiply(lv179, metadata["relax.expr.Constant"][37])
            lv68_1: R.Tensor((1, 12, 64, past_sequence_length + 1), dtype="float16") = R.astype(lv181, dtype="float16")
            lv69_1: R.Tensor((1, 12, 1, past_sequence_length + 1), dtype="float32") = R.matmul(lv180, lv68_1, out_dtype="float32")
            lv182: R.Tensor((1, 12, 1, past_sequence_length + 1), dtype="float16") = R.astype(lv69_1, dtype="float16")
            lv70_1: R.Tensor((1, 12, 1, past_sequence_length + 1), dtype="float32") = R.astype(lv182, dtype="float32")
            lv183: R.Tensor((1, 12, 1, past_sequence_length + 1), dtype="float32") = R.add(lv70_1, lv52)
            lv184: R.Tensor((1, 12, 1, past_sequence_length + 1), dtype="float32") = R.nn.softmax(lv183, axis=-1)
            lv71_1: R.Tensor((1, 12, 1, past_sequence_length + 1), dtype="float16") = R.astype(lv184, dtype="float16")
            lv72_1: R.Tensor((1, 12, 1, 64), dtype="float32") = R.astype(lv176, dtype="float32")
            lv185: R.Tensor((1, 12, past_sequence_length + 1, 64), dtype="float32") = R.concat((past_key_values_2_value, lv72_1), axis=-2)
            lv73_1: R.Tensor((1, 12, past_sequence_length + 1, 64), dtype="float16") = R.astype(lv185, dtype="float16")
            lv74_1: R.Tensor((1, 12, 1, 64), dtype="float32") = R.matmul(lv71_1, lv73_1, out_dtype="float32")
            lv186: R.Tensor((1, 12, 1, 64), dtype="float16") = R.astype(lv74_1, dtype="float16")
            lv187: R.Tensor((1, 1, 12, 64), dtype="float16") = R.permute_dims(lv186, axes=[0, 2, 1, 3])
            lv188: R.Tensor((1, 1, 768), dtype="float16") = R.reshape(lv187, R.shape([1, 1, 768]))
            lv189: R.Tensor((1, 768), dtype="float16") = R.reshape(lv188, R.shape([1, 768]))
            lv75_1: R.Tensor((768, 768), dtype="float16") = R.astype(metadata["relax.expr.Constant"][38], dtype="float16")
            lv76_1: R.Tensor((1, 768), dtype="float32") = R.matmul(lv189, lv75_1, out_dtype="float32")
            lv190: R.Tensor((1, 768), dtype="float16") = R.astype(lv76_1, dtype="float16")
            lv77_1: R.Tensor((768,), dtype="float16") = R.astype(metadata["relax.expr.Constant"][39], dtype="float16")
            lv191: R.Tensor((1, 768), dtype="float16") = R.add(lv190, lv77_1)
            lv192: R.Tensor((1, 1, 768), dtype="float16") = R.reshape(lv191, R.shape([1, 1, 768]))
            lv78_1: R.Tensor((1, 1, 768), dtype="float32") = R.astype(lv192, dtype="float32")
            lv193: R.Tensor((1, 1, 768), dtype="float32") = R.add(lv78_1, lv154)
            lv194: R.Tensor((1, 1, 1), dtype="float32") = R.mean(lv193, axis=[-1], keepdims=True)
            lv195: R.Tensor((1, 1, 768), dtype="float32") = R.subtract(lv193, lv194)
            lv196: R.Tensor((1, 1, 768), dtype="float32") = R.power(lv195, R.const(2.0, "float32"))
            lv197: R.Tensor((1, 1, 1), dtype="float32") = R.mean(lv196, axis=[-1], keepdims=True)
            lv198: R.Tensor((1, 1, 1), dtype="float32") = R.add(lv197, R.const(9.9999997473787516e-06, "float32"))
            lv199: R.Tensor((1, 1, 1), dtype="float32") = R.sqrt(lv198)
            lv200: R.Tensor((1, 1, 768), dtype="float32") = R.divide(lv195, lv199)
            lv201: R.Tensor((1, 1, 768), dtype="float32") = R.multiply(lv200, metadata["relax.expr.Constant"][40])
            lv202: R.Tensor((1, 1, 768), dtype="float32") = R.add(lv201, metadata["relax.expr.Constant"][41])
            lv203: R.Tensor((1, 768), dtype="float32") = R.reshape(lv202, R.shape([1, 768]))
            lv79_1: R.Tensor((1, 768), dtype="float16") = R.astype(lv203, dtype="float16")
            lv80_1: R.Tensor((768, 3072), dtype="float16") = R.astype(metadata["relax.expr.Constant"][42], dtype="float16")
            lv81_1: R.Tensor((1, 3072), dtype="float32") = R.matmul(lv79_1, lv80_1, out_dtype="float32")
            lv204: R.Tensor((1, 3072), dtype="float16") = R.astype(lv81_1, dtype="float16")
            lv82_1: R.Tensor((3072,), dtype="float16") = R.astype(metadata["relax.expr.Constant"][43], dtype="float16")
            lv205: R.Tensor((1, 3072), dtype="float16") = R.add(lv204, lv82_1)
            lv206: R.Tensor((1, 1, 3072), dtype="float16") = R.reshape(lv205, R.shape([1, 1, 3072]))
            lv83_1: R.Tensor((), dtype="float16") = R.astype(R.const(3.0, "float32"), dtype="float16")
            lv207: R.Tensor((1, 1, 3072), dtype="float16") = R.power(lv206, lv83_1)
            lv84_1: R.Tensor((), dtype="float16") = R.astype(R.const(0.044714998453855515, "float32"), dtype="float16")
            lv208: R.Tensor((1, 1, 3072), dtype="float16") = R.multiply(lv207, lv84_1)
            lv209: R.Tensor((1, 1, 3072), dtype="float16") = R.add(lv206, lv208)
            lv85_1: R.Tensor((), dtype="float16") = R.astype(R.const(0.79788458347320557, "float32"), dtype="float16")
            lv210: R.Tensor((1, 1, 3072), dtype="float16") = R.multiply(lv209, lv85_1)
            lv211: R.Tensor((1, 1, 3072), dtype="float16") = R.tanh(lv210)
            lv86_1: R.Tensor((), dtype="float16") = R.astype(R.const(0.5, "float32"), dtype="float16")
            lv212: R.Tensor((1, 1, 3072), dtype="float16") = R.multiply(lv206, lv86_1)
            lv87_1: R.Tensor((), dtype="float16") = R.astype(R.const(1.0, "float32"), dtype="float16")
            lv213: R.Tensor((1, 1, 3072), dtype="float16") = R.add(lv211, lv87_1)
            lv214: R.Tensor((1, 1, 3072), dtype="float16") = R.multiply(lv212, lv213)
            lv215: R.Tensor((1, 3072), dtype="float16") = R.reshape(lv214, R.shape([1, 3072]))
            lv88_1: R.Tensor((3072, 768), dtype="float16") = R.astype(metadata["relax.expr.Constant"][44], dtype="float16")
            lv89_1: R.Tensor((1, 768), dtype="float32") = R.matmul(lv215, lv88_1, out_dtype="float32")
            lv216: R.Tensor((1, 768), dtype="float16") = R.astype(lv89_1, dtype="float16")
            lv90_1: R.Tensor((768,), dtype="float16") = R.astype(metadata["relax.expr.Constant"][45], dtype="float16")
            lv217: R.Tensor((1, 768), dtype="float16") = R.add(lv216, lv90_1)
            lv218: R.Tensor((1, 1, 768), dtype="float16") = R.reshape(lv217, R.shape([1, 1, 768]))
            lv91_1: R.Tensor((1, 1, 768), dtype="float32") = R.astype(lv218, dtype="float32")
            lv219: R.Tensor((1, 1, 768), dtype="float32") = R.add(lv193, lv91_1)
            lv220: R.Tensor((1, 1, 1), dtype="float32") = R.mean(lv219, axis=[-1], keepdims=True)
            lv221: R.Tensor((1, 1, 768), dtype="float32") = R.subtract(lv219, lv220)
            lv222: R.Tensor((1, 1, 768), dtype="float32") = R.power(lv221, R.const(2.0, "float32"))
            lv223: R.Tensor((1, 1, 1), dtype="float32") = R.mean(lv222, axis=[-1], keepdims=True)
            lv224: R.Tensor((1, 1, 1), dtype="float32") = R.add(lv223, R.const(9.9999997473787516e-06, "float32"))
            lv225: R.Tensor((1, 1, 1), dtype="float32") = R.sqrt(lv224)
            lv226: R.Tensor((1, 1, 768), dtype="float32") = R.divide(lv221, lv225)
            lv227: R.Tensor((1, 1, 768), dtype="float32") = R.multiply(lv226, metadata["relax.expr.Constant"][46])
            lv228: R.Tensor((1, 1, 768), dtype="float32") = R.add(lv227, metadata["relax.expr.Constant"][47])
            lv229: R.Tensor((1, 768), dtype="float32") = R.reshape(lv228, R.shape([1, 768]))
            lv92_1: R.Tensor((1, 768), dtype="float16") = R.astype(lv229, dtype="float16")
            lv93_1: R.Tensor((768, 2304), dtype="float16") = R.astype(metadata["relax.expr.Constant"][48], dtype="float16")
            lv94_1: R.Tensor((1, 2304), dtype="float32") = R.matmul(lv92_1, lv93_1, out_dtype="float32")
            lv230: R.Tensor((1, 2304), dtype="float16") = R.astype(lv94_1, dtype="float16")
            lv95_1: R.Tensor((2304,), dtype="float16") = R.astype(metadata["relax.expr.Constant"][49], dtype="float16")
            lv231: R.Tensor((1, 2304), dtype="float16") = R.add(lv230, lv95_1)
            lv232: R.Tensor((1, 1, 2304), dtype="float16") = R.reshape(lv231, R.shape([1, 1, 2304]))
            lv233: R.Tuple(R.Tensor((1, 1, 768), dtype="float16"), R.Tensor((1, 1, 768), dtype="float16"), R.Tensor((1, 1, 768), dtype="float16")) = R.split(lv232, indices_or_sections=[768, 1536], axis=2)
            lv234: R.Tensor((1, 1, 768), dtype="float16") = lv233[0]
            lv235: R.Tensor((1, 1, 768), dtype="float16") = lv233[1]
            lv236: R.Tensor((1, 1, 768), dtype="float16") = lv233[2]
            lv237: R.Tensor((1, 1, 12, 64), dtype="float16") = R.reshape(lv234, R.shape([1, 1, 12, 64]))
            lv238: R.Tensor((1, 1, 12, 64), dtype="float16") = R.reshape(lv235, R.shape([1, 1, 12, 64]))
            lv239: R.Tensor((1, 1, 12, 64), dtype="float16") = R.reshape(lv236, R.shape([1, 1, 12, 64]))
            lv240: R.Tensor((1, 12, 1, 64), dtype="float16") = R.permute_dims(lv238, axes=[0, 2, 1, 3])
            lv241: R.Tensor((1, 12, 1, 64), dtype="float16") = R.permute_dims(lv239, axes=[0, 2, 1, 3])
            lv242: R.Tensor((1, 12, 1, 64), dtype="float16") = R.permute_dims(lv237, axes=[0, 2, 1, 3])
            lv96_1: R.Tensor((1, 12, 1, 64), dtype="float32") = R.astype(lv240, dtype="float32")
            lv243: R.Tensor((1, 12, past_sequence_length + 1, 64), dtype="float32") = R.concat((past_key_values_3_key, lv96_1), axis=-2)
            lv244: R.Tensor((1, 12, 64, past_sequence_length + 1), dtype="float32") = R.permute_dims(lv243, axes=[0, 1, 3, 2])
            lv97_1: R.Tensor((1,), dtype="float16") = R.astype(metadata["relax.expr.Constant"][50], dtype="float16")
            lv245: R.Tensor((1, 12, 1, 64), dtype="float16") = R.multiply(lv242, lv97_1)
            lv246: R.Tensor((1, 12, 64, past_sequence_length + 1), dtype="float32") = R.multiply(lv244, metadata["relax.expr.Constant"][51])
            lv98_1: R.Tensor((1, 12, 64, past_sequence_length + 1), dtype="float16") = R.astype(lv246, dtype="float16")
            lv99_1: R.Tensor((1, 12, 1, past_sequence_length + 1), dtype="float32") = R.matmul(lv245, lv98_1, out_dtype="float32")
            lv247: R.Tensor((1, 12, 1, past_sequence_length + 1), dtype="float16") = R.astype(lv99_1, dtype="float16")
            lv100_1: R.Tensor((1, 12, 1, past_sequence_length + 1), dtype="float32") = R.astype(lv247, dtype="float32")
            lv248: R.Tensor((1, 12, 1, past_sequence_length + 1), dtype="float32") = R.add(lv100_1, lv52)
            lv249: R.Tensor((1, 12, 1, past_sequence_length + 1), dtype="float32") = R.nn.softmax(lv248, axis=-1)
            lv101_1: R.Tensor((1, 12, 1, past_sequence_length + 1), dtype="float16") = R.astype(lv249, dtype="float16")
            lv102_1: R.Tensor((1, 12, 1, 64), dtype="float32") = R.astype(lv241, dtype="float32")
            lv250: R.Tensor((1, 12, past_sequence_length + 1, 64), dtype="float32") = R.concat((past_key_values_3_value, lv102_1), axis=-2)
            lv103_1: R.Tensor((1, 12, past_sequence_length + 1, 64), dtype="float16") = R.astype(lv250, dtype="float16")
            lv104_1: R.Tensor((1, 12, 1, 64), dtype="float32") = R.matmul(lv101_1, lv103_1, out_dtype="float32")
            lv251: R.Tensor((1, 12, 1, 64), dtype="float16") = R.astype(lv104_1, dtype="float16")
            lv252: R.Tensor((1, 1, 12, 64), dtype="float16") = R.permute_dims(lv251, axes=[0, 2, 1, 3])
            lv253: R.Tensor((1, 1, 768), dtype="float16") = R.reshape(lv252, R.shape([1, 1, 768]))
            lv254: R.Tensor((1, 768), dtype="float16") = R.reshape(lv253, R.shape([1, 768]))
            lv105_1: R.Tensor((768, 768), dtype="float16") = R.astype(metadata["relax.expr.Constant"][52], dtype="float16")
            lv106_1: R.Tensor((1, 768), dtype="float32") = R.matmul(lv254, lv105_1, out_dtype="float32")
            lv255: R.Tensor((1, 768), dtype="float16") = R.astype(lv106_1, dtype="float16")
            lv107_1: R.Tensor((768,), dtype="float16") = R.astype(metadata["relax.expr.Constant"][53], dtype="float16")
            lv256: R.Tensor((1, 768), dtype="float16") = R.add(lv255, lv107_1)
            lv257: R.Tensor((1, 1, 768), dtype="float16") = R.reshape(lv256, R.shape([1, 1, 768]))
            lv108_1: R.Tensor((1, 1, 768), dtype="float32") = R.astype(lv257, dtype="float32")
            lv258: R.Tensor((1, 1, 768), dtype="float32") = R.add(lv108_1, lv219)
            lv259: R.Tensor((1, 1, 1), dtype="float32") = R.mean(lv258, axis=[-1], keepdims=True)
            lv260: R.Tensor((1, 1, 768), dtype="float32") = R.subtract(lv258, lv259)
            lv261: R.Tensor((1, 1, 768), dtype="float32") = R.power(lv260, R.const(2.0, "float32"))
            lv262: R.Tensor((1, 1, 1), dtype="float32") = R.mean(lv261, axis=[-1], keepdims=True)
            lv263: R.Tensor((1, 1, 1), dtype="float32") = R.add(lv262, R.const(9.9999997473787516e-06, "float32"))
            lv264: R.Tensor((1, 1, 1), dtype="float32") = R.sqrt(lv263)
            lv265: R.Tensor((1, 1, 768), dtype="float32") = R.divide(lv260, lv264)
            lv266: R.Tensor((1, 1, 768), dtype="float32") = R.multiply(lv265, metadata["relax.expr.Constant"][54])
            lv267: R.Tensor((1, 1, 768), dtype="float32") = R.add(lv266, metadata["relax.expr.Constant"][55])
            lv268: R.Tensor((1, 768), dtype="float32") = R.reshape(lv267, R.shape([1, 768]))
            lv109_1: R.Tensor((1, 768), dtype="float16") = R.astype(lv268, dtype="float16")
            lv110_1: R.Tensor((768, 3072), dtype="float16") = R.astype(metadata["relax.expr.Constant"][56], dtype="float16")
            lv111_1: R.Tensor((1, 3072), dtype="float32") = R.matmul(lv109_1, lv110_1, out_dtype="float32")
            lv269: R.Tensor((1, 3072), dtype="float16") = R.astype(lv111_1, dtype="float16")
            lv112_1: R.Tensor((3072,), dtype="float16") = R.astype(metadata["relax.expr.Constant"][57], dtype="float16")
            lv270: R.Tensor((1, 3072), dtype="float16") = R.add(lv269, lv112_1)
            lv271: R.Tensor((1, 1, 3072), dtype="float16") = R.reshape(lv270, R.shape([1, 1, 3072]))
            lv113_1: R.Tensor((), dtype="float16") = R.astype(R.const(3.0, "float32"), dtype="float16")
            lv272: R.Tensor((1, 1, 3072), dtype="float16") = R.power(lv271, lv113_1)
            lv114_1: R.Tensor((), dtype="float16") = R.astype(R.const(0.044714998453855515, "float32"), dtype="float16")
            lv273: R.Tensor((1, 1, 3072), dtype="float16") = R.multiply(lv272, lv114_1)
            lv274: R.Tensor((1, 1, 3072), dtype="float16") = R.add(lv271, lv273)
            lv115_1: R.Tensor((), dtype="float16") = R.astype(R.const(0.79788458347320557, "float32"), dtype="float16")
            lv275: R.Tensor((1, 1, 3072), dtype="float16") = R.multiply(lv274, lv115_1)
            lv276: R.Tensor((1, 1, 3072), dtype="float16") = R.tanh(lv275)
            lv116_1: R.Tensor((), dtype="float16") = R.astype(R.const(0.5, "float32"), dtype="float16")
            lv277: R.Tensor((1, 1, 3072), dtype="float16") = R.multiply(lv271, lv116_1)
            lv117_1: R.Tensor((), dtype="float16") = R.astype(R.const(1.0, "float32"), dtype="float16")
            lv278: R.Tensor((1, 1, 3072), dtype="float16") = R.add(lv276, lv117_1)
            lv279: R.Tensor((1, 1, 3072), dtype="float16") = R.multiply(lv277, lv278)
            lv280: R.Tensor((1, 3072), dtype="float16") = R.reshape(lv279, R.shape([1, 3072]))
            lv118_1: R.Tensor((3072, 768), dtype="float16") = R.astype(metadata["relax.expr.Constant"][58], dtype="float16")
            lv119_1: R.Tensor((1, 768), dtype="float32") = R.matmul(lv280, lv118_1, out_dtype="float32")
            lv281: R.Tensor((1, 768), dtype="float16") = R.astype(lv119_1, dtype="float16")
            lv120_1: R.Tensor((768,), dtype="float16") = R.astype(metadata["relax.expr.Constant"][59], dtype="float16")
            lv282: R.Tensor((1, 768), dtype="float16") = R.add(lv281, lv120_1)
            lv283: R.Tensor((1, 1, 768), dtype="float16") = R.reshape(lv282, R.shape([1, 1, 768]))
            lv121_1: R.Tensor((1, 1, 768), dtype="float32") = R.astype(lv283, dtype="float32")
            lv284: R.Tensor((1, 1, 768), dtype="float32") = R.add(lv258, lv121_1)
            lv285: R.Tensor((1, 1, 1), dtype="float32") = R.mean(lv284, axis=[-1], keepdims=True)
            lv286: R.Tensor((1, 1, 768), dtype="float32") = R.subtract(lv284, lv285)
            lv287: R.Tensor((1, 1, 768), dtype="float32") = R.power(lv286, R.const(2.0, "float32"))
            lv288: R.Tensor((1, 1, 1), dtype="float32") = R.mean(lv287, axis=[-1], keepdims=True)
            lv289: R.Tensor((1, 1, 1), dtype="float32") = R.add(lv288, R.const(9.9999997473787516e-06, "float32"))
            lv290: R.Tensor((1, 1, 1), dtype="float32") = R.sqrt(lv289)
            lv291: R.Tensor((1, 1, 768), dtype="float32") = R.divide(lv286, lv290)
            lv292: R.Tensor((1, 1, 768), dtype="float32") = R.multiply(lv291, metadata["relax.expr.Constant"][60])
            lv293: R.Tensor((1, 1, 768), dtype="float32") = R.add(lv292, metadata["relax.expr.Constant"][61])
            lv294: R.Tensor((1, 768), dtype="float32") = R.reshape(lv293, R.shape([1, 768]))
            lv122_1: R.Tensor((1, 768), dtype="float16") = R.astype(lv294, dtype="float16")
            lv123_1: R.Tensor((768, 2304), dtype="float16") = R.astype(metadata["relax.expr.Constant"][62], dtype="float16")
            lv124_1: R.Tensor((1, 2304), dtype="float32") = R.matmul(lv122_1, lv123_1, out_dtype="float32")
            lv295: R.Tensor((1, 2304), dtype="float16") = R.astype(lv124_1, dtype="float16")
            lv125_1: R.Tensor((2304,), dtype="float16") = R.astype(metadata["relax.expr.Constant"][63], dtype="float16")
            lv296: R.Tensor((1, 2304), dtype="float16") = R.add(lv295, lv125_1)
            lv297: R.Tensor((1, 1, 2304), dtype="float16") = R.reshape(lv296, R.shape([1, 1, 2304]))
            lv298: R.Tuple(R.Tensor((1, 1, 768), dtype="float16"), R.Tensor((1, 1, 768), dtype="float16"), R.Tensor((1, 1, 768), dtype="float16")) = R.split(lv297, indices_or_sections=[768, 1536], axis=2)
            lv299: R.Tensor((1, 1, 768), dtype="float16") = lv298[0]
            lv300: R.Tensor((1, 1, 768), dtype="float16") = lv298[1]
            lv301: R.Tensor((1, 1, 768), dtype="float16") = lv298[2]
            lv302: R.Tensor((1, 1, 12, 64), dtype="float16") = R.reshape(lv299, R.shape([1, 1, 12, 64]))
            lv303: R.Tensor((1, 1, 12, 64), dtype="float16") = R.reshape(lv300, R.shape([1, 1, 12, 64]))
            lv304: R.Tensor((1, 1, 12, 64), dtype="float16") = R.reshape(lv301, R.shape([1, 1, 12, 64]))
            lv305: R.Tensor((1, 12, 1, 64), dtype="float16") = R.permute_dims(lv303, axes=[0, 2, 1, 3])
            lv306: R.Tensor((1, 12, 1, 64), dtype="float16") = R.permute_dims(lv304, axes=[0, 2, 1, 3])
            lv307: R.Tensor((1, 12, 1, 64), dtype="float16") = R.permute_dims(lv302, axes=[0, 2, 1, 3])
            lv126_1: R.Tensor((1, 12, 1, 64), dtype="float32") = R.astype(lv305, dtype="float32")
            lv308: R.Tensor((1, 12, past_sequence_length + 1, 64), dtype="float32") = R.concat((past_key_values_4_key, lv126_1), axis=-2)
            lv309: R.Tensor((1, 12, 64, past_sequence_length + 1), dtype="float32") = R.permute_dims(lv308, axes=[0, 1, 3, 2])
            lv127_1: R.Tensor((1,), dtype="float16") = R.astype(metadata["relax.expr.Constant"][64], dtype="float16")
            lv310: R.Tensor((1, 12, 1, 64), dtype="float16") = R.multiply(lv307, lv127_1)
            lv311: R.Tensor((1, 12, 64, past_sequence_length + 1), dtype="float32") = R.multiply(lv309, metadata["relax.expr.Constant"][65])
            lv128_1: R.Tensor((1, 12, 64, past_sequence_length + 1), dtype="float16") = R.astype(lv311, dtype="float16")
            lv129_1: R.Tensor((1, 12, 1, past_sequence_length + 1), dtype="float32") = R.matmul(lv310, lv128_1, out_dtype="float32")
            lv312: R.Tensor((1, 12, 1, past_sequence_length + 1), dtype="float16") = R.astype(lv129_1, dtype="float16")
            lv130_1: R.Tensor((1, 12, 1, past_sequence_length + 1), dtype="float32") = R.astype(lv312, dtype="float32")
            lv313: R.Tensor((1, 12, 1, past_sequence_length + 1), dtype="float32") = R.add(lv130_1, lv52)
            lv314: R.Tensor((1, 12, 1, past_sequence_length + 1), dtype="float32") = R.nn.softmax(lv313, axis=-1)
            lv131_1: R.Tensor((1, 12, 1, past_sequence_length + 1), dtype="float16") = R.astype(lv314, dtype="float16")
            lv132_1: R.Tensor((1, 12, 1, 64), dtype="float32") = R.astype(lv306, dtype="float32")
            lv315: R.Tensor((1, 12, past_sequence_length + 1, 64), dtype="float32") = R.concat((past_key_values_4_value, lv132_1), axis=-2)
            lv133_1: R.Tensor((1, 12, past_sequence_length + 1, 64), dtype="float16") = R.astype(lv315, dtype="float16")
            lv134_1: R.Tensor((1, 12, 1, 64), dtype="float32") = R.matmul(lv131_1, lv133_1, out_dtype="float32")
            lv316: R.Tensor((1, 12, 1, 64), dtype="float16") = R.astype(lv134_1, dtype="float16")
            lv317: R.Tensor((1, 1, 12, 64), dtype="float16") = R.permute_dims(lv316, axes=[0, 2, 1, 3])
            lv318: R.Tensor((1, 1, 768), dtype="float16") = R.reshape(lv317, R.shape([1, 1, 768]))
            lv319: R.Tensor((1, 768), dtype="float16") = R.reshape(lv318, R.shape([1, 768]))
            lv135_1: R.Tensor((768, 768), dtype="float16") = R.astype(metadata["relax.expr.Constant"][66], dtype="float16")
            lv136_1: R.Tensor((1, 768), dtype="float32") = R.matmul(lv319, lv135_1, out_dtype="float32")
            lv320: R.Tensor((1, 768), dtype="float16") = R.astype(lv136_1, dtype="float16")
            lv137_1: R.Tensor((768,), dtype="float16") = R.astype(metadata["relax.expr.Constant"][67], dtype="float16")
            lv321: R.Tensor((1, 768), dtype="float16") = R.add(lv320, lv137_1)
            lv322: R.Tensor((1, 1, 768), dtype="float16") = R.reshape(lv321, R.shape([1, 1, 768]))
            lv138_1: R.Tensor((1, 1, 768), dtype="float32") = R.astype(lv322, dtype="float32")
            lv323: R.Tensor((1, 1, 768), dtype="float32") = R.add(lv138_1, lv284)
            lv324: R.Tensor((1, 1, 1), dtype="float32") = R.mean(lv323, axis=[-1], keepdims=True)
            lv325: R.Tensor((1, 1, 768), dtype="float32") = R.subtract(lv323, lv324)
            lv326: R.Tensor((1, 1, 768), dtype="float32") = R.power(lv325, R.const(2.0, "float32"))
            lv327: R.Tensor((1, 1, 1), dtype="float32") = R.mean(lv326, axis=[-1], keepdims=True)
            lv328: R.Tensor((1, 1, 1), dtype="float32") = R.add(lv327, R.const(9.9999997473787516e-06, "float32"))
            lv329: R.Tensor((1, 1, 1), dtype="float32") = R.sqrt(lv328)
            lv330: R.Tensor((1, 1, 768), dtype="float32") = R.divide(lv325, lv329)
            lv331: R.Tensor((1, 1, 768), dtype="float32") = R.multiply(lv330, metadata["relax.expr.Constant"][68])
            lv332: R.Tensor((1, 1, 768), dtype="float32") = R.add(lv331, metadata["relax.expr.Constant"][69])
            lv333: R.Tensor((1, 768), dtype="float32") = R.reshape(lv332, R.shape([1, 768]))
            lv139_1: R.Tensor((1, 768), dtype="float16") = R.astype(lv333, dtype="float16")
            lv140_1: R.Tensor((768, 3072), dtype="float16") = R.astype(metadata["relax.expr.Constant"][70], dtype="float16")
            lv141_1: R.Tensor((1, 3072), dtype="float32") = R.matmul(lv139_1, lv140_1, out_dtype="float32")
            lv334: R.Tensor((1, 3072), dtype="float16") = R.astype(lv141_1, dtype="float16")
            lv142_1: R.Tensor((3072,), dtype="float16") = R.astype(metadata["relax.expr.Constant"][71], dtype="float16")
            lv335: R.Tensor((1, 3072), dtype="float16") = R.add(lv334, lv142_1)
            lv336: R.Tensor((1, 1, 3072), dtype="float16") = R.reshape(lv335, R.shape([1, 1, 3072]))
            lv143_1: R.Tensor((), dtype="float16") = R.astype(R.const(3.0, "float32"), dtype="float16")
            lv337: R.Tensor((1, 1, 3072), dtype="float16") = R.power(lv336, lv143_1)
            lv144_1: R.Tensor((), dtype="float16") = R.astype(R.const(0.044714998453855515, "float32"), dtype="float16")
            lv338: R.Tensor((1, 1, 3072), dtype="float16") = R.multiply(lv337, lv144_1)
            lv339: R.Tensor((1, 1, 3072), dtype="float16") = R.add(lv336, lv338)
            lv145_1: R.Tensor((), dtype="float16") = R.astype(R.const(0.79788458347320557, "float32"), dtype="float16")
            lv340: R.Tensor((1, 1, 3072), dtype="float16") = R.multiply(lv339, lv145_1)
            lv341: R.Tensor((1, 1, 3072), dtype="float16") = R.tanh(lv340)
            lv146_1: R.Tensor((), dtype="float16") = R.astype(R.const(0.5, "float32"), dtype="float16")
            lv342: R.Tensor((1, 1, 3072), dtype="float16") = R.multiply(lv336, lv146_1)
            lv147_1: R.Tensor((), dtype="float16") = R.astype(R.const(1.0, "float32"), dtype="float16")
            lv343: R.Tensor((1, 1, 3072), dtype="float16") = R.add(lv341, lv147_1)
            lv344: R.Tensor((1, 1, 3072), dtype="float16") = R.multiply(lv342, lv343)
            lv345: R.Tensor((1, 3072), dtype="float16") = R.reshape(lv344, R.shape([1, 3072]))
            lv148_1: R.Tensor((3072, 768), dtype="float16") = R.astype(metadata["relax.expr.Constant"][72], dtype="float16")
            lv149_1: R.Tensor((1, 768), dtype="float32") = R.matmul(lv345, lv148_1, out_dtype="float32")
            lv346: R.Tensor((1, 768), dtype="float16") = R.astype(lv149_1, dtype="float16")
            lv150_1: R.Tensor((768,), dtype="float16") = R.astype(metadata["relax.expr.Constant"][73], dtype="float16")
            lv347: R.Tensor((1, 768), dtype="float16") = R.add(lv346, lv150_1)
            lv348: R.Tensor((1, 1, 768), dtype="float16") = R.reshape(lv347, R.shape([1, 1, 768]))
            lv151_1: R.Tensor((1, 1, 768), dtype="float32") = R.astype(lv348, dtype="float32")
            lv349: R.Tensor((1, 1, 768), dtype="float32") = R.add(lv323, lv151_1)
            lv350: R.Tensor((1, 1, 1), dtype="float32") = R.mean(lv349, axis=[-1], keepdims=True)
            lv351: R.Tensor((1, 1, 768), dtype="float32") = R.subtract(lv349, lv350)
            lv352: R.Tensor((1, 1, 768), dtype="float32") = R.power(lv351, R.const(2.0, "float32"))
            lv353: R.Tensor((1, 1, 1), dtype="float32") = R.mean(lv352, axis=[-1], keepdims=True)
            lv354: R.Tensor((1, 1, 1), dtype="float32") = R.add(lv353, R.const(9.9999997473787516e-06, "float32"))
            lv355: R.Tensor((1, 1, 1), dtype="float32") = R.sqrt(lv354)
            lv356: R.Tensor((1, 1, 768), dtype="float32") = R.divide(lv351, lv355)
            lv357: R.Tensor((1, 1, 768), dtype="float32") = R.multiply(lv356, metadata["relax.expr.Constant"][74])
            lv358: R.Tensor((1, 1, 768), dtype="float32") = R.add(lv357, metadata["relax.expr.Constant"][75])
            lv359: R.Tensor((1, 768), dtype="float32") = R.reshape(lv358, R.shape([1, 768]))
            lv152_1: R.Tensor((1, 768), dtype="float16") = R.astype(lv359, dtype="float16")
            lv153_1: R.Tensor((768, 2304), dtype="float16") = R.astype(metadata["relax.expr.Constant"][76], dtype="float16")
            lv154_1: R.Tensor((1, 2304), dtype="float32") = R.matmul(lv152_1, lv153_1, out_dtype="float32")
            lv360: R.Tensor((1, 2304), dtype="float16") = R.astype(lv154_1, dtype="float16")
            lv155_1: R.Tensor((2304,), dtype="float16") = R.astype(metadata["relax.expr.Constant"][77], dtype="float16")
            lv361: R.Tensor((1, 2304), dtype="float16") = R.add(lv360, lv155_1)
            lv362: R.Tensor((1, 1, 2304), dtype="float16") = R.reshape(lv361, R.shape([1, 1, 2304]))
            lv363: R.Tuple(R.Tensor((1, 1, 768), dtype="float16"), R.Tensor((1, 1, 768), dtype="float16"), R.Tensor((1, 1, 768), dtype="float16")) = R.split(lv362, indices_or_sections=[768, 1536], axis=2)
            lv364: R.Tensor((1, 1, 768), dtype="float16") = lv363[0]
            lv365: R.Tensor((1, 1, 768), dtype="float16") = lv363[1]
            lv366: R.Tensor((1, 1, 768), dtype="float16") = lv363[2]
            lv367: R.Tensor((1, 1, 12, 64), dtype="float16") = R.reshape(lv364, R.shape([1, 1, 12, 64]))
            lv368: R.Tensor((1, 1, 12, 64), dtype="float16") = R.reshape(lv365, R.shape([1, 1, 12, 64]))
            lv369: R.Tensor((1, 1, 12, 64), dtype="float16") = R.reshape(lv366, R.shape([1, 1, 12, 64]))
            lv370: R.Tensor((1, 12, 1, 64), dtype="float16") = R.permute_dims(lv368, axes=[0, 2, 1, 3])
            lv371: R.Tensor((1, 12, 1, 64), dtype="float16") = R.permute_dims(lv369, axes=[0, 2, 1, 3])
            lv372: R.Tensor((1, 12, 1, 64), dtype="float16") = R.permute_dims(lv367, axes=[0, 2, 1, 3])
            lv156_1: R.Tensor((1, 12, 1, 64), dtype="float32") = R.astype(lv370, dtype="float32")
            lv373: R.Tensor((1, 12, past_sequence_length + 1, 64), dtype="float32") = R.concat((past_key_values_5_key, lv156_1), axis=-2)
            lv374: R.Tensor((1, 12, 64, past_sequence_length + 1), dtype="float32") = R.permute_dims(lv373, axes=[0, 1, 3, 2])
            lv157_1: R.Tensor((1,), dtype="float16") = R.astype(metadata["relax.expr.Constant"][78], dtype="float16")
            lv375: R.Tensor((1, 12, 1, 64), dtype="float16") = R.multiply(lv372, lv157_1)
            lv376: R.Tensor((1, 12, 64, past_sequence_length + 1), dtype="float32") = R.multiply(lv374, metadata["relax.expr.Constant"][79])
            lv158_1: R.Tensor((1, 12, 64, past_sequence_length + 1), dtype="float16") = R.astype(lv376, dtype="float16")
            lv159_1: R.Tensor((1, 12, 1, past_sequence_length + 1), dtype="float32") = R.matmul(lv375, lv158_1, out_dtype="float32")
            lv377: R.Tensor((1, 12, 1, past_sequence_length + 1), dtype="float16") = R.astype(lv159_1, dtype="float16")
            lv160_1: R.Tensor((1, 12, 1, past_sequence_length + 1), dtype="float32") = R.astype(lv377, dtype="float32")
            lv378: R.Tensor((1, 12, 1, past_sequence_length + 1), dtype="float32") = R.add(lv160_1, lv52)
            lv379: R.Tensor((1, 12, 1, past_sequence_length + 1), dtype="float32") = R.nn.softmax(lv378, axis=-1)
            lv161_1: R.Tensor((1, 12, 1, past_sequence_length + 1), dtype="float16") = R.astype(lv379, dtype="float16")
            lv162_1: R.Tensor((1, 12, 1, 64), dtype="float32") = R.astype(lv371, dtype="float32")
            lv380: R.Tensor((1, 12, past_sequence_length + 1, 64), dtype="float32") = R.concat((past_key_values_5_value, lv162_1), axis=-2)
            lv163_1: R.Tensor((1, 12, past_sequence_length + 1, 64), dtype="float16") = R.astype(lv380, dtype="float16")
            lv164_1: R.Tensor((1, 12, 1, 64), dtype="float32") = R.matmul(lv161_1, lv163_1, out_dtype="float32")
            lv381: R.Tensor((1, 12, 1, 64), dtype="float16") = R.astype(lv164_1, dtype="float16")
            lv382: R.Tensor((1, 1, 12, 64), dtype="float16") = R.permute_dims(lv381, axes=[0, 2, 1, 3])
            lv383: R.Tensor((1, 1, 768), dtype="float16") = R.reshape(lv382, R.shape([1, 1, 768]))
            lv384: R.Tensor((1, 768), dtype="float16") = R.reshape(lv383, R.shape([1, 768]))
            lv165_1: R.Tensor((768, 768), dtype="float16") = R.astype(metadata["relax.expr.Constant"][80], dtype="float16")
            lv166_1: R.Tensor((1, 768), dtype="float32") = R.matmul(lv384, lv165_1, out_dtype="float32")
            lv385: R.Tensor((1, 768), dtype="float16") = R.astype(lv166_1, dtype="float16")
            lv167_1: R.Tensor((768,), dtype="float16") = R.astype(metadata["relax.expr.Constant"][81], dtype="float16")
            lv386: R.Tensor((1, 768), dtype="float16") = R.add(lv385, lv167_1)
            lv387: R.Tensor((1, 1, 768), dtype="float16") = R.reshape(lv386, R.shape([1, 1, 768]))
            lv168_1: R.Tensor((1, 1, 768), dtype="float32") = R.astype(lv387, dtype="float32")
            lv388: R.Tensor((1, 1, 768), dtype="float32") = R.add(lv168_1, lv349)
            lv389: R.Tensor((1, 1, 1), dtype="float32") = R.mean(lv388, axis=[-1], keepdims=True)
            lv390: R.Tensor((1, 1, 768), dtype="float32") = R.subtract(lv388, lv389)
            lv391: R.Tensor((1, 1, 768), dtype="float32") = R.power(lv390, R.const(2.0, "float32"))
            lv392: R.Tensor((1, 1, 1), dtype="float32") = R.mean(lv391, axis=[-1], keepdims=True)
            lv393: R.Tensor((1, 1, 1), dtype="float32") = R.add(lv392, R.const(9.9999997473787516e-06, "float32"))
            lv394: R.Tensor((1, 1, 1), dtype="float32") = R.sqrt(lv393)
            lv395: R.Tensor((1, 1, 768), dtype="float32") = R.divide(lv390, lv394)
            lv396: R.Tensor((1, 1, 768), dtype="float32") = R.multiply(lv395, metadata["relax.expr.Constant"][82])
            lv397: R.Tensor((1, 1, 768), dtype="float32") = R.add(lv396, metadata["relax.expr.Constant"][83])
            lv398: R.Tensor((1, 768), dtype="float32") = R.reshape(lv397, R.shape([1, 768]))
            lv169_1: R.Tensor((1, 768), dtype="float16") = R.astype(lv398, dtype="float16")
            lv170_1: R.Tensor((768, 3072), dtype="float16") = R.astype(metadata["relax.expr.Constant"][84], dtype="float16")
            lv171_1: R.Tensor((1, 3072), dtype="float32") = R.matmul(lv169_1, lv170_1, out_dtype="float32")
            lv399: R.Tensor((1, 3072), dtype="float16") = R.astype(lv171_1, dtype="float16")
            lv172_1: R.Tensor((3072,), dtype="float16") = R.astype(metadata["relax.expr.Constant"][85], dtype="float16")
            lv400: R.Tensor((1, 3072), dtype="float16") = R.add(lv399, lv172_1)
            lv401: R.Tensor((1, 1, 3072), dtype="float16") = R.reshape(lv400, R.shape([1, 1, 3072]))
            lv173_1: R.Tensor((), dtype="float16") = R.astype(R.const(3.0, "float32"), dtype="float16")
            lv402: R.Tensor((1, 1, 3072), dtype="float16") = R.power(lv401, lv173_1)
            lv174_1: R.Tensor((), dtype="float16") = R.astype(R.const(0.044714998453855515, "float32"), dtype="float16")
            lv403: R.Tensor((1, 1, 3072), dtype="float16") = R.multiply(lv402, lv174_1)
            lv404: R.Tensor((1, 1, 3072), dtype="float16") = R.add(lv401, lv403)
            lv175_1: R.Tensor((), dtype="float16") = R.astype(R.const(0.79788458347320557, "float32"), dtype="float16")
            lv405: R.Tensor((1, 1, 3072), dtype="float16") = R.multiply(lv404, lv175_1)
            lv406: R.Tensor((1, 1, 3072), dtype="float16") = R.tanh(lv405)
            lv176_1: R.Tensor((), dtype="float16") = R.astype(R.const(0.5, "float32"), dtype="float16")
            lv407: R.Tensor((1, 1, 3072), dtype="float16") = R.multiply(lv401, lv176_1)
            lv177_1: R.Tensor((), dtype="float16") = R.astype(R.const(1.0, "float32"), dtype="float16")
            lv408: R.Tensor((1, 1, 3072), dtype="float16") = R.add(lv406, lv177_1)
            lv409: R.Tensor((1, 1, 3072), dtype="float16") = R.multiply(lv407, lv408)
            lv410: R.Tensor((1, 3072), dtype="float16") = R.reshape(lv409, R.shape([1, 3072]))
            lv178_1: R.Tensor((3072, 768), dtype="float16") = R.astype(metadata["relax.expr.Constant"][86], dtype="float16")
            lv179_1: R.Tensor((1, 768), dtype="float32") = R.matmul(lv410, lv178_1, out_dtype="float32")
            lv411: R.Tensor((1, 768), dtype="float16") = R.astype(lv179_1, dtype="float16")
            lv180_1: R.Tensor((768,), dtype="float16") = R.astype(metadata["relax.expr.Constant"][87], dtype="float16")
            lv412: R.Tensor((1, 768), dtype="float16") = R.add(lv411, lv180_1)
            lv413: R.Tensor((1, 1, 768), dtype="float16") = R.reshape(lv412, R.shape([1, 1, 768]))
            lv181_1: R.Tensor((1, 1, 768), dtype="float32") = R.astype(lv413, dtype="float32")
            lv414: R.Tensor((1, 1, 768), dtype="float32") = R.add(lv388, lv181_1)
            lv415: R.Tensor((1, 1, 1), dtype="float32") = R.mean(lv414, axis=[-1], keepdims=True)
            lv416: R.Tensor((1, 1, 768), dtype="float32") = R.subtract(lv414, lv415)
            lv417: R.Tensor((1, 1, 768), dtype="float32") = R.power(lv416, R.const(2.0, "float32"))
            lv418: R.Tensor((1, 1, 1), dtype="float32") = R.mean(lv417, axis=[-1], keepdims=True)
            lv419: R.Tensor((1, 1, 1), dtype="float32") = R.add(lv418, R.const(9.9999997473787516e-06, "float32"))
            lv420: R.Tensor((1, 1, 1), dtype="float32") = R.sqrt(lv419)
            lv421: R.Tensor((1, 1, 768), dtype="float32") = R.divide(lv416, lv420)
            lv422: R.Tensor((1, 1, 768), dtype="float32") = R.multiply(lv421, metadata["relax.expr.Constant"][88])
            lv423: R.Tensor((1, 1, 768), dtype="float32") = R.add(lv422, metadata["relax.expr.Constant"][89])
            lv424: R.Tensor((1, 768), dtype="float32") = R.reshape(lv423, R.shape([1, 768]))
            lv182_1: R.Tensor((1, 768), dtype="float16") = R.astype(lv424, dtype="float16")
            lv183_1: R.Tensor((768, 2304), dtype="float16") = R.astype(metadata["relax.expr.Constant"][90], dtype="float16")
            lv184_1: R.Tensor((1, 2304), dtype="float32") = R.matmul(lv182_1, lv183_1, out_dtype="float32")
            lv425: R.Tensor((1, 2304), dtype="float16") = R.astype(lv184_1, dtype="float16")
            lv185_1: R.Tensor((2304,), dtype="float16") = R.astype(metadata["relax.expr.Constant"][91], dtype="float16")
            lv426: R.Tensor((1, 2304), dtype="float16") = R.add(lv425, lv185_1)
            lv427: R.Tensor((1, 1, 2304), dtype="float16") = R.reshape(lv426, R.shape([1, 1, 2304]))
            lv428: R.Tuple(R.Tensor((1, 1, 768), dtype="float16"), R.Tensor((1, 1, 768), dtype="float16"), R.Tensor((1, 1, 768), dtype="float16")) = R.split(lv427, indices_or_sections=[768, 1536], axis=2)
            lv429: R.Tensor((1, 1, 768), dtype="float16") = lv428[0]
            lv430: R.Tensor((1, 1, 768), dtype="float16") = lv428[1]
            lv431: R.Tensor((1, 1, 768), dtype="float16") = lv428[2]
            lv432: R.Tensor((1, 1, 12, 64), dtype="float16") = R.reshape(lv429, R.shape([1, 1, 12, 64]))
            lv433: R.Tensor((1, 1, 12, 64), dtype="float16") = R.reshape(lv430, R.shape([1, 1, 12, 64]))
            lv434: R.Tensor((1, 1, 12, 64), dtype="float16") = R.reshape(lv431, R.shape([1, 1, 12, 64]))
            lv435: R.Tensor((1, 12, 1, 64), dtype="float16") = R.permute_dims(lv433, axes=[0, 2, 1, 3])
            lv436: R.Tensor((1, 12, 1, 64), dtype="float16") = R.permute_dims(lv434, axes=[0, 2, 1, 3])
            lv437: R.Tensor((1, 12, 1, 64), dtype="float16") = R.permute_dims(lv432, axes=[0, 2, 1, 3])
            lv186_1: R.Tensor((1, 12, 1, 64), dtype="float32") = R.astype(lv435, dtype="float32")
            lv438: R.Tensor((1, 12, past_sequence_length + 1, 64), dtype="float32") = R.concat((past_key_values_6_key, lv186_1), axis=-2)
            lv439: R.Tensor((1, 12, 64, past_sequence_length + 1), dtype="float32") = R.permute_dims(lv438, axes=[0, 1, 3, 2])
            lv187_1: R.Tensor((1,), dtype="float16") = R.astype(metadata["relax.expr.Constant"][92], dtype="float16")
            lv440: R.Tensor((1, 12, 1, 64), dtype="float16") = R.multiply(lv437, lv187_1)
            lv441: R.Tensor((1, 12, 64, past_sequence_length + 1), dtype="float32") = R.multiply(lv439, metadata["relax.expr.Constant"][93])
            lv188_1: R.Tensor((1, 12, 64, past_sequence_length + 1), dtype="float16") = R.astype(lv441, dtype="float16")
            lv189_1: R.Tensor((1, 12, 1, past_sequence_length + 1), dtype="float32") = R.matmul(lv440, lv188_1, out_dtype="float32")
            lv442: R.Tensor((1, 12, 1, past_sequence_length + 1), dtype="float16") = R.astype(lv189_1, dtype="float16")
            lv190_1: R.Tensor((1, 12, 1, past_sequence_length + 1), dtype="float32") = R.astype(lv442, dtype="float32")
            lv443: R.Tensor((1, 12, 1, past_sequence_length + 1), dtype="float32") = R.add(lv190_1, lv52)
            lv444: R.Tensor((1, 12, 1, past_sequence_length + 1), dtype="float32") = R.nn.softmax(lv443, axis=-1)
            lv191_1: R.Tensor((1, 12, 1, past_sequence_length + 1), dtype="float16") = R.astype(lv444, dtype="float16")
            lv192_1: R.Tensor((1, 12, 1, 64), dtype="float32") = R.astype(lv436, dtype="float32")
            lv445: R.Tensor((1, 12, past_sequence_length + 1, 64), dtype="float32") = R.concat((past_key_values_6_value, lv192_1), axis=-2)
            lv193_1: R.Tensor((1, 12, past_sequence_length + 1, 64), dtype="float16") = R.astype(lv445, dtype="float16")
            lv194_1: R.Tensor((1, 12, 1, 64), dtype="float32") = R.matmul(lv191_1, lv193_1, out_dtype="float32")
            lv446: R.Tensor((1, 12, 1, 64), dtype="float16") = R.astype(lv194_1, dtype="float16")
            lv447: R.Tensor((1, 1, 12, 64), dtype="float16") = R.permute_dims(lv446, axes=[0, 2, 1, 3])
            lv448: R.Tensor((1, 1, 768), dtype="float16") = R.reshape(lv447, R.shape([1, 1, 768]))
            lv449: R.Tensor((1, 768), dtype="float16") = R.reshape(lv448, R.shape([1, 768]))
            lv195_1: R.Tensor((768, 768), dtype="float16") = R.astype(metadata["relax.expr.Constant"][94], dtype="float16")
            lv196_1: R.Tensor((1, 768), dtype="float32") = R.matmul(lv449, lv195_1, out_dtype="float32")
            lv450: R.Tensor((1, 768), dtype="float16") = R.astype(lv196_1, dtype="float16")
            lv197_1: R.Tensor((768,), dtype="float16") = R.astype(metadata["relax.expr.Constant"][95], dtype="float16")
            lv451: R.Tensor((1, 768), dtype="float16") = R.add(lv450, lv197_1)
            lv452: R.Tensor((1, 1, 768), dtype="float16") = R.reshape(lv451, R.shape([1, 1, 768]))
            lv198_1: R.Tensor((1, 1, 768), dtype="float32") = R.astype(lv452, dtype="float32")
            lv453: R.Tensor((1, 1, 768), dtype="float32") = R.add(lv198_1, lv414)
            lv454: R.Tensor((1, 1, 1), dtype="float32") = R.mean(lv453, axis=[-1], keepdims=True)
            lv455: R.Tensor((1, 1, 768), dtype="float32") = R.subtract(lv453, lv454)
            lv456: R.Tensor((1, 1, 768), dtype="float32") = R.power(lv455, R.const(2.0, "float32"))
            lv457: R.Tensor((1, 1, 1), dtype="float32") = R.mean(lv456, axis=[-1], keepdims=True)
            lv458: R.Tensor((1, 1, 1), dtype="float32") = R.add(lv457, R.const(9.9999997473787516e-06, "float32"))
            lv459: R.Tensor((1, 1, 1), dtype="float32") = R.sqrt(lv458)
            lv460: R.Tensor((1, 1, 768), dtype="float32") = R.divide(lv455, lv459)
            lv461: R.Tensor((1, 1, 768), dtype="float32") = R.multiply(lv460, metadata["relax.expr.Constant"][96])
            lv462: R.Tensor((1, 1, 768), dtype="float32") = R.add(lv461, metadata["relax.expr.Constant"][97])
            lv463: R.Tensor((1, 768), dtype="float32") = R.reshape(lv462, R.shape([1, 768]))
            lv199_1: R.Tensor((1, 768), dtype="float16") = R.astype(lv463, dtype="float16")
            lv200_1: R.Tensor((768, 3072), dtype="float16") = R.astype(metadata["relax.expr.Constant"][98], dtype="float16")
            lv201_1: R.Tensor((1, 3072), dtype="float32") = R.matmul(lv199_1, lv200_1, out_dtype="float32")
            lv464: R.Tensor((1, 3072), dtype="float16") = R.astype(lv201_1, dtype="float16")
            lv202_1: R.Tensor((3072,), dtype="float16") = R.astype(metadata["relax.expr.Constant"][99], dtype="float16")
            lv465: R.Tensor((1, 3072), dtype="float16") = R.add(lv464, lv202_1)
            lv466: R.Tensor((1, 1, 3072), dtype="float16") = R.reshape(lv465, R.shape([1, 1, 3072]))
            lv203_1: R.Tensor((), dtype="float16") = R.astype(R.const(3.0, "float32"), dtype="float16")
            lv467: R.Tensor((1, 1, 3072), dtype="float16") = R.power(lv466, lv203_1)
            lv204_1: R.Tensor((), dtype="float16") = R.astype(R.const(0.044714998453855515, "float32"), dtype="float16")
            lv468: R.Tensor((1, 1, 3072), dtype="float16") = R.multiply(lv467, lv204_1)
            lv469: R.Tensor((1, 1, 3072), dtype="float16") = R.add(lv466, lv468)
            lv205_1: R.Tensor((), dtype="float16") = R.astype(R.const(0.79788458347320557, "float32"), dtype="float16")
            lv470: R.Tensor((1, 1, 3072), dtype="float16") = R.multiply(lv469, lv205_1)
            lv471: R.Tensor((1, 1, 3072), dtype="float16") = R.tanh(lv470)
            lv206_1: R.Tensor((), dtype="float16") = R.astype(R.const(0.5, "float32"), dtype="float16")
            lv472: R.Tensor((1, 1, 3072), dtype="float16") = R.multiply(lv466, lv206_1)
            lv207_1: R.Tensor((), dtype="float16") = R.astype(R.const(1.0, "float32"), dtype="float16")
            lv473: R.Tensor((1, 1, 3072), dtype="float16") = R.add(lv471, lv207_1)
            lv474: R.Tensor((1, 1, 3072), dtype="float16") = R.multiply(lv472, lv473)
            lv475: R.Tensor((1, 3072), dtype="float16") = R.reshape(lv474, R.shape([1, 3072]))
            lv208_1: R.Tensor((3072, 768), dtype="float16") = R.astype(metadata["relax.expr.Constant"][100], dtype="float16")
            lv209_1: R.Tensor((1, 768), dtype="float32") = R.matmul(lv475, lv208_1, out_dtype="float32")
            lv476: R.Tensor((1, 768), dtype="float16") = R.astype(lv209_1, dtype="float16")
            lv210_1: R.Tensor((768,), dtype="float16") = R.astype(metadata["relax.expr.Constant"][101], dtype="float16")
            lv477: R.Tensor((1, 768), dtype="float16") = R.add(lv476, lv210_1)
            lv478: R.Tensor((1, 1, 768), dtype="float16") = R.reshape(lv477, R.shape([1, 1, 768]))
            lv211_1: R.Tensor((1, 1, 768), dtype="float32") = R.astype(lv478, dtype="float32")
            lv479: R.Tensor((1, 1, 768), dtype="float32") = R.add(lv453, lv211_1)
            lv480: R.Tensor((1, 1, 1), dtype="float32") = R.mean(lv479, axis=[-1], keepdims=True)
            lv481: R.Tensor((1, 1, 768), dtype="float32") = R.subtract(lv479, lv480)
            lv482: R.Tensor((1, 1, 768), dtype="float32") = R.power(lv481, R.const(2.0, "float32"))
            lv483: R.Tensor((1, 1, 1), dtype="float32") = R.mean(lv482, axis=[-1], keepdims=True)
            lv484: R.Tensor((1, 1, 1), dtype="float32") = R.add(lv483, R.const(9.9999997473787516e-06, "float32"))
            lv485: R.Tensor((1, 1, 1), dtype="float32") = R.sqrt(lv484)
            lv486: R.Tensor((1, 1, 768), dtype="float32") = R.divide(lv481, lv485)
            lv487: R.Tensor((1, 1, 768), dtype="float32") = R.multiply(lv486, metadata["relax.expr.Constant"][102])
            lv488: R.Tensor((1, 1, 768), dtype="float32") = R.add(lv487, metadata["relax.expr.Constant"][103])
            lv489: R.Tensor((1, 768), dtype="float32") = R.reshape(lv488, R.shape([1, 768]))
            lv212_1: R.Tensor((1, 768), dtype="float16") = R.astype(lv489, dtype="float16")
            lv213_1: R.Tensor((768, 2304), dtype="float16") = R.astype(metadata["relax.expr.Constant"][104], dtype="float16")
            lv214_1: R.Tensor((1, 2304), dtype="float32") = R.matmul(lv212_1, lv213_1, out_dtype="float32")
            lv490: R.Tensor((1, 2304), dtype="float16") = R.astype(lv214_1, dtype="float16")
            lv215_1: R.Tensor((2304,), dtype="float16") = R.astype(metadata["relax.expr.Constant"][105], dtype="float16")
            lv491: R.Tensor((1, 2304), dtype="float16") = R.add(lv490, lv215_1)
            lv492: R.Tensor((1, 1, 2304), dtype="float16") = R.reshape(lv491, R.shape([1, 1, 2304]))
            lv493: R.Tuple(R.Tensor((1, 1, 768), dtype="float16"), R.Tensor((1, 1, 768), dtype="float16"), R.Tensor((1, 1, 768), dtype="float16")) = R.split(lv492, indices_or_sections=[768, 1536], axis=2)
            lv494: R.Tensor((1, 1, 768), dtype="float16") = lv493[0]
            lv495: R.Tensor((1, 1, 768), dtype="float16") = lv493[1]
            lv496: R.Tensor((1, 1, 768), dtype="float16") = lv493[2]
            lv497: R.Tensor((1, 1, 12, 64), dtype="float16") = R.reshape(lv494, R.shape([1, 1, 12, 64]))
            lv498: R.Tensor((1, 1, 12, 64), dtype="float16") = R.reshape(lv495, R.shape([1, 1, 12, 64]))
            lv499: R.Tensor((1, 1, 12, 64), dtype="float16") = R.reshape(lv496, R.shape([1, 1, 12, 64]))
            lv500: R.Tensor((1, 12, 1, 64), dtype="float16") = R.permute_dims(lv498, axes=[0, 2, 1, 3])
            lv501: R.Tensor((1, 12, 1, 64), dtype="float16") = R.permute_dims(lv499, axes=[0, 2, 1, 3])
            lv502: R.Tensor((1, 12, 1, 64), dtype="float16") = R.permute_dims(lv497, axes=[0, 2, 1, 3])
            lv216_1: R.Tensor((1, 12, 1, 64), dtype="float32") = R.astype(lv500, dtype="float32")
            lv503: R.Tensor((1, 12, past_sequence_length + 1, 64), dtype="float32") = R.concat((past_key_values_7_key, lv216_1), axis=-2)
            lv504: R.Tensor((1, 12, 64, past_sequence_length + 1), dtype="float32") = R.permute_dims(lv503, axes=[0, 1, 3, 2])
            lv217_1: R.Tensor((1,), dtype="float16") = R.astype(metadata["relax.expr.Constant"][106], dtype="float16")
            lv505: R.Tensor((1, 12, 1, 64), dtype="float16") = R.multiply(lv502, lv217_1)
            lv506: R.Tensor((1, 12, 64, past_sequence_length + 1), dtype="float32") = R.multiply(lv504, metadata["relax.expr.Constant"][107])
            lv218_1: R.Tensor((1, 12, 64, past_sequence_length + 1), dtype="float16") = R.astype(lv506, dtype="float16")
            lv219_1: R.Tensor((1, 12, 1, past_sequence_length + 1), dtype="float32") = R.matmul(lv505, lv218_1, out_dtype="float32")
            lv507: R.Tensor((1, 12, 1, past_sequence_length + 1), dtype="float16") = R.astype(lv219_1, dtype="float16")
            lv220_1: R.Tensor((1, 12, 1, past_sequence_length + 1), dtype="float32") = R.astype(lv507, dtype="float32")
            lv508: R.Tensor((1, 12, 1, past_sequence_length + 1), dtype="float32") = R.add(lv220_1, lv52)
            lv509: R.Tensor((1, 12, 1, past_sequence_length + 1), dtype="float32") = R.nn.softmax(lv508, axis=-1)
            lv221_1: R.Tensor((1, 12, 1, past_sequence_length + 1), dtype="float16") = R.astype(lv509, dtype="float16")
            lv222_1: R.Tensor((1, 12, 1, 64), dtype="float32") = R.astype(lv501, dtype="float32")
            lv510: R.Tensor((1, 12, past_sequence_length + 1, 64), dtype="float32") = R.concat((past_key_values_7_value, lv222_1), axis=-2)
            lv223_1: R.Tensor((1, 12, past_sequence_length + 1, 64), dtype="float16") = R.astype(lv510, dtype="float16")
            lv224_1: R.Tensor((1, 12, 1, 64), dtype="float32") = R.matmul(lv221_1, lv223_1, out_dtype="float32")
            lv511: R.Tensor((1, 12, 1, 64), dtype="float16") = R.astype(lv224_1, dtype="float16")
            lv512: R.Tensor((1, 1, 12, 64), dtype="float16") = R.permute_dims(lv511, axes=[0, 2, 1, 3])
            lv513: R.Tensor((1, 1, 768), dtype="float16") = R.reshape(lv512, R.shape([1, 1, 768]))
            lv514: R.Tensor((1, 768), dtype="float16") = R.reshape(lv513, R.shape([1, 768]))
            lv225_1: R.Tensor((768, 768), dtype="float16") = R.astype(metadata["relax.expr.Constant"][108], dtype="float16")
            lv226_1: R.Tensor((1, 768), dtype="float32") = R.matmul(lv514, lv225_1, out_dtype="float32")
            lv515: R.Tensor((1, 768), dtype="float16") = R.astype(lv226_1, dtype="float16")
            lv227_1: R.Tensor((768,), dtype="float16") = R.astype(metadata["relax.expr.Constant"][109], dtype="float16")
            lv516: R.Tensor((1, 768), dtype="float16") = R.add(lv515, lv227_1)
            lv517: R.Tensor((1, 1, 768), dtype="float16") = R.reshape(lv516, R.shape([1, 1, 768]))
            lv228_1: R.Tensor((1, 1, 768), dtype="float32") = R.astype(lv517, dtype="float32")
            lv518: R.Tensor((1, 1, 768), dtype="float32") = R.add(lv228_1, lv479)
            lv519: R.Tensor((1, 1, 1), dtype="float32") = R.mean(lv518, axis=[-1], keepdims=True)
            lv520: R.Tensor((1, 1, 768), dtype="float32") = R.subtract(lv518, lv519)
            lv521: R.Tensor((1, 1, 768), dtype="float32") = R.power(lv520, R.const(2.0, "float32"))
            lv522: R.Tensor((1, 1, 1), dtype="float32") = R.mean(lv521, axis=[-1], keepdims=True)
            lv523: R.Tensor((1, 1, 1), dtype="float32") = R.add(lv522, R.const(9.9999997473787516e-06, "float32"))
            lv524: R.Tensor((1, 1, 1), dtype="float32") = R.sqrt(lv523)
            lv525: R.Tensor((1, 1, 768), dtype="float32") = R.divide(lv520, lv524)
            lv526: R.Tensor((1, 1, 768), dtype="float32") = R.multiply(lv525, metadata["relax.expr.Constant"][110])
            lv527: R.Tensor((1, 1, 768), dtype="float32") = R.add(lv526, metadata["relax.expr.Constant"][111])
            lv528: R.Tensor((1, 768), dtype="float32") = R.reshape(lv527, R.shape([1, 768]))
            lv229_1: R.Tensor((1, 768), dtype="float16") = R.astype(lv528, dtype="float16")
            lv230_1: R.Tensor((768, 3072), dtype="float16") = R.astype(metadata["relax.expr.Constant"][112], dtype="float16")
            lv231_1: R.Tensor((1, 3072), dtype="float32") = R.matmul(lv229_1, lv230_1, out_dtype="float32")
            lv529: R.Tensor((1, 3072), dtype="float16") = R.astype(lv231_1, dtype="float16")
            lv232_1: R.Tensor((3072,), dtype="float16") = R.astype(metadata["relax.expr.Constant"][113], dtype="float16")
            lv530: R.Tensor((1, 3072), dtype="float16") = R.add(lv529, lv232_1)
            lv531: R.Tensor((1, 1, 3072), dtype="float16") = R.reshape(lv530, R.shape([1, 1, 3072]))
            lv233_1: R.Tensor((), dtype="float16") = R.astype(R.const(3.0, "float32"), dtype="float16")
            lv532: R.Tensor((1, 1, 3072), dtype="float16") = R.power(lv531, lv233_1)
            lv234_1: R.Tensor((), dtype="float16") = R.astype(R.const(0.044714998453855515, "float32"), dtype="float16")
            lv533: R.Tensor((1, 1, 3072), dtype="float16") = R.multiply(lv532, lv234_1)
            lv534: R.Tensor((1, 1, 3072), dtype="float16") = R.add(lv531, lv533)
            lv235_1: R.Tensor((), dtype="float16") = R.astype(R.const(0.79788458347320557, "float32"), dtype="float16")
            lv535: R.Tensor((1, 1, 3072), dtype="float16") = R.multiply(lv534, lv235_1)
            lv536: R.Tensor((1, 1, 3072), dtype="float16") = R.tanh(lv535)
            lv236_1: R.Tensor((), dtype="float16") = R.astype(R.const(0.5, "float32"), dtype="float16")
            lv537: R.Tensor((1, 1, 3072), dtype="float16") = R.multiply(lv531, lv236_1)
            lv237_1: R.Tensor((), dtype="float16") = R.astype(R.const(1.0, "float32"), dtype="float16")
            lv538: R.Tensor((1, 1, 3072), dtype="float16") = R.add(lv536, lv237_1)
            lv539: R.Tensor((1, 1, 3072), dtype="float16") = R.multiply(lv537, lv538)
            lv540: R.Tensor((1, 3072), dtype="float16") = R.reshape(lv539, R.shape([1, 3072]))
            lv238_1: R.Tensor((3072, 768), dtype="float16") = R.astype(metadata["relax.expr.Constant"][114], dtype="float16")
            lv239_1: R.Tensor((1, 768), dtype="float32") = R.matmul(lv540, lv238_1, out_dtype="float32")
            lv541: R.Tensor((1, 768), dtype="float16") = R.astype(lv239_1, dtype="float16")
            lv240_1: R.Tensor((768,), dtype="float16") = R.astype(metadata["relax.expr.Constant"][115], dtype="float16")
            lv542: R.Tensor((1, 768), dtype="float16") = R.add(lv541, lv240_1)
            lv543: R.Tensor((1, 1, 768), dtype="float16") = R.reshape(lv542, R.shape([1, 1, 768]))
            lv241_1: R.Tensor((1, 1, 768), dtype="float32") = R.astype(lv543, dtype="float32")
            lv544: R.Tensor((1, 1, 768), dtype="float32") = R.add(lv518, lv241_1)
            lv545: R.Tensor((1, 1, 1), dtype="float32") = R.mean(lv544, axis=[-1], keepdims=True)
            lv546: R.Tensor((1, 1, 768), dtype="float32") = R.subtract(lv544, lv545)
            lv547: R.Tensor((1, 1, 768), dtype="float32") = R.power(lv546, R.const(2.0, "float32"))
            lv548: R.Tensor((1, 1, 1), dtype="float32") = R.mean(lv547, axis=[-1], keepdims=True)
            lv549: R.Tensor((1, 1, 1), dtype="float32") = R.add(lv548, R.const(9.9999997473787516e-06, "float32"))
            lv550: R.Tensor((1, 1, 1), dtype="float32") = R.sqrt(lv549)
            lv551: R.Tensor((1, 1, 768), dtype="float32") = R.divide(lv546, lv550)
            lv552: R.Tensor((1, 1, 768), dtype="float32") = R.multiply(lv551, metadata["relax.expr.Constant"][116])
            lv553: R.Tensor((1, 1, 768), dtype="float32") = R.add(lv552, metadata["relax.expr.Constant"][117])
            lv554: R.Tensor((1, 768), dtype="float32") = R.reshape(lv553, R.shape([1, 768]))
            lv242_1: R.Tensor((1, 768), dtype="float16") = R.astype(lv554, dtype="float16")
            lv243_1: R.Tensor((768, 2304), dtype="float16") = R.astype(metadata["relax.expr.Constant"][118], dtype="float16")
            lv244_1: R.Tensor((1, 2304), dtype="float32") = R.matmul(lv242_1, lv243_1, out_dtype="float32")
            lv555: R.Tensor((1, 2304), dtype="float16") = R.astype(lv244_1, dtype="float16")
            lv245_1: R.Tensor((2304,), dtype="float16") = R.astype(metadata["relax.expr.Constant"][119], dtype="float16")
            lv556: R.Tensor((1, 2304), dtype="float16") = R.add(lv555, lv245_1)
            lv557: R.Tensor((1, 1, 2304), dtype="float16") = R.reshape(lv556, R.shape([1, 1, 2304]))
            lv558: R.Tuple(R.Tensor((1, 1, 768), dtype="float16"), R.Tensor((1, 1, 768), dtype="float16"), R.Tensor((1, 1, 768), dtype="float16")) = R.split(lv557, indices_or_sections=[768, 1536], axis=2)
            lv559: R.Tensor((1, 1, 768), dtype="float16") = lv558[0]
            lv560: R.Tensor((1, 1, 768), dtype="float16") = lv558[1]
            lv561: R.Tensor((1, 1, 768), dtype="float16") = lv558[2]
            lv562: R.Tensor((1, 1, 12, 64), dtype="float16") = R.reshape(lv559, R.shape([1, 1, 12, 64]))
            lv563: R.Tensor((1, 1, 12, 64), dtype="float16") = R.reshape(lv560, R.shape([1, 1, 12, 64]))
            lv564: R.Tensor((1, 1, 12, 64), dtype="float16") = R.reshape(lv561, R.shape([1, 1, 12, 64]))
            lv565: R.Tensor((1, 12, 1, 64), dtype="float16") = R.permute_dims(lv563, axes=[0, 2, 1, 3])
            lv566: R.Tensor((1, 12, 1, 64), dtype="float16") = R.permute_dims(lv564, axes=[0, 2, 1, 3])
            lv567: R.Tensor((1, 12, 1, 64), dtype="float16") = R.permute_dims(lv562, axes=[0, 2, 1, 3])
            lv246_1: R.Tensor((1, 12, 1, 64), dtype="float32") = R.astype(lv565, dtype="float32")
            lv568: R.Tensor((1, 12, past_sequence_length + 1, 64), dtype="float32") = R.concat((past_key_values_8_key, lv246_1), axis=-2)
            lv569: R.Tensor((1, 12, 64, past_sequence_length + 1), dtype="float32") = R.permute_dims(lv568, axes=[0, 1, 3, 2])
            lv247_1: R.Tensor((1,), dtype="float16") = R.astype(metadata["relax.expr.Constant"][120], dtype="float16")
            lv570: R.Tensor((1, 12, 1, 64), dtype="float16") = R.multiply(lv567, lv247_1)
            lv571: R.Tensor((1, 12, 64, past_sequence_length + 1), dtype="float32") = R.multiply(lv569, metadata["relax.expr.Constant"][121])
            lv248_1: R.Tensor((1, 12, 64, past_sequence_length + 1), dtype="float16") = R.astype(lv571, dtype="float16")
            lv249_1: R.Tensor((1, 12, 1, past_sequence_length + 1), dtype="float32") = R.matmul(lv570, lv248_1, out_dtype="float32")
            lv572: R.Tensor((1, 12, 1, past_sequence_length + 1), dtype="float16") = R.astype(lv249_1, dtype="float16")
            lv250_1: R.Tensor((1, 12, 1, past_sequence_length + 1), dtype="float32") = R.astype(lv572, dtype="float32")
            lv573: R.Tensor((1, 12, 1, past_sequence_length + 1), dtype="float32") = R.add(lv250_1, lv52)
            lv574: R.Tensor((1, 12, 1, past_sequence_length + 1), dtype="float32") = R.nn.softmax(lv573, axis=-1)
            lv251_1: R.Tensor((1, 12, 1, past_sequence_length + 1), dtype="float16") = R.astype(lv574, dtype="float16")
            lv252_1: R.Tensor((1, 12, 1, 64), dtype="float32") = R.astype(lv566, dtype="float32")
            lv575: R.Tensor((1, 12, past_sequence_length + 1, 64), dtype="float32") = R.concat((past_key_values_8_value, lv252_1), axis=-2)
            lv253_1: R.Tensor((1, 12, past_sequence_length + 1, 64), dtype="float16") = R.astype(lv575, dtype="float16")
            lv254_1: R.Tensor((1, 12, 1, 64), dtype="float32") = R.matmul(lv251_1, lv253_1, out_dtype="float32")
            lv576: R.Tensor((1, 12, 1, 64), dtype="float16") = R.astype(lv254_1, dtype="float16")
            lv577: R.Tensor((1, 1, 12, 64), dtype="float16") = R.permute_dims(lv576, axes=[0, 2, 1, 3])
            lv578: R.Tensor((1, 1, 768), dtype="float16") = R.reshape(lv577, R.shape([1, 1, 768]))
            lv579: R.Tensor((1, 768), dtype="float16") = R.reshape(lv578, R.shape([1, 768]))
            lv255_1: R.Tensor((768, 768), dtype="float16") = R.astype(metadata["relax.expr.Constant"][122], dtype="float16")
            lv256_1: R.Tensor((1, 768), dtype="float32") = R.matmul(lv579, lv255_1, out_dtype="float32")
            lv580: R.Tensor((1, 768), dtype="float16") = R.astype(lv256_1, dtype="float16")
            lv257_1: R.Tensor((768,), dtype="float16") = R.astype(metadata["relax.expr.Constant"][123], dtype="float16")
            lv581: R.Tensor((1, 768), dtype="float16") = R.add(lv580, lv257_1)
            lv582: R.Tensor((1, 1, 768), dtype="float16") = R.reshape(lv581, R.shape([1, 1, 768]))
            lv258_1: R.Tensor((1, 1, 768), dtype="float32") = R.astype(lv582, dtype="float32")
            lv583: R.Tensor((1, 1, 768), dtype="float32") = R.add(lv258_1, lv544)
            lv584: R.Tensor((1, 1, 1), dtype="float32") = R.mean(lv583, axis=[-1], keepdims=True)
            lv585: R.Tensor((1, 1, 768), dtype="float32") = R.subtract(lv583, lv584)
            lv586: R.Tensor((1, 1, 768), dtype="float32") = R.power(lv585, R.const(2.0, "float32"))
            lv587: R.Tensor((1, 1, 1), dtype="float32") = R.mean(lv586, axis=[-1], keepdims=True)
            lv588: R.Tensor((1, 1, 1), dtype="float32") = R.add(lv587, R.const(9.9999997473787516e-06, "float32"))
            lv589: R.Tensor((1, 1, 1), dtype="float32") = R.sqrt(lv588)
            lv590: R.Tensor((1, 1, 768), dtype="float32") = R.divide(lv585, lv589)
            lv591: R.Tensor((1, 1, 768), dtype="float32") = R.multiply(lv590, metadata["relax.expr.Constant"][124])
            lv592: R.Tensor((1, 1, 768), dtype="float32") = R.add(lv591, metadata["relax.expr.Constant"][125])
            lv593: R.Tensor((1, 768), dtype="float32") = R.reshape(lv592, R.shape([1, 768]))
            lv259_1: R.Tensor((1, 768), dtype="float16") = R.astype(lv593, dtype="float16")
            lv260_1: R.Tensor((768, 3072), dtype="float16") = R.astype(metadata["relax.expr.Constant"][126], dtype="float16")
            lv261_1: R.Tensor((1, 3072), dtype="float32") = R.matmul(lv259_1, lv260_1, out_dtype="float32")
            lv594: R.Tensor((1, 3072), dtype="float16") = R.astype(lv261_1, dtype="float16")
            lv262_1: R.Tensor((3072,), dtype="float16") = R.astype(metadata["relax.expr.Constant"][127], dtype="float16")
            lv595: R.Tensor((1, 3072), dtype="float16") = R.add(lv594, lv262_1)
            lv596: R.Tensor((1, 1, 3072), dtype="float16") = R.reshape(lv595, R.shape([1, 1, 3072]))
            lv263_1: R.Tensor((), dtype="float16") = R.astype(R.const(3.0, "float32"), dtype="float16")
            lv597: R.Tensor((1, 1, 3072), dtype="float16") = R.power(lv596, lv263_1)
            lv264_1: R.Tensor((), dtype="float16") = R.astype(R.const(0.044714998453855515, "float32"), dtype="float16")
            lv598: R.Tensor((1, 1, 3072), dtype="float16") = R.multiply(lv597, lv264_1)
            lv599: R.Tensor((1, 1, 3072), dtype="float16") = R.add(lv596, lv598)
            lv265_1: R.Tensor((), dtype="float16") = R.astype(R.const(0.79788458347320557, "float32"), dtype="float16")
            lv600: R.Tensor((1, 1, 3072), dtype="float16") = R.multiply(lv599, lv265_1)
            lv601: R.Tensor((1, 1, 3072), dtype="float16") = R.tanh(lv600)
            lv266_1: R.Tensor((), dtype="float16") = R.astype(R.const(0.5, "float32"), dtype="float16")
            lv602: R.Tensor((1, 1, 3072), dtype="float16") = R.multiply(lv596, lv266_1)
            lv267_1: R.Tensor((), dtype="float16") = R.astype(R.const(1.0, "float32"), dtype="float16")
            lv603: R.Tensor((1, 1, 3072), dtype="float16") = R.add(lv601, lv267_1)
            lv604: R.Tensor((1, 1, 3072), dtype="float16") = R.multiply(lv602, lv603)
            lv605: R.Tensor((1, 3072), dtype="float16") = R.reshape(lv604, R.shape([1, 3072]))
            lv268_1: R.Tensor((3072, 768), dtype="float16") = R.astype(metadata["relax.expr.Constant"][128], dtype="float16")
            lv269_1: R.Tensor((1, 768), dtype="float32") = R.matmul(lv605, lv268_1, out_dtype="float32")
            lv606: R.Tensor((1, 768), dtype="float16") = R.astype(lv269_1, dtype="float16")
            lv270_1: R.Tensor((768,), dtype="float16") = R.astype(metadata["relax.expr.Constant"][129], dtype="float16")
            lv607: R.Tensor((1, 768), dtype="float16") = R.add(lv606, lv270_1)
            lv608: R.Tensor((1, 1, 768), dtype="float16") = R.reshape(lv607, R.shape([1, 1, 768]))
            lv271_1: R.Tensor((1, 1, 768), dtype="float32") = R.astype(lv608, dtype="float32")
            lv609: R.Tensor((1, 1, 768), dtype="float32") = R.add(lv583, lv271_1)
            lv610: R.Tensor((1, 1, 1), dtype="float32") = R.mean(lv609, axis=[-1], keepdims=True)
            lv611: R.Tensor((1, 1, 768), dtype="float32") = R.subtract(lv609, lv610)
            lv612: R.Tensor((1, 1, 768), dtype="float32") = R.power(lv611, R.const(2.0, "float32"))
            lv613: R.Tensor((1, 1, 1), dtype="float32") = R.mean(lv612, axis=[-1], keepdims=True)
            lv614: R.Tensor((1, 1, 1), dtype="float32") = R.add(lv613, R.const(9.9999997473787516e-06, "float32"))
            lv615: R.Tensor((1, 1, 1), dtype="float32") = R.sqrt(lv614)
            lv616: R.Tensor((1, 1, 768), dtype="float32") = R.divide(lv611, lv615)
            lv617: R.Tensor((1, 1, 768), dtype="float32") = R.multiply(lv616, metadata["relax.expr.Constant"][130])
            lv618: R.Tensor((1, 1, 768), dtype="float32") = R.add(lv617, metadata["relax.expr.Constant"][131])
            lv619: R.Tensor((1, 768), dtype="float32") = R.reshape(lv618, R.shape([1, 768]))
            lv272_1: R.Tensor((1, 768), dtype="float16") = R.astype(lv619, dtype="float16")
            lv273_1: R.Tensor((768, 2304), dtype="float16") = R.astype(metadata["relax.expr.Constant"][132], dtype="float16")
            lv274_1: R.Tensor((1, 2304), dtype="float32") = R.matmul(lv272_1, lv273_1, out_dtype="float32")
            lv620: R.Tensor((1, 2304), dtype="float16") = R.astype(lv274_1, dtype="float16")
            lv275_1: R.Tensor((2304,), dtype="float16") = R.astype(metadata["relax.expr.Constant"][133], dtype="float16")
            lv621: R.Tensor((1, 2304), dtype="float16") = R.add(lv620, lv275_1)
            lv622: R.Tensor((1, 1, 2304), dtype="float16") = R.reshape(lv621, R.shape([1, 1, 2304]))
            lv623: R.Tuple(R.Tensor((1, 1, 768), dtype="float16"), R.Tensor((1, 1, 768), dtype="float16"), R.Tensor((1, 1, 768), dtype="float16")) = R.split(lv622, indices_or_sections=[768, 1536], axis=2)
            lv624: R.Tensor((1, 1, 768), dtype="float16") = lv623[0]
            lv625: R.Tensor((1, 1, 768), dtype="float16") = lv623[1]
            lv626: R.Tensor((1, 1, 768), dtype="float16") = lv623[2]
            lv627: R.Tensor((1, 1, 12, 64), dtype="float16") = R.reshape(lv624, R.shape([1, 1, 12, 64]))
            lv628: R.Tensor((1, 1, 12, 64), dtype="float16") = R.reshape(lv625, R.shape([1, 1, 12, 64]))
            lv629: R.Tensor((1, 1, 12, 64), dtype="float16") = R.reshape(lv626, R.shape([1, 1, 12, 64]))
            lv630: R.Tensor((1, 12, 1, 64), dtype="float16") = R.permute_dims(lv628, axes=[0, 2, 1, 3])
            lv631: R.Tensor((1, 12, 1, 64), dtype="float16") = R.permute_dims(lv629, axes=[0, 2, 1, 3])
            lv632: R.Tensor((1, 12, 1, 64), dtype="float16") = R.permute_dims(lv627, axes=[0, 2, 1, 3])
            lv276_1: R.Tensor((1, 12, 1, 64), dtype="float32") = R.astype(lv630, dtype="float32")
            lv633: R.Tensor((1, 12, past_sequence_length + 1, 64), dtype="float32") = R.concat((past_key_values_9_key, lv276_1), axis=-2)
            lv634: R.Tensor((1, 12, 64, past_sequence_length + 1), dtype="float32") = R.permute_dims(lv633, axes=[0, 1, 3, 2])
            lv277_1: R.Tensor((1,), dtype="float16") = R.astype(metadata["relax.expr.Constant"][134], dtype="float16")
            lv635: R.Tensor((1, 12, 1, 64), dtype="float16") = R.multiply(lv632, lv277_1)
            lv636: R.Tensor((1, 12, 64, past_sequence_length + 1), dtype="float32") = R.multiply(lv634, metadata["relax.expr.Constant"][135])
            lv278_1: R.Tensor((1, 12, 64, past_sequence_length + 1), dtype="float16") = R.astype(lv636, dtype="float16")
            lv279_1: R.Tensor((1, 12, 1, past_sequence_length + 1), dtype="float32") = R.matmul(lv635, lv278_1, out_dtype="float32")
            lv637: R.Tensor((1, 12, 1, past_sequence_length + 1), dtype="float16") = R.astype(lv279_1, dtype="float16")
            lv280_1: R.Tensor((1, 12, 1, past_sequence_length + 1), dtype="float32") = R.astype(lv637, dtype="float32")
            lv638: R.Tensor((1, 12, 1, past_sequence_length + 1), dtype="float32") = R.add(lv280_1, lv52)
            lv639: R.Tensor((1, 12, 1, past_sequence_length + 1), dtype="float32") = R.nn.softmax(lv638, axis=-1)
            lv281_1: R.Tensor((1, 12, 1, past_sequence_length + 1), dtype="float16") = R.astype(lv639, dtype="float16")
            lv282_1: R.Tensor((1, 12, 1, 64), dtype="float32") = R.astype(lv631, dtype="float32")
            lv640: R.Tensor((1, 12, past_sequence_length + 1, 64), dtype="float32") = R.concat((past_key_values_9_value, lv282_1), axis=-2)
            lv283_1: R.Tensor((1, 12, past_sequence_length + 1, 64), dtype="float16") = R.astype(lv640, dtype="float16")
            lv284_1: R.Tensor((1, 12, 1, 64), dtype="float32") = R.matmul(lv281_1, lv283_1, out_dtype="float32")
            lv641: R.Tensor((1, 12, 1, 64), dtype="float16") = R.astype(lv284_1, dtype="float16")
            lv642: R.Tensor((1, 1, 12, 64), dtype="float16") = R.permute_dims(lv641, axes=[0, 2, 1, 3])
            lv643: R.Tensor((1, 1, 768), dtype="float16") = R.reshape(lv642, R.shape([1, 1, 768]))
            lv644: R.Tensor((1, 768), dtype="float16") = R.reshape(lv643, R.shape([1, 768]))
            lv285_1: R.Tensor((768, 768), dtype="float16") = R.astype(metadata["relax.expr.Constant"][136], dtype="float16")
            lv286_1: R.Tensor((1, 768), dtype="float32") = R.matmul(lv644, lv285_1, out_dtype="float32")
            lv645: R.Tensor((1, 768), dtype="float16") = R.astype(lv286_1, dtype="float16")
            lv287_1: R.Tensor((768,), dtype="float16") = R.astype(metadata["relax.expr.Constant"][137], dtype="float16")
            lv646: R.Tensor((1, 768), dtype="float16") = R.add(lv645, lv287_1)
            lv647: R.Tensor((1, 1, 768), dtype="float16") = R.reshape(lv646, R.shape([1, 1, 768]))
            lv288_1: R.Tensor((1, 1, 768), dtype="float32") = R.astype(lv647, dtype="float32")
            lv648: R.Tensor((1, 1, 768), dtype="float32") = R.add(lv288_1, lv609)
            lv649: R.Tensor((1, 1, 1), dtype="float32") = R.mean(lv648, axis=[-1], keepdims=True)
            lv650: R.Tensor((1, 1, 768), dtype="float32") = R.subtract(lv648, lv649)
            lv651: R.Tensor((1, 1, 768), dtype="float32") = R.power(lv650, R.const(2.0, "float32"))
            lv652: R.Tensor((1, 1, 1), dtype="float32") = R.mean(lv651, axis=[-1], keepdims=True)
            lv653: R.Tensor((1, 1, 1), dtype="float32") = R.add(lv652, R.const(9.9999997473787516e-06, "float32"))
            lv654: R.Tensor((1, 1, 1), dtype="float32") = R.sqrt(lv653)
            lv655: R.Tensor((1, 1, 768), dtype="float32") = R.divide(lv650, lv654)
            lv656: R.Tensor((1, 1, 768), dtype="float32") = R.multiply(lv655, metadata["relax.expr.Constant"][138])
            lv657: R.Tensor((1, 1, 768), dtype="float32") = R.add(lv656, metadata["relax.expr.Constant"][139])
            lv658: R.Tensor((1, 768), dtype="float32") = R.reshape(lv657, R.shape([1, 768]))
            lv289_1: R.Tensor((1, 768), dtype="float16") = R.astype(lv658, dtype="float16")
            lv290_1: R.Tensor((768, 3072), dtype="float16") = R.astype(metadata["relax.expr.Constant"][140], dtype="float16")
            lv291_1: R.Tensor((1, 3072), dtype="float32") = R.matmul(lv289_1, lv290_1, out_dtype="float32")
            lv659: R.Tensor((1, 3072), dtype="float16") = R.astype(lv291_1, dtype="float16")
            lv292_1: R.Tensor((3072,), dtype="float16") = R.astype(metadata["relax.expr.Constant"][141], dtype="float16")
            lv660: R.Tensor((1, 3072), dtype="float16") = R.add(lv659, lv292_1)
            lv661: R.Tensor((1, 1, 3072), dtype="float16") = R.reshape(lv660, R.shape([1, 1, 3072]))
            lv293_1: R.Tensor((), dtype="float16") = R.astype(R.const(3.0, "float32"), dtype="float16")
            lv662: R.Tensor((1, 1, 3072), dtype="float16") = R.power(lv661, lv293_1)
            lv294_1: R.Tensor((), dtype="float16") = R.astype(R.const(0.044714998453855515, "float32"), dtype="float16")
            lv663: R.Tensor((1, 1, 3072), dtype="float16") = R.multiply(lv662, lv294_1)
            lv664: R.Tensor((1, 1, 3072), dtype="float16") = R.add(lv661, lv663)
            lv295_1: R.Tensor((), dtype="float16") = R.astype(R.const(0.79788458347320557, "float32"), dtype="float16")
            lv665: R.Tensor((1, 1, 3072), dtype="float16") = R.multiply(lv664, lv295_1)
            lv666: R.Tensor((1, 1, 3072), dtype="float16") = R.tanh(lv665)
            lv296_1: R.Tensor((), dtype="float16") = R.astype(R.const(0.5, "float32"), dtype="float16")
            lv667: R.Tensor((1, 1, 3072), dtype="float16") = R.multiply(lv661, lv296_1)
            lv297_1: R.Tensor((), dtype="float16") = R.astype(R.const(1.0, "float32"), dtype="float16")
            lv668: R.Tensor((1, 1, 3072), dtype="float16") = R.add(lv666, lv297_1)
            lv669: R.Tensor((1, 1, 3072), dtype="float16") = R.multiply(lv667, lv668)
            lv670: R.Tensor((1, 3072), dtype="float16") = R.reshape(lv669, R.shape([1, 3072]))
            lv298_1: R.Tensor((3072, 768), dtype="float16") = R.astype(metadata["relax.expr.Constant"][142], dtype="float16")
            lv299_1: R.Tensor((1, 768), dtype="float32") = R.matmul(lv670, lv298_1, out_dtype="float32")
            lv671: R.Tensor((1, 768), dtype="float16") = R.astype(lv299_1, dtype="float16")
            lv300_1: R.Tensor((768,), dtype="float16") = R.astype(metadata["relax.expr.Constant"][143], dtype="float16")
            lv672: R.Tensor((1, 768), dtype="float16") = R.add(lv671, lv300_1)
            lv673: R.Tensor((1, 1, 768), dtype="float16") = R.reshape(lv672, R.shape([1, 1, 768]))
            lv301_1: R.Tensor((1, 1, 768), dtype="float32") = R.astype(lv673, dtype="float32")
            lv674: R.Tensor((1, 1, 768), dtype="float32") = R.add(lv648, lv301_1)
            lv675: R.Tensor((1, 1, 1), dtype="float32") = R.mean(lv674, axis=[-1], keepdims=True)
            lv676: R.Tensor((1, 1, 768), dtype="float32") = R.subtract(lv674, lv675)
            lv677: R.Tensor((1, 1, 768), dtype="float32") = R.power(lv676, R.const(2.0, "float32"))
            lv678: R.Tensor((1, 1, 1), dtype="float32") = R.mean(lv677, axis=[-1], keepdims=True)
            lv679: R.Tensor((1, 1, 1), dtype="float32") = R.add(lv678, R.const(9.9999997473787516e-06, "float32"))
            lv680: R.Tensor((1, 1, 1), dtype="float32") = R.sqrt(lv679)
            lv681: R.Tensor((1, 1, 768), dtype="float32") = R.divide(lv676, lv680)
            lv682: R.Tensor((1, 1, 768), dtype="float32") = R.multiply(lv681, metadata["relax.expr.Constant"][144])
            lv683: R.Tensor((1, 1, 768), dtype="float32") = R.add(lv682, metadata["relax.expr.Constant"][145])
            lv684: R.Tensor((1, 768), dtype="float32") = R.reshape(lv683, R.shape([1, 768]))
            lv302_1: R.Tensor((1, 768), dtype="float16") = R.astype(lv684, dtype="float16")
            lv303_1: R.Tensor((768, 2304), dtype="float16") = R.astype(metadata["relax.expr.Constant"][146], dtype="float16")
            lv304_1: R.Tensor((1, 2304), dtype="float32") = R.matmul(lv302_1, lv303_1, out_dtype="float32")
            lv685: R.Tensor((1, 2304), dtype="float16") = R.astype(lv304_1, dtype="float16")
            lv305_1: R.Tensor((2304,), dtype="float16") = R.astype(metadata["relax.expr.Constant"][147], dtype="float16")
            lv686: R.Tensor((1, 2304), dtype="float16") = R.add(lv685, lv305_1)
            lv687: R.Tensor((1, 1, 2304), dtype="float16") = R.reshape(lv686, R.shape([1, 1, 2304]))
            lv688: R.Tuple(R.Tensor((1, 1, 768), dtype="float16"), R.Tensor((1, 1, 768), dtype="float16"), R.Tensor((1, 1, 768), dtype="float16")) = R.split(lv687, indices_or_sections=[768, 1536], axis=2)
            lv689: R.Tensor((1, 1, 768), dtype="float16") = lv688[0]
            lv690: R.Tensor((1, 1, 768), dtype="float16") = lv688[1]
            lv691: R.Tensor((1, 1, 768), dtype="float16") = lv688[2]
            lv692: R.Tensor((1, 1, 12, 64), dtype="float16") = R.reshape(lv689, R.shape([1, 1, 12, 64]))
            lv693: R.Tensor((1, 1, 12, 64), dtype="float16") = R.reshape(lv690, R.shape([1, 1, 12, 64]))
            lv694: R.Tensor((1, 1, 12, 64), dtype="float16") = R.reshape(lv691, R.shape([1, 1, 12, 64]))
            lv695: R.Tensor((1, 12, 1, 64), dtype="float16") = R.permute_dims(lv693, axes=[0, 2, 1, 3])
            lv696: R.Tensor((1, 12, 1, 64), dtype="float16") = R.permute_dims(lv694, axes=[0, 2, 1, 3])
            lv697: R.Tensor((1, 12, 1, 64), dtype="float16") = R.permute_dims(lv692, axes=[0, 2, 1, 3])
            lv306_1: R.Tensor((1, 12, 1, 64), dtype="float32") = R.astype(lv695, dtype="float32")
            lv698: R.Tensor((1, 12, past_sequence_length + 1, 64), dtype="float32") = R.concat((past_key_values_10_key, lv306_1), axis=-2)
            lv699: R.Tensor((1, 12, 64, past_sequence_length + 1), dtype="float32") = R.permute_dims(lv698, axes=[0, 1, 3, 2])
            lv307_1: R.Tensor((1,), dtype="float16") = R.astype(metadata["relax.expr.Constant"][148], dtype="float16")
            lv700: R.Tensor((1, 12, 1, 64), dtype="float16") = R.multiply(lv697, lv307_1)
            lv701: R.Tensor((1, 12, 64, past_sequence_length + 1), dtype="float32") = R.multiply(lv699, metadata["relax.expr.Constant"][149])
            lv308_1: R.Tensor((1, 12, 64, past_sequence_length + 1), dtype="float16") = R.astype(lv701, dtype="float16")
            lv309_1: R.Tensor((1, 12, 1, past_sequence_length + 1), dtype="float32") = R.matmul(lv700, lv308_1, out_dtype="float32")
            lv702: R.Tensor((1, 12, 1, past_sequence_length + 1), dtype="float16") = R.astype(lv309_1, dtype="float16")
            lv310_1: R.Tensor((1, 12, 1, past_sequence_length + 1), dtype="float32") = R.astype(lv702, dtype="float32")
            lv703: R.Tensor((1, 12, 1, past_sequence_length + 1), dtype="float32") = R.add(lv310_1, lv52)
            lv704: R.Tensor((1, 12, 1, past_sequence_length + 1), dtype="float32") = R.nn.softmax(lv703, axis=-1)
            lv311_1: R.Tensor((1, 12, 1, past_sequence_length + 1), dtype="float16") = R.astype(lv704, dtype="float16")
            lv312_1: R.Tensor((1, 12, 1, 64), dtype="float32") = R.astype(lv696, dtype="float32")
            lv705: R.Tensor((1, 12, past_sequence_length + 1, 64), dtype="float32") = R.concat((past_key_values_10_value, lv312_1), axis=-2)
            lv313_1: R.Tensor((1, 12, past_sequence_length + 1, 64), dtype="float16") = R.astype(lv705, dtype="float16")
            lv314_1: R.Tensor((1, 12, 1, 64), dtype="float32") = R.matmul(lv311_1, lv313_1, out_dtype="float32")
            lv706: R.Tensor((1, 12, 1, 64), dtype="float16") = R.astype(lv314_1, dtype="float16")
            lv707: R.Tensor((1, 1, 12, 64), dtype="float16") = R.permute_dims(lv706, axes=[0, 2, 1, 3])
            lv708: R.Tensor((1, 1, 768), dtype="float16") = R.reshape(lv707, R.shape([1, 1, 768]))
            lv709: R.Tensor((1, 768), dtype="float16") = R.reshape(lv708, R.shape([1, 768]))
            lv315_1: R.Tensor((768, 768), dtype="float16") = R.astype(metadata["relax.expr.Constant"][150], dtype="float16")
            lv316_1: R.Tensor((1, 768), dtype="float32") = R.matmul(lv709, lv315_1, out_dtype="float32")
            lv710: R.Tensor((1, 768), dtype="float16") = R.astype(lv316_1, dtype="float16")
            lv317_1: R.Tensor((768,), dtype="float16") = R.astype(metadata["relax.expr.Constant"][151], dtype="float16")
            lv711: R.Tensor((1, 768), dtype="float16") = R.add(lv710, lv317_1)
            lv712: R.Tensor((1, 1, 768), dtype="float16") = R.reshape(lv711, R.shape([1, 1, 768]))
            lv318_1: R.Tensor((1, 1, 768), dtype="float32") = R.astype(lv712, dtype="float32")
            lv713: R.Tensor((1, 1, 768), dtype="float32") = R.add(lv318_1, lv674)
            lv714: R.Tensor((1, 1, 1), dtype="float32") = R.mean(lv713, axis=[-1], keepdims=True)
            lv715: R.Tensor((1, 1, 768), dtype="float32") = R.subtract(lv713, lv714)
            lv716: R.Tensor((1, 1, 768), dtype="float32") = R.power(lv715, R.const(2.0, "float32"))
            lv717: R.Tensor((1, 1, 1), dtype="float32") = R.mean(lv716, axis=[-1], keepdims=True)
            lv718: R.Tensor((1, 1, 1), dtype="float32") = R.add(lv717, R.const(9.9999997473787516e-06, "float32"))
            lv719: R.Tensor((1, 1, 1), dtype="float32") = R.sqrt(lv718)
            lv720: R.Tensor((1, 1, 768), dtype="float32") = R.divide(lv715, lv719)
            lv721: R.Tensor((1, 1, 768), dtype="float32") = R.multiply(lv720, metadata["relax.expr.Constant"][152])
            lv722: R.Tensor((1, 1, 768), dtype="float32") = R.add(lv721, metadata["relax.expr.Constant"][153])
            lv723: R.Tensor((1, 768), dtype="float32") = R.reshape(lv722, R.shape([1, 768]))
            lv319_1: R.Tensor((1, 768), dtype="float16") = R.astype(lv723, dtype="float16")
            lv320_1: R.Tensor((768, 3072), dtype="float16") = R.astype(metadata["relax.expr.Constant"][154], dtype="float16")
            lv321_1: R.Tensor((1, 3072), dtype="float32") = R.matmul(lv319_1, lv320_1, out_dtype="float32")
            lv724: R.Tensor((1, 3072), dtype="float16") = R.astype(lv321_1, dtype="float16")
            lv322_1: R.Tensor((3072,), dtype="float16") = R.astype(metadata["relax.expr.Constant"][155], dtype="float16")
            lv725: R.Tensor((1, 3072), dtype="float16") = R.add(lv724, lv322_1)
            lv726: R.Tensor((1, 1, 3072), dtype="float16") = R.reshape(lv725, R.shape([1, 1, 3072]))
            lv323_1: R.Tensor((), dtype="float16") = R.astype(R.const(3.0, "float32"), dtype="float16")
            lv727: R.Tensor((1, 1, 3072), dtype="float16") = R.power(lv726, lv323_1)
            lv324_1: R.Tensor((), dtype="float16") = R.astype(R.const(0.044714998453855515, "float32"), dtype="float16")
            lv728: R.Tensor((1, 1, 3072), dtype="float16") = R.multiply(lv727, lv324_1)
            lv729: R.Tensor((1, 1, 3072), dtype="float16") = R.add(lv726, lv728)
            lv325_1: R.Tensor((), dtype="float16") = R.astype(R.const(0.79788458347320557, "float32"), dtype="float16")
            lv730: R.Tensor((1, 1, 3072), dtype="float16") = R.multiply(lv729, lv325_1)
            lv731: R.Tensor((1, 1, 3072), dtype="float16") = R.tanh(lv730)
            lv326_1: R.Tensor((), dtype="float16") = R.astype(R.const(0.5, "float32"), dtype="float16")
            lv732: R.Tensor((1, 1, 3072), dtype="float16") = R.multiply(lv726, lv326_1)
            lv327_1: R.Tensor((), dtype="float16") = R.astype(R.const(1.0, "float32"), dtype="float16")
            lv733: R.Tensor((1, 1, 3072), dtype="float16") = R.add(lv731, lv327_1)
            lv734: R.Tensor((1, 1, 3072), dtype="float16") = R.multiply(lv732, lv733)
            lv735: R.Tensor((1, 3072), dtype="float16") = R.reshape(lv734, R.shape([1, 3072]))
            lv328_1: R.Tensor((3072, 768), dtype="float16") = R.astype(metadata["relax.expr.Constant"][156], dtype="float16")
            lv329_1: R.Tensor((1, 768), dtype="float32") = R.matmul(lv735, lv328_1, out_dtype="float32")
            lv736: R.Tensor((1, 768), dtype="float16") = R.astype(lv329_1, dtype="float16")
            lv330_1: R.Tensor((768,), dtype="float16") = R.astype(metadata["relax.expr.Constant"][157], dtype="float16")
            lv737: R.Tensor((1, 768), dtype="float16") = R.add(lv736, lv330_1)
            lv738: R.Tensor((1, 1, 768), dtype="float16") = R.reshape(lv737, R.shape([1, 1, 768]))
            lv331_1: R.Tensor((1, 1, 768), dtype="float32") = R.astype(lv738, dtype="float32")
            lv739: R.Tensor((1, 1, 768), dtype="float32") = R.add(lv713, lv331_1)
            lv740: R.Tensor((1, 1, 1), dtype="float32") = R.mean(lv739, axis=[-1], keepdims=True)
            lv741: R.Tensor((1, 1, 768), dtype="float32") = R.subtract(lv739, lv740)
            lv742: R.Tensor((1, 1, 768), dtype="float32") = R.power(lv741, R.const(2.0, "float32"))
            lv743: R.Tensor((1, 1, 1), dtype="float32") = R.mean(lv742, axis=[-1], keepdims=True)
            lv744: R.Tensor((1, 1, 1), dtype="float32") = R.add(lv743, R.const(9.9999997473787516e-06, "float32"))
            lv745: R.Tensor((1, 1, 1), dtype="float32") = R.sqrt(lv744)
            lv746: R.Tensor((1, 1, 768), dtype="float32") = R.divide(lv741, lv745)
            lv747: R.Tensor((1, 1, 768), dtype="float32") = R.multiply(lv746, metadata["relax.expr.Constant"][158])
            lv748: R.Tensor((1, 1, 768), dtype="float32") = R.add(lv747, metadata["relax.expr.Constant"][159])
            lv749: R.Tensor((1, 768), dtype="float32") = R.reshape(lv748, R.shape([1, 768]))
            lv332_1: R.Tensor((1, 768), dtype="float16") = R.astype(lv749, dtype="float16")
            lv333_1: R.Tensor((768, 2304), dtype="float16") = R.astype(metadata["relax.expr.Constant"][160], dtype="float16")
            lv334_1: R.Tensor((1, 2304), dtype="float32") = R.matmul(lv332_1, lv333_1, out_dtype="float32")
            lv750: R.Tensor((1, 2304), dtype="float16") = R.astype(lv334_1, dtype="float16")
            lv335_1: R.Tensor((2304,), dtype="float16") = R.astype(metadata["relax.expr.Constant"][161], dtype="float16")
            lv751: R.Tensor((1, 2304), dtype="float16") = R.add(lv750, lv335_1)
            lv752: R.Tensor((1, 1, 2304), dtype="float16") = R.reshape(lv751, R.shape([1, 1, 2304]))
            lv753: R.Tuple(R.Tensor((1, 1, 768), dtype="float16"), R.Tensor((1, 1, 768), dtype="float16"), R.Tensor((1, 1, 768), dtype="float16")) = R.split(lv752, indices_or_sections=[768, 1536], axis=2)
            lv754: R.Tensor((1, 1, 768), dtype="float16") = lv753[0]
            lv755: R.Tensor((1, 1, 768), dtype="float16") = lv753[1]
            lv756: R.Tensor((1, 1, 768), dtype="float16") = lv753[2]
            lv757: R.Tensor((1, 1, 12, 64), dtype="float16") = R.reshape(lv754, R.shape([1, 1, 12, 64]))
            lv758: R.Tensor((1, 1, 12, 64), dtype="float16") = R.reshape(lv755, R.shape([1, 1, 12, 64]))
            lv759: R.Tensor((1, 1, 12, 64), dtype="float16") = R.reshape(lv756, R.shape([1, 1, 12, 64]))
            lv760: R.Tensor((1, 12, 1, 64), dtype="float16") = R.permute_dims(lv758, axes=[0, 2, 1, 3])
            lv761: R.Tensor((1, 12, 1, 64), dtype="float16") = R.permute_dims(lv759, axes=[0, 2, 1, 3])
            lv762: R.Tensor((1, 12, 1, 64), dtype="float16") = R.permute_dims(lv757, axes=[0, 2, 1, 3])
            lv336_1: R.Tensor((1, 12, 1, 64), dtype="float32") = R.astype(lv760, dtype="float32")
            lv763: R.Tensor((1, 12, past_sequence_length + 1, 64), dtype="float32") = R.concat((past_key_values_11_key, lv336_1), axis=-2)
            lv764: R.Tensor((1, 12, 64, past_sequence_length + 1), dtype="float32") = R.permute_dims(lv763, axes=[0, 1, 3, 2])
            lv337_1: R.Tensor((1,), dtype="float16") = R.astype(metadata["relax.expr.Constant"][162], dtype="float16")
            lv765: R.Tensor((1, 12, 1, 64), dtype="float16") = R.multiply(lv762, lv337_1)
            lv766: R.Tensor((1, 12, 64, past_sequence_length + 1), dtype="float32") = R.multiply(lv764, metadata["relax.expr.Constant"][163])
            lv338_1: R.Tensor((1, 12, 64, past_sequence_length + 1), dtype="float16") = R.astype(lv766, dtype="float16")
            lv339_1: R.Tensor((1, 12, 1, past_sequence_length + 1), dtype="float32") = R.matmul(lv765, lv338_1, out_dtype="float32")
            lv767: R.Tensor((1, 12, 1, past_sequence_length + 1), dtype="float16") = R.astype(lv339_1, dtype="float16")
            lv340_1: R.Tensor((1, 12, 1, past_sequence_length + 1), dtype="float32") = R.astype(lv767, dtype="float32")
            lv768: R.Tensor((1, 12, 1, past_sequence_length + 1), dtype="float32") = R.add(lv340_1, lv52)
            lv769: R.Tensor((1, 12, 1, past_sequence_length + 1), dtype="float32") = R.nn.softmax(lv768, axis=-1)
            lv341_1: R.Tensor((1, 12, 1, past_sequence_length + 1), dtype="float16") = R.astype(lv769, dtype="float16")
            lv342_1: R.Tensor((1, 12, 1, 64), dtype="float32") = R.astype(lv761, dtype="float32")
            lv770: R.Tensor((1, 12, past_sequence_length + 1, 64), dtype="float32") = R.concat((past_key_values_11_value, lv342_1), axis=-2)
            lv343_1: R.Tensor((1, 12, past_sequence_length + 1, 64), dtype="float16") = R.astype(lv770, dtype="float16")
            lv344_1: R.Tensor((1, 12, 1, 64), dtype="float32") = R.matmul(lv341_1, lv343_1, out_dtype="float32")
            lv771: R.Tensor((1, 12, 1, 64), dtype="float16") = R.astype(lv344_1, dtype="float16")
            lv772: R.Tensor((1, 1, 12, 64), dtype="float16") = R.permute_dims(lv771, axes=[0, 2, 1, 3])
            lv773: R.Tensor((1, 1, 768), dtype="float16") = R.reshape(lv772, R.shape([1, 1, 768]))
            lv774: R.Tensor((1, 768), dtype="float16") = R.reshape(lv773, R.shape([1, 768]))
            lv345_1: R.Tensor((768, 768), dtype="float16") = R.astype(metadata["relax.expr.Constant"][164], dtype="float16")
            lv346_1: R.Tensor((1, 768), dtype="float32") = R.matmul(lv774, lv345_1, out_dtype="float32")
            lv775: R.Tensor((1, 768), dtype="float16") = R.astype(lv346_1, dtype="float16")
            lv347_1: R.Tensor((768,), dtype="float16") = R.astype(metadata["relax.expr.Constant"][165], dtype="float16")
            lv776: R.Tensor((1, 768), dtype="float16") = R.add(lv775, lv347_1)
            lv777: R.Tensor((1, 1, 768), dtype="float16") = R.reshape(lv776, R.shape([1, 1, 768]))
            lv348_1: R.Tensor((1, 1, 768), dtype="float32") = R.astype(lv777, dtype="float32")
            lv778: R.Tensor((1, 1, 768), dtype="float32") = R.add(lv348_1, lv739)
            lv779: R.Tensor((1, 1, 1), dtype="float32") = R.mean(lv778, axis=[-1], keepdims=True)
            lv780: R.Tensor((1, 1, 768), dtype="float32") = R.subtract(lv778, lv779)
            lv781: R.Tensor((1, 1, 768), dtype="float32") = R.power(lv780, R.const(2.0, "float32"))
            lv782: R.Tensor((1, 1, 1), dtype="float32") = R.mean(lv781, axis=[-1], keepdims=True)
            lv783: R.Tensor((1, 1, 1), dtype="float32") = R.add(lv782, R.const(9.9999997473787516e-06, "float32"))
            lv784: R.Tensor((1, 1, 1), dtype="float32") = R.sqrt(lv783)
            lv785: R.Tensor((1, 1, 768), dtype="float32") = R.divide(lv780, lv784)
            lv786: R.Tensor((1, 1, 768), dtype="float32") = R.multiply(lv785, metadata["relax.expr.Constant"][166])
            lv787: R.Tensor((1, 1, 768), dtype="float32") = R.add(lv786, metadata["relax.expr.Constant"][167])
            lv788: R.Tensor((1, 768), dtype="float32") = R.reshape(lv787, R.shape([1, 768]))
            lv349_1: R.Tensor((1, 768), dtype="float16") = R.astype(lv788, dtype="float16")
            lv350_1: R.Tensor((768, 3072), dtype="float16") = R.astype(metadata["relax.expr.Constant"][168], dtype="float16")
            lv351_1: R.Tensor((1, 3072), dtype="float32") = R.matmul(lv349_1, lv350_1, out_dtype="float32")
            lv789: R.Tensor((1, 3072), dtype="float16") = R.astype(lv351_1, dtype="float16")
            lv352_1: R.Tensor((3072,), dtype="float16") = R.astype(metadata["relax.expr.Constant"][169], dtype="float16")
            lv790: R.Tensor((1, 3072), dtype="float16") = R.add(lv789, lv352_1)
            lv791: R.Tensor((1, 1, 3072), dtype="float16") = R.reshape(lv790, R.shape([1, 1, 3072]))
            lv353_1: R.Tensor((), dtype="float16") = R.astype(R.const(3.0, "float32"), dtype="float16")
            lv792: R.Tensor((1, 1, 3072), dtype="float16") = R.power(lv791, lv353_1)
            lv354_1: R.Tensor((), dtype="float16") = R.astype(R.const(0.044714998453855515, "float32"), dtype="float16")
            lv793: R.Tensor((1, 1, 3072), dtype="float16") = R.multiply(lv792, lv354_1)
            lv794: R.Tensor((1, 1, 3072), dtype="float16") = R.add(lv791, lv793)
            lv355_1: R.Tensor((), dtype="float16") = R.astype(R.const(0.79788458347320557, "float32"), dtype="float16")
            lv795: R.Tensor((1, 1, 3072), dtype="float16") = R.multiply(lv794, lv355_1)
            lv796: R.Tensor((1, 1, 3072), dtype="float16") = R.tanh(lv795)
            lv356_1: R.Tensor((), dtype="float16") = R.astype(R.const(0.5, "float32"), dtype="float16")
            lv797: R.Tensor((1, 1, 3072), dtype="float16") = R.multiply(lv791, lv356_1)
            lv357_1: R.Tensor((), dtype="float16") = R.astype(R.const(1.0, "float32"), dtype="float16")
            lv798: R.Tensor((1, 1, 3072), dtype="float16") = R.add(lv796, lv357_1)
            lv799: R.Tensor((1, 1, 3072), dtype="float16") = R.multiply(lv797, lv798)
            lv800: R.Tensor((1, 3072), dtype="float16") = R.reshape(lv799, R.shape([1, 3072]))
            lv358_1: R.Tensor((3072, 768), dtype="float16") = R.astype(metadata["relax.expr.Constant"][170], dtype="float16")
            lv359_1: R.Tensor((1, 768), dtype="float32") = R.matmul(lv800, lv358_1, out_dtype="float32")
            lv801: R.Tensor((1, 768), dtype="float16") = R.astype(lv359_1, dtype="float16")
            lv360_1: R.Tensor((768,), dtype="float16") = R.astype(metadata["relax.expr.Constant"][171], dtype="float16")
            lv802: R.Tensor((1, 768), dtype="float16") = R.add(lv801, lv360_1)
            lv803: R.Tensor((1, 1, 768), dtype="float16") = R.reshape(lv802, R.shape([1, 1, 768]))
            lv361_1: R.Tensor((1, 1, 768), dtype="float32") = R.astype(lv803, dtype="float32")
            lv804: R.Tensor((1, 1, 768), dtype="float32") = R.add(lv778, lv361_1)
            lv805: R.Tensor((1, 1, 1), dtype="float32") = R.mean(lv804, axis=[-1], keepdims=True)
            lv806: R.Tensor((1, 1, 768), dtype="float32") = R.subtract(lv804, lv805)
            lv807: R.Tensor((1, 1, 768), dtype="float32") = R.power(lv806, R.const(2.0, "float32"))
            lv808: R.Tensor((1, 1, 1), dtype="float32") = R.mean(lv807, axis=[-1], keepdims=True)
            lv809: R.Tensor((1, 1, 1), dtype="float32") = R.add(lv808, R.const(9.9999997473787516e-06, "float32"))
            lv810: R.Tensor((1, 1, 1), dtype="float32") = R.sqrt(lv809)
            lv811: R.Tensor((1, 1, 768), dtype="float32") = R.divide(lv806, lv810)
            lv812: R.Tensor((1, 1, 768), dtype="float32") = R.multiply(lv811, metadata["relax.expr.Constant"][172])
            lv813: R.Tensor((1, 1, 768), dtype="float32") = R.add(lv812, metadata["relax.expr.Constant"][173])
            lv814: R.Tensor((1, 1, 768), dtype="float32") = R.reshape(lv813, R.shape([1, 1, 768]))
            lv362_1: R.Tensor((1, 1, 768), dtype="float16") = R.astype(lv814, dtype="float16")
            lv363_1: R.Tensor((768, 50257), dtype="float16") = R.astype(metadata["relax.expr.Constant"][174], dtype="float16")
            lv364_1: R.Tensor((1, 1, 50257), dtype="float32") = R.matmul(lv362_1, lv363_1, out_dtype="float32")
            lv815: R.Tensor((1, 1, 50257), dtype="float16") = R.astype(lv364_1, dtype="float16")
            lv365_1: R.Tensor((1, 1, 50257), dtype="float32") = R.astype(lv815, dtype="float32")
            gv: R.Tuple(R.Tensor((1, 1, 50257), dtype="float32"), R.Tensor((1, 12, past_sequence_length + 1, 64), dtype="float32"), R.Tensor((1, 12, past_sequence_length + 1, 64), dtype="float32"), R.Tensor((1, 12, past_sequence_length + 1, 64), dtype="float32"), R.Tensor((1, 12, past_sequence_length + 1, 64), dtype="float32"), R.Tensor((1, 12, past_sequence_length + 1, 64), dtype="float32"), R.Tensor((1, 12, past_sequence_length + 1, 64), dtype="float32"), R.Tensor((1, 12, past_sequence_length + 1, 64), dtype="float32"), R.Tensor((1, 12, past_sequence_length + 1, 64), dtype="float32"), R.Tensor((1, 12, past_sequence_length + 1, 64), dtype="float32"), R.Tensor((1, 12, past_sequence_length + 1, 64), dtype="float32"), R.Tensor((1, 12, past_sequence_length + 1, 64), dtype="float32"), R.Tensor((1, 12, past_sequence_length + 1, 64), dtype="float32"), R.Tensor((1, 12, past_sequence_length + 1, 64), dtype="float32"), R.Tensor((1, 12, past_sequence_length + 1, 64), dtype="float32"), R.Tensor((1, 12, past_sequence_length + 1, 64), dtype="float32"), R.Tensor((1, 12, past_sequence_length + 1, 64), dtype="float32"), R.Tensor((1, 12, past_sequence_length + 1, 64), dtype="float32"), R.Tensor((1, 12, past_sequence_length + 1, 64), dtype="float32"), R.Tensor((1, 12, past_sequence_length + 1, 64), dtype="float32"), R.Tensor((1, 12, past_sequence_length + 1, 64), dtype="float32"), R.Tensor((1, 12, past_sequence_length + 1, 64), dtype="float32"), R.Tensor((1, 12, past_sequence_length + 1, 64), dtype="float32"), R.Tensor((1, 12, past_sequence_length + 1, 64), dtype="float32"), R.Tensor((1, 12, past_sequence_length + 1, 64), dtype="float32")) = lv365_1, lv47, lv55, lv113, lv120, lv178, lv185, lv243, lv250, lv308, lv315, lv373, lv380, lv438, lv445, lv503, lv510, lv568, lv575, lv633, lv640, lv698, lv705, lv763, lv770
            R.output(gv)
        return gv

# Metadata omitted. Use show_meta=True in script() method to show it.
Operator: I.GlobalVar("reshape")
Operator: I.GlobalVar("take")
Operator: I.GlobalVar("take1")
Operator: I.GlobalVar("add")
Operator: I.GlobalVar("mean")
Operator: I.GlobalVar("subtract")
Operator: I.GlobalVar("reshape1")
Operator: I.GlobalVar("power")
Operator: I.GlobalVar("add1")
Operator: I.GlobalVar("expand_dims")
Operator: I.GlobalVar("reshape2")
Operator: I.GlobalVar("add2")
Operator: I.GlobalVar("less")
Operator: I.GlobalVar("broadcast_to")
Operator: I.GlobalVar("tir_sqrt")
Operator: I.GlobalVar("cast")
Operator: I.GlobalVar("broadcast_to1")
Operator: I.GlobalVar("where")
Operator: I.GlobalVar("divide")
Operator: I.GlobalVar("cast1")
Operator: I.GlobalVar("concatenate")
Operator: I.GlobalVar("multiply")
Operator: I.GlobalVar("expand_dims1")
Operator: I.GlobalVar("add3")
Operator: I.GlobalVar("expand_dims2")
Operator: I.GlobalVar("expand_dims3")
Operator: I.GlobalVar("reshape3")
Operator: I.GlobalVar("cast2")
Operator: I.GlobalVar("cast3")
Operator: I.GlobalVar("matmul")
Operator: I.GlobalVar("cast4")
Operator: I.GlobalVar("broadcast_to2")
Operator: I.GlobalVar("cast5")
Operator: I.GlobalVar("subtract1")
Operator: I.GlobalVar("cast6")
Operator: I.GlobalVar("add4")
Operator: I.GlobalVar("cast7")
Operator: I.GlobalVar("reshape4")
Operator: I.GlobalVar("split")
Operator: I.GlobalVar("where1")
Operator: I.GlobalVar("broadcast_to3")
Operator: I.GlobalVar("reshape5")
Operator: I.GlobalVar("transpose")
Operator: I.GlobalVar("cast8")
Operator: I.GlobalVar("concatenate1")
Operator: I.GlobalVar("transpose1")
Operator: I.GlobalVar("multiply1")
Operator: I.GlobalVar("multiply2")
Operator: I.GlobalVar("cast9")
Operator: I.GlobalVar("matmul1")
Operator: I.GlobalVar("cast10")
Operator: I.GlobalVar("cast11")
Operator: I.GlobalVar("add5")
Operator: I.GlobalVar("softmax")
Operator: I.GlobalVar("cast12")
Operator: I.GlobalVar("matmul2")
Operator: I.GlobalVar("cast13")
Operator: I.GlobalVar("transpose2")
Operator: I.GlobalVar("reshape6")
Operator: I.GlobalVar("reshape7")
Operator: I.GlobalVar("cast14")
Operator: I.GlobalVar("matmul3")
Operator: I.GlobalVar("cast15")
Operator: I.GlobalVar("add6")
Operator: I.GlobalVar("reshape8")
Operator: I.GlobalVar("cast16")
Operator: I.GlobalVar("cast17")
Operator: I.GlobalVar("matmul4")
Operator: I.GlobalVar("cast18")
Operator: I.GlobalVar("cast19")
Operator: I.GlobalVar("add7")
Operator: I.GlobalVar("reshape9")
Operator: I.GlobalVar("power1")
Operator: I.GlobalVar("multiply3")
Operator: I.GlobalVar("add8")
Operator: I.GlobalVar("tir_tanh")
Operator: I.GlobalVar("add9")
Operator: I.GlobalVar("multiply4")
Operator: I.GlobalVar("reshape10")
Operator: I.GlobalVar("cast20")
Operator: I.GlobalVar("matmul5")
Operator: I.GlobalVar("reshape11")
Operator: I.GlobalVar("cast21")
Operator: I.GlobalVar("cast22")
Operator: I.GlobalVar("matmul6")
Operator: I.GlobalVar("cast23")
Operator: I.GlobalVar("cast24")
Mixed Precision build time: 5.88 seconds
Mixed Precision export time: 5.40 seconds
Done
