Compiling FP16 model...
# from tvm.script import ir as I
# from tvm.script import tir as T
# from tvm.script import relax as R

@I.ir_module
class Module:
    @R.function
    def main(input_ids: R.Tensor((1, 1), dtype="int64"), past_key_values_0_key: R.Tensor((1, 12, "past_sequence_length", 64), dtype="float32"), past_key_values_0_value: R.Tensor((1, 12, "past_sequence_length", 64), dtype="float32"), past_key_values_1_key: R.Tensor((1, 12, "past_sequence_length", 64), dtype="float32"), past_key_values_1_value: R.Tensor((1, 12, "past_sequence_length", 64), dtype="float32"), past_key_values_2_key: R.Tensor((1, 12, "past_sequence_length", 64), dtype="float32"), past_key_values_2_value: R.Tensor((1, 12, "past_sequence_length", 64), dtype="float32"), past_key_values_3_key: R.Tensor((1, 12, "past_sequence_length", 64), dtype="float32"), past_key_values_3_value: R.Tensor((1, 12, "past_sequence_length", 64), dtype="float32"), past_key_values_4_key: R.Tensor((1, 12, "past_sequence_length", 64), dtype="float32"), past_key_values_4_value: R.Tensor((1, 12, "past_sequence_length", 64), dtype="float32"), past_key_values_5_key: R.Tensor((1, 12, "past_sequence_length", 64), dtype="float32"), past_key_values_5_value: R.Tensor((1, 12, "past_sequence_length", 64), dtype="float32"), past_key_values_6_key: R.Tensor((1, 12, "past_sequence_length", 64), dtype="float32"), past_key_values_6_value: R.Tensor((1, 12, "past_sequence_length", 64), dtype="float32"), past_key_values_7_key: R.Tensor((1, 12, "past_sequence_length", 64), dtype="float32"), past_key_values_7_value: R.Tensor((1, 12, "past_sequence_length", 64), dtype="float32"), past_key_values_8_key: R.Tensor((1, 12, "past_sequence_length", 64), dtype="float32"), past_key_values_8_value: R.Tensor((1, 12, "past_sequence_length", 64), dtype="float32"), past_key_values_9_key: R.Tensor((1, 12, "past_sequence_length", 64), dtype="float32"), past_key_values_9_value: R.Tensor((1, 12, "past_sequence_length", 64), dtype="float32"), past_key_values_10_key: R.Tensor((1, 12, "past_sequence_length", 64), dtype="float32"), past_key_values_10_value: R.Tensor((1, 12, "past_sequence_length", 64), dtype="float32"), past_key_values_11_key: R.Tensor((1, 12, "past_sequence_length", 64), dtype="float32"), past_key_values_11_value: R.Tensor((1, 12, "past_sequence_length", 64), dtype="float32"), attention_mask: R.Tensor((1, "past_sequence_length + 1"), dtype="int64"), position_ids: R.Tensor((1, 1), dtype="int64")) -> R.Tuple(R.Tensor((1, 1, 50257), dtype="float32"), R.Tensor((1, 12, "past_sequence_length + 1", 64), dtype="float32"), R.Tensor((1, 12, "past_sequence_length + 1", 64), dtype="float32"), R.Tensor((1, 12, "past_sequence_length + 1", 64), dtype="float32"), R.Tensor((1, 12, "past_sequence_length + 1", 64), dtype="float32"), R.Tensor((1, 12, "past_sequence_length + 1", 64), dtype="float32"), R.Tensor((1, 12, "past_sequence_length + 1", 64), dtype="float32"), R.Tensor((1, 12, "past_sequence_length + 1", 64), dtype="float32"), R.Tensor((1, 12, "past_sequence_length + 1", 64), dtype="float32"), R.Tensor((1, 12, "past_sequence_length + 1", 64), dtype="float32"), R.Tensor((1, 12, "past_sequence_length + 1", 64), dtype="float32"), R.Tensor((1, 12, "past_sequence_length + 1", 64), dtype="float32"), R.Tensor((1, 12, "past_sequence_length + 1", 64), dtype="float32"), R.Tensor((1, 12, "past_sequence_length + 1", 64), dtype="float32"), R.Tensor((1, 12, "past_sequence_length + 1", 64), dtype="float32"), R.Tensor((1, 12, "past_sequence_length + 1", 64), dtype="float32"), R.Tensor((1, 12, "past_sequence_length + 1", 64), dtype="float32"), R.Tensor((1, 12, "past_sequence_length + 1", 64), dtype="float32"), R.Tensor((1, 12, "past_sequence_length + 1", 64), dtype="float32"), R.Tensor((1, 12, "past_sequence_length + 1", 64), dtype="float32"), R.Tensor((1, 12, "past_sequence_length + 1", 64), dtype="float32"), R.Tensor((1, 12, "past_sequence_length + 1", 64), dtype="float32"), R.Tensor((1, 12, "past_sequence_length + 1", 64), dtype="float32"), R.Tensor((1, 12, "past_sequence_length + 1", 64), dtype="float32"), R.Tensor((1, 12, "past_sequence_length + 1", 64), dtype="float32")):
        past_sequence_length = T.int64(is_size_var=True)
        R.func_attr({"num_input": 27})
        with R.dataflow():
            lv: R.Tensor((1, 1), dtype="int64") = R.reshape(input_ids, R.shape([1, 1]))
            lv1: R.Tensor((1, 1, 768), dtype="float16") = R.take(metadata["relax.expr.Constant"][0], lv, axis=0, mode="fast")
            lv2: R.Tensor((1, 1, 768), dtype="float16") = R.take(metadata["relax.expr.Constant"][1], position_ids, axis=0, mode="fast")
            lv3: R.Tensor((1, 1, 768), dtype="float16") = R.add(lv1, lv2)
            lv4: R.Tensor((1, 1, 1), dtype="float16") = R.mean(lv3, axis=[-1], keepdims=True)
            lv5: R.Tensor((1, 1, 768), dtype="float16") = R.subtract(lv3, lv4)
            lv6: R.Tensor((1,), dtype="int64") = R.arange(R.prim_value(0), R.prim_value(1), R.prim_value(1), dtype="int64")
            lv7: R.Tensor((1, past_sequence_length + 1), dtype="int64") = R.reshape(attention_mask, R.shape([1, past_sequence_length + 1]))
            lv8: R.Tensor((1, 1, 768), dtype="float16") = R.power(lv5, R.const(2.0, "float16"))
            lv9: R.Tensor((1,), dtype="int64") = R.add(lv6, R.const(1, "int64"))
            lv10: R.Tensor((1, 1, past_sequence_length + 1), dtype="int64") = R.expand_dims(lv7, axis=[1])
            lv11: R.Tensor((1, 1, 1), dtype="float16") = R.mean(lv8, axis=[-1], keepdims=True)
            lv12: R.Tensor((1, 1), dtype="int64") = R.reshape(lv9, R.shape([1, 1]))
            lv13: R.Tensor((1, 1, 1), dtype="float16") = R.add(lv11, R.const(1.0013580322265625e-05, "float16"))
            lv14: R.Tensor((1, 1), dtype="bool") = R.less(lv6, lv12)
            lv15: R.Tensor((1, 1), dtype="float16") = R.broadcast_to(metadata["relax.expr.Constant"][2], R.shape([1, 1]))
            lv16: R.Tensor((1, 1, 1), dtype="float16") = R.sqrt(lv13)
            lv17: R.Tensor((1, past_sequence_length), dtype="float16") = R.broadcast_to(metadata["relax.expr.Constant"][3], R.shape([1, past_sequence_length]))
            lv18: R.Tensor((1, 1), dtype="float16") = R.where(lv14, R.const(0.0, "float16"), lv15)
            lv19: R.Tensor((1, 1, 768), dtype="float16") = R.divide(lv5, lv16)
            lv20: R.Tensor((1, past_sequence_length + 1), dtype="float16") = R.concat((lv17, lv18), axis=-1)
            lv21: R.Tensor((1, 1, 768), dtype="float16") = R.multiply(lv19, metadata["relax.expr.Constant"][4])
            lv22: R.Tensor((1, 1, past_sequence_length + 1), dtype="float16") = R.expand_dims(lv20, axis=[0])
            lv23: R.Tensor((1, 1, 768), dtype="float16") = R.add(lv21, metadata["relax.expr.Constant"][5])
            lv24: R.Tensor((1, 1, 1, past_sequence_length + 1), dtype="int64") = R.expand_dims(lv10, axis=[2])
            lv25: R.Tensor((1, 1, 1, past_sequence_length + 1), dtype="float16") = R.expand_dims(lv22, axis=[1])
            lv26: R.Tensor((1, 768), dtype="float16") = R.reshape(lv23, R.shape([1, 768]))
            lv27: R.Tensor((1, 2304), dtype="float16") = R.matmul(lv26, metadata["relax.expr.Constant"][6], out_dtype="void")
            lv28: R.Tensor((1, 1, 1, past_sequence_length + 1), dtype="int64") = R.broadcast_to(lv24, R.shape([1, 1, 1, past_sequence_length + 1]))
            lv29: R.Tensor((1, 1, 1, past_sequence_length + 1), dtype="float16") = R.astype(lv28, dtype="float16")
            lv30: R.Tensor((1, 1, 1, past_sequence_length + 1), dtype="float16") = R.subtract(R.const(1.0, "float16"), lv29)
            lv31: R.Tensor((1, 2304), dtype="float16") = R.add(lv27, metadata["relax.expr.Constant"][7])
            lv32: R.Tensor((1, 1, 1, past_sequence_length + 1), dtype="bool") = R.astype(lv30, dtype="bool")
            lv33: R.Tensor((1, 1, 2304), dtype="float16") = R.reshape(lv31, R.shape([1, 1, 2304]))
            lv34: R.Tuple(R.Tensor((1, 1, 768), dtype="float16"), R.Tensor((1, 1, 768), dtype="float16"), R.Tensor((1, 1, 768), dtype="float16")) = R.split(lv33, indices_or_sections=[768, 1536], axis=2)
            lv35: R.Tensor((1, 1, 768), dtype="float16") = lv34[0]
            lv36: R.Tensor((1, 1, 768), dtype="float16") = lv34[1]
            lv37: R.Tensor((1, 1, 768), dtype="float16") = lv34[2]
            lv38: R.Tensor((1, 1, 1, past_sequence_length + 1), dtype="float16") = R.where(lv32, R.const(-10000.0, "float16"), lv30)
            lv39: R.Tensor((1, 1, 1, past_sequence_length + 1), dtype="bool") = R.astype(lv38, dtype="bool")
            lv40: R.Tensor((1, 1, 1, past_sequence_length + 1), dtype="float16") = R.broadcast_to(lv25, R.shape([1, 1, 1, past_sequence_length + 1]))
            lv41: R.Tensor((1, 1, 12, 64), dtype="float16") = R.reshape(lv35, R.shape([1, 1, 12, 64]))
            lv42: R.Tensor((1, 1, 12, 64), dtype="float16") = R.reshape(lv36, R.shape([1, 1, 12, 64]))
            lv43: R.Tensor((1, 1, 12, 64), dtype="float16") = R.reshape(lv37, R.shape([1, 1, 12, 64]))
            lv44: R.Tensor((1, 12, 1, 64), dtype="float16") = R.permute_dims(lv41, axes=[0, 2, 1, 3])
            lv45: R.Tensor((1, 12, past_sequence_length, 64), dtype="float16") = R.astype(past_key_values_0_key, dtype="float16")
            lv46: R.Tensor((1, 12, 1, 64), dtype="float16") = R.permute_dims(lv42, axes=[0, 2, 1, 3])
            lv47: R.Tensor((1, 12, past_sequence_length, 64), dtype="float16") = R.astype(past_key_values_0_value, dtype="float16")
            lv48: R.Tensor((1, 12, 1, 64), dtype="float16") = R.permute_dims(lv43, axes=[0, 2, 1, 3])
            lv49: R.Tensor((1, 12, past_sequence_length + 1, 64), dtype="float16") = R.concat((lv45, lv46), axis=-2)
            lv50: R.Tensor((1, 12, past_sequence_length + 1, 64), dtype="float16") = R.concat((lv47, lv48), axis=-2)
            lv51: R.Tensor((1, 12, 64, past_sequence_length + 1), dtype="float16") = R.permute_dims(lv49, axes=[0, 1, 3, 2])
            lv52: R.Tensor((1, 12, 1, 64), dtype="float16") = R.multiply(lv44, metadata["relax.expr.Constant"][8])
            lv53: R.Tensor((1, 12, 64, past_sequence_length + 1), dtype="float16") = R.multiply(lv51, metadata["relax.expr.Constant"][9])
            lv54: R.Tensor((1, 12, 1, past_sequence_length + 1), dtype="float16") = R.matmul(lv52, lv53, out_dtype="void")
            lv55: R.Tensor((1, 1, 1, past_sequence_length + 1), dtype="float16") = R.where(lv39, R.const(-10000.0, "float16"), lv40)
            lv56: R.Tensor((1, 12, 1, past_sequence_length + 1), dtype="float16") = R.add(lv54, lv55)
            lv57: R.Tensor((1, 12, 1, past_sequence_length + 1), dtype="float16") = R.nn.softmax(lv56, axis=-1)
            lv58: R.Tensor((1, 12, 1, 64), dtype="float16") = R.matmul(lv57, lv50, out_dtype="void")
            lv59: R.Tensor((1, 1, 12, 64), dtype="float16") = R.permute_dims(lv58, axes=[0, 2, 1, 3])
            lv60: R.Tensor((1, 1, 768), dtype="float16") = R.reshape(lv59, R.shape([1, 1, 768]))
            lv61: R.Tensor((1, 768), dtype="float16") = R.reshape(lv60, R.shape([1, 768]))
            lv62: R.Tensor((1, 768), dtype="float16") = R.matmul(lv61, metadata["relax.expr.Constant"][10], out_dtype="void")
            lv63: R.Tensor((1, 768), dtype="float16") = R.add(lv62, metadata["relax.expr.Constant"][11])
            lv64: R.Tensor((1, 1, 768), dtype="float16") = R.reshape(lv63, R.shape([1, 1, 768]))
            lv65: R.Tensor((1, 1, 768), dtype="float16") = R.add(lv64, lv3)
            lv66: R.Tensor((1, 1, 1), dtype="float16") = R.mean(lv65, axis=[-1], keepdims=True)
            lv67: R.Tensor((1, 1, 768), dtype="float16") = R.subtract(lv65, lv66)
            lv68: R.Tensor((1, 1, 768), dtype="float16") = R.power(lv67, R.const(2.0, "float16"))
            lv69: R.Tensor((1, 1, 1), dtype="float16") = R.mean(lv68, axis=[-1], keepdims=True)
            lv70: R.Tensor((1, 1, 1), dtype="float16") = R.add(lv69, R.const(1.0013580322265625e-05, "float16"))
            lv71: R.Tensor((1, 1, 1), dtype="float16") = R.sqrt(lv70)
            lv72: R.Tensor((1, 1, 768), dtype="float16") = R.divide(lv67, lv71)
            lv73: R.Tensor((1, 1, 768), dtype="float16") = R.multiply(lv72, metadata["relax.expr.Constant"][12])
            lv74: R.Tensor((1, 1, 768), dtype="float16") = R.add(lv73, metadata["relax.expr.Constant"][13])
            lv75: R.Tensor((1, 768), dtype="float16") = R.reshape(lv74, R.shape([1, 768]))
            lv76: R.Tensor((1, 3072), dtype="float16") = R.matmul(lv75, metadata["relax.expr.Constant"][14], out_dtype="void")
            lv77: R.Tensor((1, 3072), dtype="float16") = R.add(lv76, metadata["relax.expr.Constant"][15])
            lv78: R.Tensor((1, 1, 3072), dtype="float16") = R.reshape(lv77, R.shape([1, 1, 3072]))
            lv79: R.Tensor((1, 1, 3072), dtype="float16") = R.power(lv78, R.const(3.0, "float16"))
            lv80: R.Tensor((1, 1, 3072), dtype="float16") = R.multiply(lv79, R.const(0.044708251953125, "float16"))
            lv81: R.Tensor((1, 1, 3072), dtype="float16") = R.add(lv78, lv80)
            lv82: R.Tensor((1, 1, 3072), dtype="float16") = R.multiply(lv81, R.const(0.7978515625, "float16"))
            lv83: R.Tensor((1, 1, 3072), dtype="float16") = R.tanh(lv82)
            lv84: R.Tensor((1, 1, 3072), dtype="float16") = R.multiply(lv78, R.const(0.5, "float16"))
            lv85: R.Tensor((1, 1, 3072), dtype="float16") = R.add(lv83, R.const(1.0, "float16"))
            lv86: R.Tensor((1, 1, 3072), dtype="float16") = R.multiply(lv84, lv85)
            lv87: R.Tensor((1, 3072), dtype="float16") = R.reshape(lv86, R.shape([1, 3072]))
            lv88: R.Tensor((1, 768), dtype="float16") = R.matmul(lv87, metadata["relax.expr.Constant"][16], out_dtype="void")
            lv89: R.Tensor((1, 768), dtype="float16") = R.add(lv88, metadata["relax.expr.Constant"][17])
            lv90: R.Tensor((1, 1, 768), dtype="float16") = R.reshape(lv89, R.shape([1, 1, 768]))
            lv91: R.Tensor((1, 1, 768), dtype="float16") = R.add(lv65, lv90)
            lv92: R.Tensor((1, 1, 1), dtype="float16") = R.mean(lv91, axis=[-1], keepdims=True)
            lv93: R.Tensor((1, 1, 768), dtype="float16") = R.subtract(lv91, lv92)
            lv94: R.Tensor((1, 1, 768), dtype="float16") = R.power(lv93, R.const(2.0, "float16"))
            lv95: R.Tensor((1, 1, 1), dtype="float16") = R.mean(lv94, axis=[-1], keepdims=True)
            lv96: R.Tensor((1, 1, 1), dtype="float16") = R.add(lv95, R.const(1.0013580322265625e-05, "float16"))
            lv97: R.Tensor((1, 1, 1), dtype="float16") = R.sqrt(lv96)
            lv98: R.Tensor((1, 1, 768), dtype="float16") = R.divide(lv93, lv97)
            lv99: R.Tensor((1, 1, 768), dtype="float16") = R.multiply(lv98, metadata["relax.expr.Constant"][18])
            lv100: R.Tensor((1, 1, 768), dtype="float16") = R.add(lv99, metadata["relax.expr.Constant"][19])
            lv101: R.Tensor((1, 768), dtype="float16") = R.reshape(lv100, R.shape([1, 768]))
            lv102: R.Tensor((1, 2304), dtype="float16") = R.matmul(lv101, metadata["relax.expr.Constant"][20], out_dtype="void")
            lv103: R.Tensor((1, 2304), dtype="float16") = R.add(lv102, metadata["relax.expr.Constant"][21])
            lv104: R.Tensor((1, 1, 2304), dtype="float16") = R.reshape(lv103, R.shape([1, 1, 2304]))
            lv105: R.Tuple(R.Tensor((1, 1, 768), dtype="float16"), R.Tensor((1, 1, 768), dtype="float16"), R.Tensor((1, 1, 768), dtype="float16")) = R.split(lv104, indices_or_sections=[768, 1536], axis=2)
            lv106: R.Tensor((1, 1, 768), dtype="float16") = lv105[0]
            lv107: R.Tensor((1, 1, 768), dtype="float16") = lv105[1]
            lv108: R.Tensor((1, 1, 768), dtype="float16") = lv105[2]
            lv109: R.Tensor((1, 1, 12, 64), dtype="float16") = R.reshape(lv106, R.shape([1, 1, 12, 64]))
            lv110: R.Tensor((1, 1, 12, 64), dtype="float16") = R.reshape(lv107, R.shape([1, 1, 12, 64]))
            lv111: R.Tensor((1, 1, 12, 64), dtype="float16") = R.reshape(lv108, R.shape([1, 1, 12, 64]))
            lv112: R.Tensor((1, 12, 1, 64), dtype="float16") = R.permute_dims(lv109, axes=[0, 2, 1, 3])
            lv113: R.Tensor((1, 12, past_sequence_length, 64), dtype="float16") = R.astype(past_key_values_1_key, dtype="float16")
            lv114: R.Tensor((1, 12, 1, 64), dtype="float16") = R.permute_dims(lv110, axes=[0, 2, 1, 3])
            lv115: R.Tensor((1, 12, past_sequence_length, 64), dtype="float16") = R.astype(past_key_values_1_value, dtype="float16")
            lv116: R.Tensor((1, 12, 1, 64), dtype="float16") = R.permute_dims(lv111, axes=[0, 2, 1, 3])
            lv117: R.Tensor((1, 12, past_sequence_length + 1, 64), dtype="float16") = R.concat((lv113, lv114), axis=-2)
            lv118: R.Tensor((1, 12, past_sequence_length + 1, 64), dtype="float16") = R.concat((lv115, lv116), axis=-2)
            lv119: R.Tensor((1, 12, 64, past_sequence_length + 1), dtype="float16") = R.permute_dims(lv117, axes=[0, 1, 3, 2])
            lv120: R.Tensor((1, 12, 1, 64), dtype="float16") = R.multiply(lv112, metadata["relax.expr.Constant"][22])
            lv121: R.Tensor((1, 12, 64, past_sequence_length + 1), dtype="float16") = R.multiply(lv119, metadata["relax.expr.Constant"][23])
            lv122: R.Tensor((1, 12, 1, past_sequence_length + 1), dtype="float16") = R.matmul(lv120, lv121, out_dtype="void")
            lv123: R.Tensor((1, 12, 1, past_sequence_length + 1), dtype="float16") = R.add(lv122, lv55)
            lv124: R.Tensor((1, 12, 1, past_sequence_length + 1), dtype="float16") = R.nn.softmax(lv123, axis=-1)
            lv125: R.Tensor((1, 12, 1, 64), dtype="float16") = R.matmul(lv124, lv118, out_dtype="void")
            lv126: R.Tensor((1, 1, 12, 64), dtype="float16") = R.permute_dims(lv125, axes=[0, 2, 1, 3])
            lv127: R.Tensor((1, 1, 768), dtype="float16") = R.reshape(lv126, R.shape([1, 1, 768]))
            lv128: R.Tensor((1, 768), dtype="float16") = R.reshape(lv127, R.shape([1, 768]))
            lv129: R.Tensor((1, 768), dtype="float16") = R.matmul(lv128, metadata["relax.expr.Constant"][24], out_dtype="void")
            lv130: R.Tensor((1, 768), dtype="float16") = R.add(lv129, metadata["relax.expr.Constant"][25])
            lv131: R.Tensor((1, 1, 768), dtype="float16") = R.reshape(lv130, R.shape([1, 1, 768]))
            lv132: R.Tensor((1, 1, 768), dtype="float16") = R.add(lv131, lv91)
            lv133: R.Tensor((1, 1, 1), dtype="float16") = R.mean(lv132, axis=[-1], keepdims=True)
            lv134: R.Tensor((1, 1, 768), dtype="float16") = R.subtract(lv132, lv133)
            lv135: R.Tensor((1, 1, 768), dtype="float16") = R.power(lv134, R.const(2.0, "float16"))
            lv136: R.Tensor((1, 1, 1), dtype="float16") = R.mean(lv135, axis=[-1], keepdims=True)
            lv137: R.Tensor((1, 1, 1), dtype="float16") = R.add(lv136, R.const(1.0013580322265625e-05, "float16"))
            lv138: R.Tensor((1, 1, 1), dtype="float16") = R.sqrt(lv137)
            lv139: R.Tensor((1, 1, 768), dtype="float16") = R.divide(lv134, lv138)
            lv140: R.Tensor((1, 1, 768), dtype="float16") = R.multiply(lv139, metadata["relax.expr.Constant"][26])
            lv141: R.Tensor((1, 1, 768), dtype="float16") = R.add(lv140, metadata["relax.expr.Constant"][27])
            lv142: R.Tensor((1, 768), dtype="float16") = R.reshape(lv141, R.shape([1, 768]))
            lv143: R.Tensor((1, 3072), dtype="float16") = R.matmul(lv142, metadata["relax.expr.Constant"][28], out_dtype="void")
            lv144: R.Tensor((1, 3072), dtype="float16") = R.add(lv143, metadata["relax.expr.Constant"][29])
            lv145: R.Tensor((1, 1, 3072), dtype="float16") = R.reshape(lv144, R.shape([1, 1, 3072]))
            lv146: R.Tensor((1, 1, 3072), dtype="float16") = R.power(lv145, R.const(3.0, "float16"))
            lv147: R.Tensor((1, 1, 3072), dtype="float16") = R.multiply(lv146, R.const(0.044708251953125, "float16"))
            lv148: R.Tensor((1, 1, 3072), dtype="float16") = R.add(lv145, lv147)
            lv149: R.Tensor((1, 1, 3072), dtype="float16") = R.multiply(lv148, R.const(0.7978515625, "float16"))
            lv150: R.Tensor((1, 1, 3072), dtype="float16") = R.tanh(lv149)
            lv151: R.Tensor((1, 1, 3072), dtype="float16") = R.multiply(lv145, R.const(0.5, "float16"))
            lv152: R.Tensor((1, 1, 3072), dtype="float16") = R.add(lv150, R.const(1.0, "float16"))
            lv153: R.Tensor((1, 1, 3072), dtype="float16") = R.multiply(lv151, lv152)
            lv154: R.Tensor((1, 3072), dtype="float16") = R.reshape(lv153, R.shape([1, 3072]))
            lv155: R.Tensor((1, 768), dtype="float16") = R.matmul(lv154, metadata["relax.expr.Constant"][30], out_dtype="void")
            lv156: R.Tensor((1, 768), dtype="float16") = R.add(lv155, metadata["relax.expr.Constant"][31])
            lv157: R.Tensor((1, 1, 768), dtype="float16") = R.reshape(lv156, R.shape([1, 1, 768]))
            lv158: R.Tensor((1, 1, 768), dtype="float16") = R.add(lv132, lv157)
            lv159: R.Tensor((1, 1, 1), dtype="float16") = R.mean(lv158, axis=[-1], keepdims=True)
            lv160: R.Tensor((1, 1, 768), dtype="float16") = R.subtract(lv158, lv159)
            lv161: R.Tensor((1, 1, 768), dtype="float16") = R.power(lv160, R.const(2.0, "float16"))
            lv162: R.Tensor((1, 1, 1), dtype="float16") = R.mean(lv161, axis=[-1], keepdims=True)
            lv163: R.Tensor((1, 1, 1), dtype="float16") = R.add(lv162, R.const(1.0013580322265625e-05, "float16"))
            lv164: R.Tensor((1, 1, 1), dtype="float16") = R.sqrt(lv163)
            lv165: R.Tensor((1, 1, 768), dtype="float16") = R.divide(lv160, lv164)
            lv166: R.Tensor((1, 1, 768), dtype="float16") = R.multiply(lv165, metadata["relax.expr.Constant"][32])
            lv167: R.Tensor((1, 1, 768), dtype="float16") = R.add(lv166, metadata["relax.expr.Constant"][33])
            lv168: R.Tensor((1, 768), dtype="float16") = R.reshape(lv167, R.shape([1, 768]))
            lv169: R.Tensor((1, 2304), dtype="float16") = R.matmul(lv168, metadata["relax.expr.Constant"][34], out_dtype="void")
            lv170: R.Tensor((1, 2304), dtype="float16") = R.add(lv169, metadata["relax.expr.Constant"][35])
            lv171: R.Tensor((1, 1, 2304), dtype="float16") = R.reshape(lv170, R.shape([1, 1, 2304]))
            lv172: R.Tuple(R.Tensor((1, 1, 768), dtype="float16"), R.Tensor((1, 1, 768), dtype="float16"), R.Tensor((1, 1, 768), dtype="float16")) = R.split(lv171, indices_or_sections=[768, 1536], axis=2)
            lv173: R.Tensor((1, 1, 768), dtype="float16") = lv172[0]
            lv174: R.Tensor((1, 1, 768), dtype="float16") = lv172[1]
            lv175: R.Tensor((1, 1, 768), dtype="float16") = lv172[2]
            lv176: R.Tensor((1, 1, 12, 64), dtype="float16") = R.reshape(lv173, R.shape([1, 1, 12, 64]))
            lv177: R.Tensor((1, 1, 12, 64), dtype="float16") = R.reshape(lv174, R.shape([1, 1, 12, 64]))
            lv178: R.Tensor((1, 1, 12, 64), dtype="float16") = R.reshape(lv175, R.shape([1, 1, 12, 64]))
            lv179: R.Tensor((1, 12, 1, 64), dtype="float16") = R.permute_dims(lv176, axes=[0, 2, 1, 3])
            lv180: R.Tensor((1, 12, past_sequence_length, 64), dtype="float16") = R.astype(past_key_values_2_key, dtype="float16")
            lv181: R.Tensor((1, 12, 1, 64), dtype="float16") = R.permute_dims(lv177, axes=[0, 2, 1, 3])
            lv182: R.Tensor((1, 12, past_sequence_length, 64), dtype="float16") = R.astype(past_key_values_2_value, dtype="float16")
            lv183: R.Tensor((1, 12, 1, 64), dtype="float16") = R.permute_dims(lv178, axes=[0, 2, 1, 3])
            lv184: R.Tensor((1, 12, past_sequence_length + 1, 64), dtype="float16") = R.concat((lv180, lv181), axis=-2)
            lv185: R.Tensor((1, 12, past_sequence_length + 1, 64), dtype="float16") = R.concat((lv182, lv183), axis=-2)
            lv186: R.Tensor((1, 12, 64, past_sequence_length + 1), dtype="float16") = R.permute_dims(lv184, axes=[0, 1, 3, 2])
            lv187: R.Tensor((1, 12, 1, 64), dtype="float16") = R.multiply(lv179, metadata["relax.expr.Constant"][36])
            lv188: R.Tensor((1, 12, 64, past_sequence_length + 1), dtype="float16") = R.multiply(lv186, metadata["relax.expr.Constant"][37])
            lv189: R.Tensor((1, 12, 1, past_sequence_length + 1), dtype="float16") = R.matmul(lv187, lv188, out_dtype="void")
            lv190: R.Tensor((1, 12, 1, past_sequence_length + 1), dtype="float16") = R.add(lv189, lv55)
            lv191: R.Tensor((1, 12, 1, past_sequence_length + 1), dtype="float16") = R.nn.softmax(lv190, axis=-1)
            lv192: R.Tensor((1, 12, 1, 64), dtype="float16") = R.matmul(lv191, lv185, out_dtype="void")
            lv193: R.Tensor((1, 1, 12, 64), dtype="float16") = R.permute_dims(lv192, axes=[0, 2, 1, 3])
            lv194: R.Tensor((1, 1, 768), dtype="float16") = R.reshape(lv193, R.shape([1, 1, 768]))
            lv195: R.Tensor((1, 768), dtype="float16") = R.reshape(lv194, R.shape([1, 768]))
            lv196: R.Tensor((1, 768), dtype="float16") = R.matmul(lv195, metadata["relax.expr.Constant"][38], out_dtype="void")
            lv197: R.Tensor((1, 768), dtype="float16") = R.add(lv196, metadata["relax.expr.Constant"][39])
            lv198: R.Tensor((1, 1, 768), dtype="float16") = R.reshape(lv197, R.shape([1, 1, 768]))
            lv199: R.Tensor((1, 1, 768), dtype="float16") = R.add(lv198, lv158)
            lv200: R.Tensor((1, 1, 1), dtype="float16") = R.mean(lv199, axis=[-1], keepdims=True)
            lv201: R.Tensor((1, 1, 768), dtype="float16") = R.subtract(lv199, lv200)
            lv202: R.Tensor((1, 1, 768), dtype="float16") = R.power(lv201, R.const(2.0, "float16"))
            lv203: R.Tensor((1, 1, 1), dtype="float16") = R.mean(lv202, axis=[-1], keepdims=True)
            lv204: R.Tensor((1, 1, 1), dtype="float16") = R.add(lv203, R.const(1.0013580322265625e-05, "float16"))
            lv205: R.Tensor((1, 1, 1), dtype="float16") = R.sqrt(lv204)
            lv206: R.Tensor((1, 1, 768), dtype="float16") = R.divide(lv201, lv205)
            lv207: R.Tensor((1, 1, 768), dtype="float16") = R.multiply(lv206, metadata["relax.expr.Constant"][40])
            lv208: R.Tensor((1, 1, 768), dtype="float16") = R.add(lv207, metadata["relax.expr.Constant"][41])
            lv209: R.Tensor((1, 768), dtype="float16") = R.reshape(lv208, R.shape([1, 768]))
            lv210: R.Tensor((1, 3072), dtype="float16") = R.matmul(lv209, metadata["relax.expr.Constant"][42], out_dtype="void")
            lv211: R.Tensor((1, 3072), dtype="float16") = R.add(lv210, metadata["relax.expr.Constant"][43])
            lv212: R.Tensor((1, 1, 3072), dtype="float16") = R.reshape(lv211, R.shape([1, 1, 3072]))
            lv213: R.Tensor((1, 1, 3072), dtype="float16") = R.power(lv212, R.const(3.0, "float16"))
            lv214: R.Tensor((1, 1, 3072), dtype="float16") = R.multiply(lv213, R.const(0.044708251953125, "float16"))
            lv215: R.Tensor((1, 1, 3072), dtype="float16") = R.add(lv212, lv214)
            lv216: R.Tensor((1, 1, 3072), dtype="float16") = R.multiply(lv215, R.const(0.7978515625, "float16"))
            lv217: R.Tensor((1, 1, 3072), dtype="float16") = R.tanh(lv216)
            lv218: R.Tensor((1, 1, 3072), dtype="float16") = R.multiply(lv212, R.const(0.5, "float16"))
            lv219: R.Tensor((1, 1, 3072), dtype="float16") = R.add(lv217, R.const(1.0, "float16"))
            lv220: R.Tensor((1, 1, 3072), dtype="float16") = R.multiply(lv218, lv219)
            lv221: R.Tensor((1, 3072), dtype="float16") = R.reshape(lv220, R.shape([1, 3072]))
            lv222: R.Tensor((1, 768), dtype="float16") = R.matmul(lv221, metadata["relax.expr.Constant"][44], out_dtype="void")
            lv223: R.Tensor((1, 768), dtype="float16") = R.add(lv222, metadata["relax.expr.Constant"][45])
            lv224: R.Tensor((1, 1, 768), dtype="float16") = R.reshape(lv223, R.shape([1, 1, 768]))
            lv225: R.Tensor((1, 1, 768), dtype="float16") = R.add(lv199, lv224)
            lv226: R.Tensor((1, 1, 1), dtype="float16") = R.mean(lv225, axis=[-1], keepdims=True)
            lv227: R.Tensor((1, 1, 768), dtype="float16") = R.subtract(lv225, lv226)
            lv228: R.Tensor((1, 1, 768), dtype="float16") = R.power(lv227, R.const(2.0, "float16"))
            lv229: R.Tensor((1, 1, 1), dtype="float16") = R.mean(lv228, axis=[-1], keepdims=True)
            lv230: R.Tensor((1, 1, 1), dtype="float16") = R.add(lv229, R.const(1.0013580322265625e-05, "float16"))
            lv231: R.Tensor((1, 1, 1), dtype="float16") = R.sqrt(lv230)
            lv232: R.Tensor((1, 1, 768), dtype="float16") = R.divide(lv227, lv231)
            lv233: R.Tensor((1, 1, 768), dtype="float16") = R.multiply(lv232, metadata["relax.expr.Constant"][46])
            lv234: R.Tensor((1, 1, 768), dtype="float16") = R.add(lv233, metadata["relax.expr.Constant"][47])
            lv235: R.Tensor((1, 768), dtype="float16") = R.reshape(lv234, R.shape([1, 768]))
            lv236: R.Tensor((1, 2304), dtype="float16") = R.matmul(lv235, metadata["relax.expr.Constant"][48], out_dtype="void")
            lv237: R.Tensor((1, 2304), dtype="float16") = R.add(lv236, metadata["relax.expr.Constant"][49])
            lv238: R.Tensor((1, 1, 2304), dtype="float16") = R.reshape(lv237, R.shape([1, 1, 2304]))
            lv239: R.Tuple(R.Tensor((1, 1, 768), dtype="float16"), R.Tensor((1, 1, 768), dtype="float16"), R.Tensor((1, 1, 768), dtype="float16")) = R.split(lv238, indices_or_sections=[768, 1536], axis=2)
            lv240: R.Tensor((1, 1, 768), dtype="float16") = lv239[0]
            lv241: R.Tensor((1, 1, 768), dtype="float16") = lv239[1]
            lv242: R.Tensor((1, 1, 768), dtype="float16") = lv239[2]
            lv243: R.Tensor((1, 1, 12, 64), dtype="float16") = R.reshape(lv240, R.shape([1, 1, 12, 64]))
            lv244: R.Tensor((1, 1, 12, 64), dtype="float16") = R.reshape(lv241, R.shape([1, 1, 12, 64]))
            lv245: R.Tensor((1, 1, 12, 64), dtype="float16") = R.reshape(lv242, R.shape([1, 1, 12, 64]))
            lv246: R.Tensor((1, 12, 1, 64), dtype="float16") = R.permute_dims(lv243, axes=[0, 2, 1, 3])
            lv247: R.Tensor((1, 12, past_sequence_length, 64), dtype="float16") = R.astype(past_key_values_3_key, dtype="float16")
            lv248: R.Tensor((1, 12, 1, 64), dtype="float16") = R.permute_dims(lv244, axes=[0, 2, 1, 3])
            lv249: R.Tensor((1, 12, past_sequence_length, 64), dtype="float16") = R.astype(past_key_values_3_value, dtype="float16")
            lv250: R.Tensor((1, 12, 1, 64), dtype="float16") = R.permute_dims(lv245, axes=[0, 2, 1, 3])
            lv251: R.Tensor((1, 12, past_sequence_length + 1, 64), dtype="float16") = R.concat((lv247, lv248), axis=-2)
            lv252: R.Tensor((1, 12, past_sequence_length + 1, 64), dtype="float16") = R.concat((lv249, lv250), axis=-2)
            lv253: R.Tensor((1, 12, 64, past_sequence_length + 1), dtype="float16") = R.permute_dims(lv251, axes=[0, 1, 3, 2])
            lv254: R.Tensor((1, 12, 1, 64), dtype="float16") = R.multiply(lv246, metadata["relax.expr.Constant"][50])
            lv255: R.Tensor((1, 12, 64, past_sequence_length + 1), dtype="float16") = R.multiply(lv253, metadata["relax.expr.Constant"][51])
            lv256: R.Tensor((1, 12, 1, past_sequence_length + 1), dtype="float16") = R.matmul(lv254, lv255, out_dtype="void")
            lv257: R.Tensor((1, 12, 1, past_sequence_length + 1), dtype="float16") = R.add(lv256, lv55)
            lv258: R.Tensor((1, 12, 1, past_sequence_length + 1), dtype="float16") = R.nn.softmax(lv257, axis=-1)
            lv259: R.Tensor((1, 12, 1, 64), dtype="float16") = R.matmul(lv258, lv252, out_dtype="void")
            lv260: R.Tensor((1, 1, 12, 64), dtype="float16") = R.permute_dims(lv259, axes=[0, 2, 1, 3])
            lv261: R.Tensor((1, 1, 768), dtype="float16") = R.reshape(lv260, R.shape([1, 1, 768]))
            lv262: R.Tensor((1, 768), dtype="float16") = R.reshape(lv261, R.shape([1, 768]))
            lv263: R.Tensor((1, 768), dtype="float16") = R.matmul(lv262, metadata["relax.expr.Constant"][52], out_dtype="void")
            lv264: R.Tensor((1, 768), dtype="float16") = R.add(lv263, metadata["relax.expr.Constant"][53])
            lv265: R.Tensor((1, 1, 768), dtype="float16") = R.reshape(lv264, R.shape([1, 1, 768]))
            lv266: R.Tensor((1, 1, 768), dtype="float16") = R.add(lv265, lv225)
            lv267: R.Tensor((1, 1, 1), dtype="float16") = R.mean(lv266, axis=[-1], keepdims=True)
            lv268: R.Tensor((1, 1, 768), dtype="float16") = R.subtract(lv266, lv267)
            lv269: R.Tensor((1, 1, 768), dtype="float16") = R.power(lv268, R.const(2.0, "float16"))
            lv270: R.Tensor((1, 1, 1), dtype="float16") = R.mean(lv269, axis=[-1], keepdims=True)
            lv271: R.Tensor((1, 1, 1), dtype="float16") = R.add(lv270, R.const(1.0013580322265625e-05, "float16"))
            lv272: R.Tensor((1, 1, 1), dtype="float16") = R.sqrt(lv271)
            lv273: R.Tensor((1, 1, 768), dtype="float16") = R.divide(lv268, lv272)
            lv274: R.Tensor((1, 1, 768), dtype="float16") = R.multiply(lv273, metadata["relax.expr.Constant"][54])
            lv275: R.Tensor((1, 1, 768), dtype="float16") = R.add(lv274, metadata["relax.expr.Constant"][55])
            lv276: R.Tensor((1, 768), dtype="float16") = R.reshape(lv275, R.shape([1, 768]))
            lv277: R.Tensor((1, 3072), dtype="float16") = R.matmul(lv276, metadata["relax.expr.Constant"][56], out_dtype="void")
            lv278: R.Tensor((1, 3072), dtype="float16") = R.add(lv277, metadata["relax.expr.Constant"][57])
            lv279: R.Tensor((1, 1, 3072), dtype="float16") = R.reshape(lv278, R.shape([1, 1, 3072]))
            lv280: R.Tensor((1, 1, 3072), dtype="float16") = R.power(lv279, R.const(3.0, "float16"))
            lv281: R.Tensor((1, 1, 3072), dtype="float16") = R.multiply(lv280, R.const(0.044708251953125, "float16"))
            lv282: R.Tensor((1, 1, 3072), dtype="float16") = R.add(lv279, lv281)
            lv283: R.Tensor((1, 1, 3072), dtype="float16") = R.multiply(lv282, R.const(0.7978515625, "float16"))
            lv284: R.Tensor((1, 1, 3072), dtype="float16") = R.tanh(lv283)
            lv285: R.Tensor((1, 1, 3072), dtype="float16") = R.multiply(lv279, R.const(0.5, "float16"))
            lv286: R.Tensor((1, 1, 3072), dtype="float16") = R.add(lv284, R.const(1.0, "float16"))
            lv287: R.Tensor((1, 1, 3072), dtype="float16") = R.multiply(lv285, lv286)
            lv288: R.Tensor((1, 3072), dtype="float16") = R.reshape(lv287, R.shape([1, 3072]))
            lv289: R.Tensor((1, 768), dtype="float16") = R.matmul(lv288, metadata["relax.expr.Constant"][58], out_dtype="void")
            lv290: R.Tensor((1, 768), dtype="float16") = R.add(lv289, metadata["relax.expr.Constant"][59])
            lv291: R.Tensor((1, 1, 768), dtype="float16") = R.reshape(lv290, R.shape([1, 1, 768]))
            lv292: R.Tensor((1, 1, 768), dtype="float16") = R.add(lv266, lv291)
            lv293: R.Tensor((1, 1, 1), dtype="float16") = R.mean(lv292, axis=[-1], keepdims=True)
            lv294: R.Tensor((1, 1, 768), dtype="float16") = R.subtract(lv292, lv293)
            lv295: R.Tensor((1, 1, 768), dtype="float16") = R.power(lv294, R.const(2.0, "float16"))
            lv296: R.Tensor((1, 1, 1), dtype="float16") = R.mean(lv295, axis=[-1], keepdims=True)
            lv297: R.Tensor((1, 1, 1), dtype="float16") = R.add(lv296, R.const(1.0013580322265625e-05, "float16"))
            lv298: R.Tensor((1, 1, 1), dtype="float16") = R.sqrt(lv297)
            lv299: R.Tensor((1, 1, 768), dtype="float16") = R.divide(lv294, lv298)
            lv300: R.Tensor((1, 1, 768), dtype="float16") = R.multiply(lv299, metadata["relax.expr.Constant"][60])
            lv301: R.Tensor((1, 1, 768), dtype="float16") = R.add(lv300, metadata["relax.expr.Constant"][61])
            lv302: R.Tensor((1, 768), dtype="float16") = R.reshape(lv301, R.shape([1, 768]))
            lv303: R.Tensor((1, 2304), dtype="float16") = R.matmul(lv302, metadata["relax.expr.Constant"][62], out_dtype="void")
            lv304: R.Tensor((1, 2304), dtype="float16") = R.add(lv303, metadata["relax.expr.Constant"][63])
            lv305: R.Tensor((1, 1, 2304), dtype="float16") = R.reshape(lv304, R.shape([1, 1, 2304]))
            lv306: R.Tuple(R.Tensor((1, 1, 768), dtype="float16"), R.Tensor((1, 1, 768), dtype="float16"), R.Tensor((1, 1, 768), dtype="float16")) = R.split(lv305, indices_or_sections=[768, 1536], axis=2)
            lv307: R.Tensor((1, 1, 768), dtype="float16") = lv306[0]
            lv308: R.Tensor((1, 1, 768), dtype="float16") = lv306[1]
            lv309: R.Tensor((1, 1, 768), dtype="float16") = lv306[2]
            lv310: R.Tensor((1, 1, 12, 64), dtype="float16") = R.reshape(lv307, R.shape([1, 1, 12, 64]))
            lv311: R.Tensor((1, 1, 12, 64), dtype="float16") = R.reshape(lv308, R.shape([1, 1, 12, 64]))
            lv312: R.Tensor((1, 1, 12, 64), dtype="float16") = R.reshape(lv309, R.shape([1, 1, 12, 64]))
            lv313: R.Tensor((1, 12, 1, 64), dtype="float16") = R.permute_dims(lv310, axes=[0, 2, 1, 3])
            lv314: R.Tensor((1, 12, past_sequence_length, 64), dtype="float16") = R.astype(past_key_values_4_key, dtype="float16")
            lv315: R.Tensor((1, 12, 1, 64), dtype="float16") = R.permute_dims(lv311, axes=[0, 2, 1, 3])
            lv316: R.Tensor((1, 12, past_sequence_length, 64), dtype="float16") = R.astype(past_key_values_4_value, dtype="float16")
            lv317: R.Tensor((1, 12, 1, 64), dtype="float16") = R.permute_dims(lv312, axes=[0, 2, 1, 3])
            lv318: R.Tensor((1, 12, past_sequence_length + 1, 64), dtype="float16") = R.concat((lv314, lv315), axis=-2)
            lv319: R.Tensor((1, 12, past_sequence_length + 1, 64), dtype="float16") = R.concat((lv316, lv317), axis=-2)
            lv320: R.Tensor((1, 12, 64, past_sequence_length + 1), dtype="float16") = R.permute_dims(lv318, axes=[0, 1, 3, 2])
            lv321: R.Tensor((1, 12, 1, 64), dtype="float16") = R.multiply(lv313, metadata["relax.expr.Constant"][64])
            lv322: R.Tensor((1, 12, 64, past_sequence_length + 1), dtype="float16") = R.multiply(lv320, metadata["relax.expr.Constant"][65])
            lv323: R.Tensor((1, 12, 1, past_sequence_length + 1), dtype="float16") = R.matmul(lv321, lv322, out_dtype="void")
            lv324: R.Tensor((1, 12, 1, past_sequence_length + 1), dtype="float16") = R.add(lv323, lv55)
            lv325: R.Tensor((1, 12, 1, past_sequence_length + 1), dtype="float16") = R.nn.softmax(lv324, axis=-1)
            lv326: R.Tensor((1, 12, 1, 64), dtype="float16") = R.matmul(lv325, lv319, out_dtype="void")
            lv327: R.Tensor((1, 1, 12, 64), dtype="float16") = R.permute_dims(lv326, axes=[0, 2, 1, 3])
            lv328: R.Tensor((1, 1, 768), dtype="float16") = R.reshape(lv327, R.shape([1, 1, 768]))
            lv329: R.Tensor((1, 768), dtype="float16") = R.reshape(lv328, R.shape([1, 768]))
            lv330: R.Tensor((1, 768), dtype="float16") = R.matmul(lv329, metadata["relax.expr.Constant"][66], out_dtype="void")
            lv331: R.Tensor((1, 768), dtype="float16") = R.add(lv330, metadata["relax.expr.Constant"][67])
            lv332: R.Tensor((1, 1, 768), dtype="float16") = R.reshape(lv331, R.shape([1, 1, 768]))
            lv333: R.Tensor((1, 1, 768), dtype="float16") = R.add(lv332, lv292)
            lv334: R.Tensor((1, 1, 1), dtype="float16") = R.mean(lv333, axis=[-1], keepdims=True)
            lv335: R.Tensor((1, 1, 768), dtype="float16") = R.subtract(lv333, lv334)
            lv336: R.Tensor((1, 1, 768), dtype="float16") = R.power(lv335, R.const(2.0, "float16"))
            lv337: R.Tensor((1, 1, 1), dtype="float16") = R.mean(lv336, axis=[-1], keepdims=True)
            lv338: R.Tensor((1, 1, 1), dtype="float16") = R.add(lv337, R.const(1.0013580322265625e-05, "float16"))
            lv339: R.Tensor((1, 1, 1), dtype="float16") = R.sqrt(lv338)
            lv340: R.Tensor((1, 1, 768), dtype="float16") = R.divide(lv335, lv339)
            lv341: R.Tensor((1, 1, 768), dtype="float16") = R.multiply(lv340, metadata["relax.expr.Constant"][68])
            lv342: R.Tensor((1, 1, 768), dtype="float16") = R.add(lv341, metadata["relax.expr.Constant"][69])
            lv343: R.Tensor((1, 768), dtype="float16") = R.reshape(lv342, R.shape([1, 768]))
            lv344: R.Tensor((1, 3072), dtype="float16") = R.matmul(lv343, metadata["relax.expr.Constant"][70], out_dtype="void")
            lv345: R.Tensor((1, 3072), dtype="float16") = R.add(lv344, metadata["relax.expr.Constant"][71])
            lv346: R.Tensor((1, 1, 3072), dtype="float16") = R.reshape(lv345, R.shape([1, 1, 3072]))
            lv347: R.Tensor((1, 1, 3072), dtype="float16") = R.power(lv346, R.const(3.0, "float16"))
            lv348: R.Tensor((1, 1, 3072), dtype="float16") = R.multiply(lv347, R.const(0.044708251953125, "float16"))
            lv349: R.Tensor((1, 1, 3072), dtype="float16") = R.add(lv346, lv348)
            lv350: R.Tensor((1, 1, 3072), dtype="float16") = R.multiply(lv349, R.const(0.7978515625, "float16"))
            lv351: R.Tensor((1, 1, 3072), dtype="float16") = R.tanh(lv350)
            lv352: R.Tensor((1, 1, 3072), dtype="float16") = R.multiply(lv346, R.const(0.5, "float16"))
            lv353: R.Tensor((1, 1, 3072), dtype="float16") = R.add(lv351, R.const(1.0, "float16"))
            lv354: R.Tensor((1, 1, 3072), dtype="float16") = R.multiply(lv352, lv353)
            lv355: R.Tensor((1, 3072), dtype="float16") = R.reshape(lv354, R.shape([1, 3072]))
            lv356: R.Tensor((1, 768), dtype="float16") = R.matmul(lv355, metadata["relax.expr.Constant"][72], out_dtype="void")
            lv357: R.Tensor((1, 768), dtype="float16") = R.add(lv356, metadata["relax.expr.Constant"][73])
            lv358: R.Tensor((1, 1, 768), dtype="float16") = R.reshape(lv357, R.shape([1, 1, 768]))
            lv359: R.Tensor((1, 1, 768), dtype="float16") = R.add(lv333, lv358)
            lv360: R.Tensor((1, 1, 1), dtype="float16") = R.mean(lv359, axis=[-1], keepdims=True)
            lv361: R.Tensor((1, 1, 768), dtype="float16") = R.subtract(lv359, lv360)
            lv362: R.Tensor((1, 1, 768), dtype="float16") = R.power(lv361, R.const(2.0, "float16"))
            lv363: R.Tensor((1, 1, 1), dtype="float16") = R.mean(lv362, axis=[-1], keepdims=True)
            lv364: R.Tensor((1, 1, 1), dtype="float16") = R.add(lv363, R.const(1.0013580322265625e-05, "float16"))
            lv365: R.Tensor((1, 1, 1), dtype="float16") = R.sqrt(lv364)
            lv366: R.Tensor((1, 1, 768), dtype="float16") = R.divide(lv361, lv365)
            lv367: R.Tensor((1, 1, 768), dtype="float16") = R.multiply(lv366, metadata["relax.expr.Constant"][74])
            lv368: R.Tensor((1, 1, 768), dtype="float16") = R.add(lv367, metadata["relax.expr.Constant"][75])
            lv369: R.Tensor((1, 768), dtype="float16") = R.reshape(lv368, R.shape([1, 768]))
            lv370: R.Tensor((1, 2304), dtype="float16") = R.matmul(lv369, metadata["relax.expr.Constant"][76], out_dtype="void")
            lv371: R.Tensor((1, 2304), dtype="float16") = R.add(lv370, metadata["relax.expr.Constant"][77])
            lv372: R.Tensor((1, 1, 2304), dtype="float16") = R.reshape(lv371, R.shape([1, 1, 2304]))
            lv373: R.Tuple(R.Tensor((1, 1, 768), dtype="float16"), R.Tensor((1, 1, 768), dtype="float16"), R.Tensor((1, 1, 768), dtype="float16")) = R.split(lv372, indices_or_sections=[768, 1536], axis=2)
            lv374: R.Tensor((1, 1, 768), dtype="float16") = lv373[0]
            lv375: R.Tensor((1, 1, 768), dtype="float16") = lv373[1]
            lv376: R.Tensor((1, 1, 768), dtype="float16") = lv373[2]
            lv377: R.Tensor((1, 1, 12, 64), dtype="float16") = R.reshape(lv374, R.shape([1, 1, 12, 64]))
            lv378: R.Tensor((1, 1, 12, 64), dtype="float16") = R.reshape(lv375, R.shape([1, 1, 12, 64]))
            lv379: R.Tensor((1, 1, 12, 64), dtype="float16") = R.reshape(lv376, R.shape([1, 1, 12, 64]))
            lv380: R.Tensor((1, 12, 1, 64), dtype="float16") = R.permute_dims(lv377, axes=[0, 2, 1, 3])
            lv381: R.Tensor((1, 12, past_sequence_length, 64), dtype="float16") = R.astype(past_key_values_5_key, dtype="float16")
            lv382: R.Tensor((1, 12, 1, 64), dtype="float16") = R.permute_dims(lv378, axes=[0, 2, 1, 3])
            lv383: R.Tensor((1, 12, past_sequence_length, 64), dtype="float16") = R.astype(past_key_values_5_value, dtype="float16")
            lv384: R.Tensor((1, 12, 1, 64), dtype="float16") = R.permute_dims(lv379, axes=[0, 2, 1, 3])
            lv385: R.Tensor((1, 12, past_sequence_length + 1, 64), dtype="float16") = R.concat((lv381, lv382), axis=-2)
            lv386: R.Tensor((1, 12, past_sequence_length + 1, 64), dtype="float16") = R.concat((lv383, lv384), axis=-2)
            lv387: R.Tensor((1, 12, 64, past_sequence_length + 1), dtype="float16") = R.permute_dims(lv385, axes=[0, 1, 3, 2])
            lv388: R.Tensor((1, 12, 1, 64), dtype="float16") = R.multiply(lv380, metadata["relax.expr.Constant"][78])
            lv389: R.Tensor((1, 12, 64, past_sequence_length + 1), dtype="float16") = R.multiply(lv387, metadata["relax.expr.Constant"][79])
            lv390: R.Tensor((1, 12, 1, past_sequence_length + 1), dtype="float16") = R.matmul(lv388, lv389, out_dtype="void")
            lv391: R.Tensor((1, 12, 1, past_sequence_length + 1), dtype="float16") = R.add(lv390, lv55)
            lv392: R.Tensor((1, 12, 1, past_sequence_length + 1), dtype="float16") = R.nn.softmax(lv391, axis=-1)
            lv393: R.Tensor((1, 12, 1, 64), dtype="float16") = R.matmul(lv392, lv386, out_dtype="void")
            lv394: R.Tensor((1, 1, 12, 64), dtype="float16") = R.permute_dims(lv393, axes=[0, 2, 1, 3])
            lv395: R.Tensor((1, 1, 768), dtype="float16") = R.reshape(lv394, R.shape([1, 1, 768]))
            lv396: R.Tensor((1, 768), dtype="float16") = R.reshape(lv395, R.shape([1, 768]))
            lv397: R.Tensor((1, 768), dtype="float16") = R.matmul(lv396, metadata["relax.expr.Constant"][80], out_dtype="void")
            lv398: R.Tensor((1, 768), dtype="float16") = R.add(lv397, metadata["relax.expr.Constant"][81])
            lv399: R.Tensor((1, 1, 768), dtype="float16") = R.reshape(lv398, R.shape([1, 1, 768]))
            lv400: R.Tensor((1, 1, 768), dtype="float16") = R.add(lv399, lv359)
            lv401: R.Tensor((1, 1, 1), dtype="float16") = R.mean(lv400, axis=[-1], keepdims=True)
            lv402: R.Tensor((1, 1, 768), dtype="float16") = R.subtract(lv400, lv401)
            lv403: R.Tensor((1, 1, 768), dtype="float16") = R.power(lv402, R.const(2.0, "float16"))
            lv404: R.Tensor((1, 1, 1), dtype="float16") = R.mean(lv403, axis=[-1], keepdims=True)
            lv405: R.Tensor((1, 1, 1), dtype="float16") = R.add(lv404, R.const(1.0013580322265625e-05, "float16"))
            lv406: R.Tensor((1, 1, 1), dtype="float16") = R.sqrt(lv405)
            lv407: R.Tensor((1, 1, 768), dtype="float16") = R.divide(lv402, lv406)
            lv408: R.Tensor((1, 1, 768), dtype="float16") = R.multiply(lv407, metadata["relax.expr.Constant"][82])
            lv409: R.Tensor((1, 1, 768), dtype="float16") = R.add(lv408, metadata["relax.expr.Constant"][83])
            lv410: R.Tensor((1, 768), dtype="float16") = R.reshape(lv409, R.shape([1, 768]))
            lv411: R.Tensor((1, 3072), dtype="float16") = R.matmul(lv410, metadata["relax.expr.Constant"][84], out_dtype="void")
            lv412: R.Tensor((1, 3072), dtype="float16") = R.add(lv411, metadata["relax.expr.Constant"][85])
            lv413: R.Tensor((1, 1, 3072), dtype="float16") = R.reshape(lv412, R.shape([1, 1, 3072]))
            lv414: R.Tensor((1, 1, 3072), dtype="float16") = R.power(lv413, R.const(3.0, "float16"))
            lv415: R.Tensor((1, 1, 3072), dtype="float16") = R.multiply(lv414, R.const(0.044708251953125, "float16"))
            lv416: R.Tensor((1, 1, 3072), dtype="float16") = R.add(lv413, lv415)
            lv417: R.Tensor((1, 1, 3072), dtype="float16") = R.multiply(lv416, R.const(0.7978515625, "float16"))
            lv418: R.Tensor((1, 1, 3072), dtype="float16") = R.tanh(lv417)
            lv419: R.Tensor((1, 1, 3072), dtype="float16") = R.multiply(lv413, R.const(0.5, "float16"))
            lv420: R.Tensor((1, 1, 3072), dtype="float16") = R.add(lv418, R.const(1.0, "float16"))
            lv421: R.Tensor((1, 1, 3072), dtype="float16") = R.multiply(lv419, lv420)
            lv422: R.Tensor((1, 3072), dtype="float16") = R.reshape(lv421, R.shape([1, 3072]))
            lv423: R.Tensor((1, 768), dtype="float16") = R.matmul(lv422, metadata["relax.expr.Constant"][86], out_dtype="void")
            lv424: R.Tensor((1, 768), dtype="float16") = R.add(lv423, metadata["relax.expr.Constant"][87])
            lv425: R.Tensor((1, 1, 768), dtype="float16") = R.reshape(lv424, R.shape([1, 1, 768]))
            lv426: R.Tensor((1, 1, 768), dtype="float16") = R.add(lv400, lv425)
            lv427: R.Tensor((1, 1, 1), dtype="float16") = R.mean(lv426, axis=[-1], keepdims=True)
            lv428: R.Tensor((1, 1, 768), dtype="float16") = R.subtract(lv426, lv427)
            lv429: R.Tensor((1, 1, 768), dtype="float16") = R.power(lv428, R.const(2.0, "float16"))
            lv430: R.Tensor((1, 1, 1), dtype="float16") = R.mean(lv429, axis=[-1], keepdims=True)
            lv431: R.Tensor((1, 1, 1), dtype="float16") = R.add(lv430, R.const(1.0013580322265625e-05, "float16"))
            lv432: R.Tensor((1, 1, 1), dtype="float16") = R.sqrt(lv431)
            lv433: R.Tensor((1, 1, 768), dtype="float16") = R.divide(lv428, lv432)
            lv434: R.Tensor((1, 1, 768), dtype="float16") = R.multiply(lv433, metadata["relax.expr.Constant"][88])
            lv435: R.Tensor((1, 1, 768), dtype="float16") = R.add(lv434, metadata["relax.expr.Constant"][89])
            lv436: R.Tensor((1, 768), dtype="float16") = R.reshape(lv435, R.shape([1, 768]))
            lv437: R.Tensor((1, 2304), dtype="float16") = R.matmul(lv436, metadata["relax.expr.Constant"][90], out_dtype="void")
            lv438: R.Tensor((1, 2304), dtype="float16") = R.add(lv437, metadata["relax.expr.Constant"][91])
            lv439: R.Tensor((1, 1, 2304), dtype="float16") = R.reshape(lv438, R.shape([1, 1, 2304]))
            lv440: R.Tuple(R.Tensor((1, 1, 768), dtype="float16"), R.Tensor((1, 1, 768), dtype="float16"), R.Tensor((1, 1, 768), dtype="float16")) = R.split(lv439, indices_or_sections=[768, 1536], axis=2)
            lv441: R.Tensor((1, 1, 768), dtype="float16") = lv440[0]
            lv442: R.Tensor((1, 1, 768), dtype="float16") = lv440[1]
            lv443: R.Tensor((1, 1, 768), dtype="float16") = lv440[2]
            lv444: R.Tensor((1, 1, 12, 64), dtype="float16") = R.reshape(lv441, R.shape([1, 1, 12, 64]))
            lv445: R.Tensor((1, 1, 12, 64), dtype="float16") = R.reshape(lv442, R.shape([1, 1, 12, 64]))
            lv446: R.Tensor((1, 1, 12, 64), dtype="float16") = R.reshape(lv443, R.shape([1, 1, 12, 64]))
            lv447: R.Tensor((1, 12, 1, 64), dtype="float16") = R.permute_dims(lv444, axes=[0, 2, 1, 3])
            lv448: R.Tensor((1, 12, past_sequence_length, 64), dtype="float16") = R.astype(past_key_values_6_key, dtype="float16")
            lv449: R.Tensor((1, 12, 1, 64), dtype="float16") = R.permute_dims(lv445, axes=[0, 2, 1, 3])
            lv450: R.Tensor((1, 12, past_sequence_length, 64), dtype="float16") = R.astype(past_key_values_6_value, dtype="float16")
            lv451: R.Tensor((1, 12, 1, 64), dtype="float16") = R.permute_dims(lv446, axes=[0, 2, 1, 3])
            lv452: R.Tensor((1, 12, past_sequence_length + 1, 64), dtype="float16") = R.concat((lv448, lv449), axis=-2)
            lv453: R.Tensor((1, 12, past_sequence_length + 1, 64), dtype="float16") = R.concat((lv450, lv451), axis=-2)
            lv454: R.Tensor((1, 12, 64, past_sequence_length + 1), dtype="float16") = R.permute_dims(lv452, axes=[0, 1, 3, 2])
            lv455: R.Tensor((1, 12, 1, 64), dtype="float16") = R.multiply(lv447, metadata["relax.expr.Constant"][92])
            lv456: R.Tensor((1, 12, 64, past_sequence_length + 1), dtype="float16") = R.multiply(lv454, metadata["relax.expr.Constant"][93])
            lv457: R.Tensor((1, 12, 1, past_sequence_length + 1), dtype="float16") = R.matmul(lv455, lv456, out_dtype="void")
            lv458: R.Tensor((1, 12, 1, past_sequence_length + 1), dtype="float16") = R.add(lv457, lv55)
            lv459: R.Tensor((1, 12, 1, past_sequence_length + 1), dtype="float16") = R.nn.softmax(lv458, axis=-1)
            lv460: R.Tensor((1, 12, 1, 64), dtype="float16") = R.matmul(lv459, lv453, out_dtype="void")
            lv461: R.Tensor((1, 1, 12, 64), dtype="float16") = R.permute_dims(lv460, axes=[0, 2, 1, 3])
            lv462: R.Tensor((1, 1, 768), dtype="float16") = R.reshape(lv461, R.shape([1, 1, 768]))
            lv463: R.Tensor((1, 768), dtype="float16") = R.reshape(lv462, R.shape([1, 768]))
            lv464: R.Tensor((1, 768), dtype="float16") = R.matmul(lv463, metadata["relax.expr.Constant"][94], out_dtype="void")
            lv465: R.Tensor((1, 768), dtype="float16") = R.add(lv464, metadata["relax.expr.Constant"][95])
            lv466: R.Tensor((1, 1, 768), dtype="float16") = R.reshape(lv465, R.shape([1, 1, 768]))
            lv467: R.Tensor((1, 1, 768), dtype="float16") = R.add(lv466, lv426)
            lv468: R.Tensor((1, 1, 1), dtype="float16") = R.mean(lv467, axis=[-1], keepdims=True)
            lv469: R.Tensor((1, 1, 768), dtype="float16") = R.subtract(lv467, lv468)
            lv470: R.Tensor((1, 1, 768), dtype="float16") = R.power(lv469, R.const(2.0, "float16"))
            lv471: R.Tensor((1, 1, 1), dtype="float16") = R.mean(lv470, axis=[-1], keepdims=True)
            lv472: R.Tensor((1, 1, 1), dtype="float16") = R.add(lv471, R.const(1.0013580322265625e-05, "float16"))
            lv473: R.Tensor((1, 1, 1), dtype="float16") = R.sqrt(lv472)
            lv474: R.Tensor((1, 1, 768), dtype="float16") = R.divide(lv469, lv473)
            lv475: R.Tensor((1, 1, 768), dtype="float16") = R.multiply(lv474, metadata["relax.expr.Constant"][96])
            lv476: R.Tensor((1, 1, 768), dtype="float16") = R.add(lv475, metadata["relax.expr.Constant"][97])
            lv477: R.Tensor((1, 768), dtype="float16") = R.reshape(lv476, R.shape([1, 768]))
            lv478: R.Tensor((1, 3072), dtype="float16") = R.matmul(lv477, metadata["relax.expr.Constant"][98], out_dtype="void")
            lv479: R.Tensor((1, 3072), dtype="float16") = R.add(lv478, metadata["relax.expr.Constant"][99])
            lv480: R.Tensor((1, 1, 3072), dtype="float16") = R.reshape(lv479, R.shape([1, 1, 3072]))
            lv481: R.Tensor((1, 1, 3072), dtype="float16") = R.power(lv480, R.const(3.0, "float16"))
            lv482: R.Tensor((1, 1, 3072), dtype="float16") = R.multiply(lv481, R.const(0.044708251953125, "float16"))
            lv483: R.Tensor((1, 1, 3072), dtype="float16") = R.add(lv480, lv482)
            lv484: R.Tensor((1, 1, 3072), dtype="float16") = R.multiply(lv483, R.const(0.7978515625, "float16"))
            lv485: R.Tensor((1, 1, 3072), dtype="float16") = R.tanh(lv484)
            lv486: R.Tensor((1, 1, 3072), dtype="float16") = R.multiply(lv480, R.const(0.5, "float16"))
            lv487: R.Tensor((1, 1, 3072), dtype="float16") = R.add(lv485, R.const(1.0, "float16"))
            lv488: R.Tensor((1, 1, 3072), dtype="float16") = R.multiply(lv486, lv487)
            lv489: R.Tensor((1, 3072), dtype="float16") = R.reshape(lv488, R.shape([1, 3072]))
            lv490: R.Tensor((1, 768), dtype="float16") = R.matmul(lv489, metadata["relax.expr.Constant"][100], out_dtype="void")
            lv491: R.Tensor((1, 768), dtype="float16") = R.add(lv490, metadata["relax.expr.Constant"][101])
            lv492: R.Tensor((1, 1, 768), dtype="float16") = R.reshape(lv491, R.shape([1, 1, 768]))
            lv493: R.Tensor((1, 1, 768), dtype="float16") = R.add(lv467, lv492)
            lv494: R.Tensor((1, 1, 1), dtype="float16") = R.mean(lv493, axis=[-1], keepdims=True)
            lv495: R.Tensor((1, 1, 768), dtype="float16") = R.subtract(lv493, lv494)
            lv496: R.Tensor((1, 1, 768), dtype="float16") = R.power(lv495, R.const(2.0, "float16"))
            lv497: R.Tensor((1, 1, 1), dtype="float16") = R.mean(lv496, axis=[-1], keepdims=True)
            lv498: R.Tensor((1, 1, 1), dtype="float16") = R.add(lv497, R.const(1.0013580322265625e-05, "float16"))
            lv499: R.Tensor((1, 1, 1), dtype="float16") = R.sqrt(lv498)
            lv500: R.Tensor((1, 1, 768), dtype="float16") = R.divide(lv495, lv499)
            lv501: R.Tensor((1, 1, 768), dtype="float16") = R.multiply(lv500, metadata["relax.expr.Constant"][102])
            lv502: R.Tensor((1, 1, 768), dtype="float16") = R.add(lv501, metadata["relax.expr.Constant"][103])
            lv503: R.Tensor((1, 768), dtype="float16") = R.reshape(lv502, R.shape([1, 768]))
            lv504: R.Tensor((1, 2304), dtype="float16") = R.matmul(lv503, metadata["relax.expr.Constant"][104], out_dtype="void")
            lv505: R.Tensor((1, 2304), dtype="float16") = R.add(lv504, metadata["relax.expr.Constant"][105])
            lv506: R.Tensor((1, 1, 2304), dtype="float16") = R.reshape(lv505, R.shape([1, 1, 2304]))
            lv507: R.Tuple(R.Tensor((1, 1, 768), dtype="float16"), R.Tensor((1, 1, 768), dtype="float16"), R.Tensor((1, 1, 768), dtype="float16")) = R.split(lv506, indices_or_sections=[768, 1536], axis=2)
            lv508: R.Tensor((1, 1, 768), dtype="float16") = lv507[0]
            lv509: R.Tensor((1, 1, 768), dtype="float16") = lv507[1]
            lv510: R.Tensor((1, 1, 768), dtype="float16") = lv507[2]
            lv511: R.Tensor((1, 1, 12, 64), dtype="float16") = R.reshape(lv508, R.shape([1, 1, 12, 64]))
            lv512: R.Tensor((1, 1, 12, 64), dtype="float16") = R.reshape(lv509, R.shape([1, 1, 12, 64]))
            lv513: R.Tensor((1, 1, 12, 64), dtype="float16") = R.reshape(lv510, R.shape([1, 1, 12, 64]))
            lv514: R.Tensor((1, 12, 1, 64), dtype="float16") = R.permute_dims(lv511, axes=[0, 2, 1, 3])
            lv515: R.Tensor((1, 12, past_sequence_length, 64), dtype="float16") = R.astype(past_key_values_7_key, dtype="float16")
            lv516: R.Tensor((1, 12, 1, 64), dtype="float16") = R.permute_dims(lv512, axes=[0, 2, 1, 3])
            lv517: R.Tensor((1, 12, past_sequence_length, 64), dtype="float16") = R.astype(past_key_values_7_value, dtype="float16")
            lv518: R.Tensor((1, 12, 1, 64), dtype="float16") = R.permute_dims(lv513, axes=[0, 2, 1, 3])
            lv519: R.Tensor((1, 12, past_sequence_length + 1, 64), dtype="float16") = R.concat((lv515, lv516), axis=-2)
            lv520: R.Tensor((1, 12, past_sequence_length + 1, 64), dtype="float16") = R.concat((lv517, lv518), axis=-2)
            lv521: R.Tensor((1, 12, 64, past_sequence_length + 1), dtype="float16") = R.permute_dims(lv519, axes=[0, 1, 3, 2])
            lv522: R.Tensor((1, 12, 1, 64), dtype="float16") = R.multiply(lv514, metadata["relax.expr.Constant"][106])
            lv523: R.Tensor((1, 12, 64, past_sequence_length + 1), dtype="float16") = R.multiply(lv521, metadata["relax.expr.Constant"][107])
            lv524: R.Tensor((1, 12, 1, past_sequence_length + 1), dtype="float16") = R.matmul(lv522, lv523, out_dtype="void")
            lv525: R.Tensor((1, 12, 1, past_sequence_length + 1), dtype="float16") = R.add(lv524, lv55)
            lv526: R.Tensor((1, 12, 1, past_sequence_length + 1), dtype="float16") = R.nn.softmax(lv525, axis=-1)
            lv527: R.Tensor((1, 12, 1, 64), dtype="float16") = R.matmul(lv526, lv520, out_dtype="void")
            lv528: R.Tensor((1, 1, 12, 64), dtype="float16") = R.permute_dims(lv527, axes=[0, 2, 1, 3])
            lv529: R.Tensor((1, 1, 768), dtype="float16") = R.reshape(lv528, R.shape([1, 1, 768]))
            lv530: R.Tensor((1, 768), dtype="float16") = R.reshape(lv529, R.shape([1, 768]))
            lv531: R.Tensor((1, 768), dtype="float16") = R.matmul(lv530, metadata["relax.expr.Constant"][108], out_dtype="void")
            lv532: R.Tensor((1, 768), dtype="float16") = R.add(lv531, metadata["relax.expr.Constant"][109])
            lv533: R.Tensor((1, 1, 768), dtype="float16") = R.reshape(lv532, R.shape([1, 1, 768]))
            lv534: R.Tensor((1, 1, 768), dtype="float16") = R.add(lv533, lv493)
            lv535: R.Tensor((1, 1, 1), dtype="float16") = R.mean(lv534, axis=[-1], keepdims=True)
            lv536: R.Tensor((1, 1, 768), dtype="float16") = R.subtract(lv534, lv535)
            lv537: R.Tensor((1, 1, 768), dtype="float16") = R.power(lv536, R.const(2.0, "float16"))
            lv538: R.Tensor((1, 1, 1), dtype="float16") = R.mean(lv537, axis=[-1], keepdims=True)
            lv539: R.Tensor((1, 1, 1), dtype="float16") = R.add(lv538, R.const(1.0013580322265625e-05, "float16"))
            lv540: R.Tensor((1, 1, 1), dtype="float16") = R.sqrt(lv539)
            lv541: R.Tensor((1, 1, 768), dtype="float16") = R.divide(lv536, lv540)
            lv542: R.Tensor((1, 1, 768), dtype="float16") = R.multiply(lv541, metadata["relax.expr.Constant"][110])
            lv543: R.Tensor((1, 1, 768), dtype="float16") = R.add(lv542, metadata["relax.expr.Constant"][111])
            lv544: R.Tensor((1, 768), dtype="float16") = R.reshape(lv543, R.shape([1, 768]))
            lv545: R.Tensor((1, 3072), dtype="float16") = R.matmul(lv544, metadata["relax.expr.Constant"][112], out_dtype="void")
            lv546: R.Tensor((1, 3072), dtype="float16") = R.add(lv545, metadata["relax.expr.Constant"][113])
            lv547: R.Tensor((1, 1, 3072), dtype="float16") = R.reshape(lv546, R.shape([1, 1, 3072]))
            lv548: R.Tensor((1, 1, 3072), dtype="float16") = R.power(lv547, R.const(3.0, "float16"))
            lv549: R.Tensor((1, 1, 3072), dtype="float16") = R.multiply(lv548, R.const(0.044708251953125, "float16"))
            lv550: R.Tensor((1, 1, 3072), dtype="float16") = R.add(lv547, lv549)
            lv551: R.Tensor((1, 1, 3072), dtype="float16") = R.multiply(lv550, R.const(0.7978515625, "float16"))
            lv552: R.Tensor((1, 1, 3072), dtype="float16") = R.tanh(lv551)
            lv553: R.Tensor((1, 1, 3072), dtype="float16") = R.multiply(lv547, R.const(0.5, "float16"))
            lv554: R.Tensor((1, 1, 3072), dtype="float16") = R.add(lv552, R.const(1.0, "float16"))
            lv555: R.Tensor((1, 1, 3072), dtype="float16") = R.multiply(lv553, lv554)
            lv556: R.Tensor((1, 3072), dtype="float16") = R.reshape(lv555, R.shape([1, 3072]))
            lv557: R.Tensor((1, 768), dtype="float16") = R.matmul(lv556, metadata["relax.expr.Constant"][114], out_dtype="void")
            lv558: R.Tensor((1, 768), dtype="float16") = R.add(lv557, metadata["relax.expr.Constant"][115])
            lv559: R.Tensor((1, 1, 768), dtype="float16") = R.reshape(lv558, R.shape([1, 1, 768]))
            lv560: R.Tensor((1, 1, 768), dtype="float16") = R.add(lv534, lv559)
            lv561: R.Tensor((1, 1, 1), dtype="float16") = R.mean(lv560, axis=[-1], keepdims=True)
            lv562: R.Tensor((1, 1, 768), dtype="float16") = R.subtract(lv560, lv561)
            lv563: R.Tensor((1, 1, 768), dtype="float16") = R.power(lv562, R.const(2.0, "float16"))
            lv564: R.Tensor((1, 1, 1), dtype="float16") = R.mean(lv563, axis=[-1], keepdims=True)
            lv565: R.Tensor((1, 1, 1), dtype="float16") = R.add(lv564, R.const(1.0013580322265625e-05, "float16"))
            lv566: R.Tensor((1, 1, 1), dtype="float16") = R.sqrt(lv565)
            lv567: R.Tensor((1, 1, 768), dtype="float16") = R.divide(lv562, lv566)
            lv568: R.Tensor((1, 1, 768), dtype="float16") = R.multiply(lv567, metadata["relax.expr.Constant"][116])
            lv569: R.Tensor((1, 1, 768), dtype="float16") = R.add(lv568, metadata["relax.expr.Constant"][117])
            lv570: R.Tensor((1, 768), dtype="float16") = R.reshape(lv569, R.shape([1, 768]))
            lv571: R.Tensor((1, 2304), dtype="float16") = R.matmul(lv570, metadata["relax.expr.Constant"][118], out_dtype="void")
            lv572: R.Tensor((1, 2304), dtype="float16") = R.add(lv571, metadata["relax.expr.Constant"][119])
            lv573: R.Tensor((1, 1, 2304), dtype="float16") = R.reshape(lv572, R.shape([1, 1, 2304]))
            lv574: R.Tuple(R.Tensor((1, 1, 768), dtype="float16"), R.Tensor((1, 1, 768), dtype="float16"), R.Tensor((1, 1, 768), dtype="float16")) = R.split(lv573, indices_or_sections=[768, 1536], axis=2)
            lv575: R.Tensor((1, 1, 768), dtype="float16") = lv574[0]
            lv576: R.Tensor((1, 1, 768), dtype="float16") = lv574[1]
            lv577: R.Tensor((1, 1, 768), dtype="float16") = lv574[2]
            lv578: R.Tensor((1, 1, 12, 64), dtype="float16") = R.reshape(lv575, R.shape([1, 1, 12, 64]))
            lv579: R.Tensor((1, 1, 12, 64), dtype="float16") = R.reshape(lv576, R.shape([1, 1, 12, 64]))
            lv580: R.Tensor((1, 1, 12, 64), dtype="float16") = R.reshape(lv577, R.shape([1, 1, 12, 64]))
            lv581: R.Tensor((1, 12, 1, 64), dtype="float16") = R.permute_dims(lv578, axes=[0, 2, 1, 3])
            lv582: R.Tensor((1, 12, past_sequence_length, 64), dtype="float16") = R.astype(past_key_values_8_key, dtype="float16")
            lv583: R.Tensor((1, 12, 1, 64), dtype="float16") = R.permute_dims(lv579, axes=[0, 2, 1, 3])
            lv584: R.Tensor((1, 12, past_sequence_length, 64), dtype="float16") = R.astype(past_key_values_8_value, dtype="float16")
            lv585: R.Tensor((1, 12, 1, 64), dtype="float16") = R.permute_dims(lv580, axes=[0, 2, 1, 3])
            lv586: R.Tensor((1, 12, past_sequence_length + 1, 64), dtype="float16") = R.concat((lv582, lv583), axis=-2)
            lv587: R.Tensor((1, 12, past_sequence_length + 1, 64), dtype="float16") = R.concat((lv584, lv585), axis=-2)
            lv588: R.Tensor((1, 12, 64, past_sequence_length + 1), dtype="float16") = R.permute_dims(lv586, axes=[0, 1, 3, 2])
            lv589: R.Tensor((1, 12, 1, 64), dtype="float16") = R.multiply(lv581, metadata["relax.expr.Constant"][120])
            lv590: R.Tensor((1, 12, 64, past_sequence_length + 1), dtype="float16") = R.multiply(lv588, metadata["relax.expr.Constant"][121])
            lv591: R.Tensor((1, 12, 1, past_sequence_length + 1), dtype="float16") = R.matmul(lv589, lv590, out_dtype="void")
            lv592: R.Tensor((1, 12, 1, past_sequence_length + 1), dtype="float16") = R.add(lv591, lv55)
            lv593: R.Tensor((1, 12, 1, past_sequence_length + 1), dtype="float16") = R.nn.softmax(lv592, axis=-1)
            lv594: R.Tensor((1, 12, 1, 64), dtype="float16") = R.matmul(lv593, lv587, out_dtype="void")
            lv595: R.Tensor((1, 1, 12, 64), dtype="float16") = R.permute_dims(lv594, axes=[0, 2, 1, 3])
            lv596: R.Tensor((1, 1, 768), dtype="float16") = R.reshape(lv595, R.shape([1, 1, 768]))
            lv597: R.Tensor((1, 768), dtype="float16") = R.reshape(lv596, R.shape([1, 768]))
            lv598: R.Tensor((1, 768), dtype="float16") = R.matmul(lv597, metadata["relax.expr.Constant"][122], out_dtype="void")
            lv599: R.Tensor((1, 768), dtype="float16") = R.add(lv598, metadata["relax.expr.Constant"][123])
            lv600: R.Tensor((1, 1, 768), dtype="float16") = R.reshape(lv599, R.shape([1, 1, 768]))
            lv601: R.Tensor((1, 1, 768), dtype="float16") = R.add(lv600, lv560)
            lv602: R.Tensor((1, 1, 1), dtype="float16") = R.mean(lv601, axis=[-1], keepdims=True)
            lv603: R.Tensor((1, 1, 768), dtype="float16") = R.subtract(lv601, lv602)
            lv604: R.Tensor((1, 1, 768), dtype="float16") = R.power(lv603, R.const(2.0, "float16"))
            lv605: R.Tensor((1, 1, 1), dtype="float16") = R.mean(lv604, axis=[-1], keepdims=True)
            lv606: R.Tensor((1, 1, 1), dtype="float16") = R.add(lv605, R.const(1.0013580322265625e-05, "float16"))
            lv607: R.Tensor((1, 1, 1), dtype="float16") = R.sqrt(lv606)
            lv608: R.Tensor((1, 1, 768), dtype="float16") = R.divide(lv603, lv607)
            lv609: R.Tensor((1, 1, 768), dtype="float16") = R.multiply(lv608, metadata["relax.expr.Constant"][124])
            lv610: R.Tensor((1, 1, 768), dtype="float16") = R.add(lv609, metadata["relax.expr.Constant"][125])
            lv611: R.Tensor((1, 768), dtype="float16") = R.reshape(lv610, R.shape([1, 768]))
            lv612: R.Tensor((1, 3072), dtype="float16") = R.matmul(lv611, metadata["relax.expr.Constant"][126], out_dtype="void")
            lv613: R.Tensor((1, 3072), dtype="float16") = R.add(lv612, metadata["relax.expr.Constant"][127])
            lv614: R.Tensor((1, 1, 3072), dtype="float16") = R.reshape(lv613, R.shape([1, 1, 3072]))
            lv615: R.Tensor((1, 1, 3072), dtype="float16") = R.power(lv614, R.const(3.0, "float16"))
            lv616: R.Tensor((1, 1, 3072), dtype="float16") = R.multiply(lv615, R.const(0.044708251953125, "float16"))
            lv617: R.Tensor((1, 1, 3072), dtype="float16") = R.add(lv614, lv616)
            lv618: R.Tensor((1, 1, 3072), dtype="float16") = R.multiply(lv617, R.const(0.7978515625, "float16"))
            lv619: R.Tensor((1, 1, 3072), dtype="float16") = R.tanh(lv618)
            lv620: R.Tensor((1, 1, 3072), dtype="float16") = R.multiply(lv614, R.const(0.5, "float16"))
            lv621: R.Tensor((1, 1, 3072), dtype="float16") = R.add(lv619, R.const(1.0, "float16"))
            lv622: R.Tensor((1, 1, 3072), dtype="float16") = R.multiply(lv620, lv621)
            lv623: R.Tensor((1, 3072), dtype="float16") = R.reshape(lv622, R.shape([1, 3072]))
            lv624: R.Tensor((1, 768), dtype="float16") = R.matmul(lv623, metadata["relax.expr.Constant"][128], out_dtype="void")
            lv625: R.Tensor((1, 768), dtype="float16") = R.add(lv624, metadata["relax.expr.Constant"][129])
            lv626: R.Tensor((1, 1, 768), dtype="float16") = R.reshape(lv625, R.shape([1, 1, 768]))
            lv627: R.Tensor((1, 1, 768), dtype="float16") = R.add(lv601, lv626)
            lv628: R.Tensor((1, 1, 1), dtype="float16") = R.mean(lv627, axis=[-1], keepdims=True)
            lv629: R.Tensor((1, 1, 768), dtype="float16") = R.subtract(lv627, lv628)
            lv630: R.Tensor((1, 1, 768), dtype="float16") = R.power(lv629, R.const(2.0, "float16"))
            lv631: R.Tensor((1, 1, 1), dtype="float16") = R.mean(lv630, axis=[-1], keepdims=True)
            lv632: R.Tensor((1, 1, 1), dtype="float16") = R.add(lv631, R.const(1.0013580322265625e-05, "float16"))
            lv633: R.Tensor((1, 1, 1), dtype="float16") = R.sqrt(lv632)
            lv634: R.Tensor((1, 1, 768), dtype="float16") = R.divide(lv629, lv633)
            lv635: R.Tensor((1, 1, 768), dtype="float16") = R.multiply(lv634, metadata["relax.expr.Constant"][130])
            lv636: R.Tensor((1, 1, 768), dtype="float16") = R.add(lv635, metadata["relax.expr.Constant"][131])
            lv637: R.Tensor((1, 768), dtype="float16") = R.reshape(lv636, R.shape([1, 768]))
            lv638: R.Tensor((1, 2304), dtype="float16") = R.matmul(lv637, metadata["relax.expr.Constant"][132], out_dtype="void")
            lv639: R.Tensor((1, 2304), dtype="float16") = R.add(lv638, metadata["relax.expr.Constant"][133])
            lv640: R.Tensor((1, 1, 2304), dtype="float16") = R.reshape(lv639, R.shape([1, 1, 2304]))
            lv641: R.Tuple(R.Tensor((1, 1, 768), dtype="float16"), R.Tensor((1, 1, 768), dtype="float16"), R.Tensor((1, 1, 768), dtype="float16")) = R.split(lv640, indices_or_sections=[768, 1536], axis=2)
            lv642: R.Tensor((1, 1, 768), dtype="float16") = lv641[0]
            lv643: R.Tensor((1, 1, 768), dtype="float16") = lv641[1]
            lv644: R.Tensor((1, 1, 768), dtype="float16") = lv641[2]
            lv645: R.Tensor((1, 1, 12, 64), dtype="float16") = R.reshape(lv642, R.shape([1, 1, 12, 64]))
            lv646: R.Tensor((1, 1, 12, 64), dtype="float16") = R.reshape(lv643, R.shape([1, 1, 12, 64]))
            lv647: R.Tensor((1, 1, 12, 64), dtype="float16") = R.reshape(lv644, R.shape([1, 1, 12, 64]))
            lv648: R.Tensor((1, 12, 1, 64), dtype="float16") = R.permute_dims(lv645, axes=[0, 2, 1, 3])
            lv649: R.Tensor((1, 12, past_sequence_length, 64), dtype="float16") = R.astype(past_key_values_9_key, dtype="float16")
            lv650: R.Tensor((1, 12, 1, 64), dtype="float16") = R.permute_dims(lv646, axes=[0, 2, 1, 3])
            lv651: R.Tensor((1, 12, past_sequence_length, 64), dtype="float16") = R.astype(past_key_values_9_value, dtype="float16")
            lv652: R.Tensor((1, 12, 1, 64), dtype="float16") = R.permute_dims(lv647, axes=[0, 2, 1, 3])
            lv653: R.Tensor((1, 12, past_sequence_length + 1, 64), dtype="float16") = R.concat((lv649, lv650), axis=-2)
            lv654: R.Tensor((1, 12, past_sequence_length + 1, 64), dtype="float16") = R.concat((lv651, lv652), axis=-2)
            lv655: R.Tensor((1, 12, 64, past_sequence_length + 1), dtype="float16") = R.permute_dims(lv653, axes=[0, 1, 3, 2])
            lv656: R.Tensor((1, 12, 1, 64), dtype="float16") = R.multiply(lv648, metadata["relax.expr.Constant"][134])
            lv657: R.Tensor((1, 12, 64, past_sequence_length + 1), dtype="float16") = R.multiply(lv655, metadata["relax.expr.Constant"][135])
            lv658: R.Tensor((1, 12, 1, past_sequence_length + 1), dtype="float16") = R.matmul(lv656, lv657, out_dtype="void")
            lv659: R.Tensor((1, 12, 1, past_sequence_length + 1), dtype="float16") = R.add(lv658, lv55)
            lv660: R.Tensor((1, 12, 1, past_sequence_length + 1), dtype="float16") = R.nn.softmax(lv659, axis=-1)
            lv661: R.Tensor((1, 12, 1, 64), dtype="float16") = R.matmul(lv660, lv654, out_dtype="void")
            lv662: R.Tensor((1, 1, 12, 64), dtype="float16") = R.permute_dims(lv661, axes=[0, 2, 1, 3])
            lv663: R.Tensor((1, 1, 768), dtype="float16") = R.reshape(lv662, R.shape([1, 1, 768]))
            lv664: R.Tensor((1, 768), dtype="float16") = R.reshape(lv663, R.shape([1, 768]))
            lv665: R.Tensor((1, 768), dtype="float16") = R.matmul(lv664, metadata["relax.expr.Constant"][136], out_dtype="void")
            lv666: R.Tensor((1, 768), dtype="float16") = R.add(lv665, metadata["relax.expr.Constant"][137])
            lv667: R.Tensor((1, 1, 768), dtype="float16") = R.reshape(lv666, R.shape([1, 1, 768]))
            lv668: R.Tensor((1, 1, 768), dtype="float16") = R.add(lv667, lv627)
            lv669: R.Tensor((1, 1, 1), dtype="float16") = R.mean(lv668, axis=[-1], keepdims=True)
            lv670: R.Tensor((1, 1, 768), dtype="float16") = R.subtract(lv668, lv669)
            lv671: R.Tensor((1, 1, 768), dtype="float16") = R.power(lv670, R.const(2.0, "float16"))
            lv672: R.Tensor((1, 1, 1), dtype="float16") = R.mean(lv671, axis=[-1], keepdims=True)
            lv673: R.Tensor((1, 1, 1), dtype="float16") = R.add(lv672, R.const(1.0013580322265625e-05, "float16"))
            lv674: R.Tensor((1, 1, 1), dtype="float16") = R.sqrt(lv673)
            lv675: R.Tensor((1, 1, 768), dtype="float16") = R.divide(lv670, lv674)
            lv676: R.Tensor((1, 1, 768), dtype="float16") = R.multiply(lv675, metadata["relax.expr.Constant"][138])
            lv677: R.Tensor((1, 1, 768), dtype="float16") = R.add(lv676, metadata["relax.expr.Constant"][139])
            lv678: R.Tensor((1, 768), dtype="float16") = R.reshape(lv677, R.shape([1, 768]))
            lv679: R.Tensor((1, 3072), dtype="float16") = R.matmul(lv678, metadata["relax.expr.Constant"][140], out_dtype="void")
            lv680: R.Tensor((1, 3072), dtype="float16") = R.add(lv679, metadata["relax.expr.Constant"][141])
            lv681: R.Tensor((1, 1, 3072), dtype="float16") = R.reshape(lv680, R.shape([1, 1, 3072]))
            lv682: R.Tensor((1, 1, 3072), dtype="float16") = R.power(lv681, R.const(3.0, "float16"))
            lv683: R.Tensor((1, 1, 3072), dtype="float16") = R.multiply(lv682, R.const(0.044708251953125, "float16"))
            lv684: R.Tensor((1, 1, 3072), dtype="float16") = R.add(lv681, lv683)
            lv685: R.Tensor((1, 1, 3072), dtype="float16") = R.multiply(lv684, R.const(0.7978515625, "float16"))
            lv686: R.Tensor((1, 1, 3072), dtype="float16") = R.tanh(lv685)
            lv687: R.Tensor((1, 1, 3072), dtype="float16") = R.multiply(lv681, R.const(0.5, "float16"))
            lv688: R.Tensor((1, 1, 3072), dtype="float16") = R.add(lv686, R.const(1.0, "float16"))
            lv689: R.Tensor((1, 1, 3072), dtype="float16") = R.multiply(lv687, lv688)
            lv690: R.Tensor((1, 3072), dtype="float16") = R.reshape(lv689, R.shape([1, 3072]))
            lv691: R.Tensor((1, 768), dtype="float16") = R.matmul(lv690, metadata["relax.expr.Constant"][142], out_dtype="void")
            lv692: R.Tensor((1, 768), dtype="float16") = R.add(lv691, metadata["relax.expr.Constant"][143])
            lv693: R.Tensor((1, 1, 768), dtype="float16") = R.reshape(lv692, R.shape([1, 1, 768]))
            lv694: R.Tensor((1, 1, 768), dtype="float16") = R.add(lv668, lv693)
            lv695: R.Tensor((1, 1, 1), dtype="float16") = R.mean(lv694, axis=[-1], keepdims=True)
            lv696: R.Tensor((1, 1, 768), dtype="float16") = R.subtract(lv694, lv695)
            lv697: R.Tensor((1, 1, 768), dtype="float16") = R.power(lv696, R.const(2.0, "float16"))
            lv698: R.Tensor((1, 1, 1), dtype="float16") = R.mean(lv697, axis=[-1], keepdims=True)
            lv699: R.Tensor((1, 1, 1), dtype="float16") = R.add(lv698, R.const(1.0013580322265625e-05, "float16"))
            lv700: R.Tensor((1, 1, 1), dtype="float16") = R.sqrt(lv699)
            lv701: R.Tensor((1, 1, 768), dtype="float16") = R.divide(lv696, lv700)
            lv702: R.Tensor((1, 1, 768), dtype="float16") = R.multiply(lv701, metadata["relax.expr.Constant"][144])
            lv703: R.Tensor((1, 1, 768), dtype="float16") = R.add(lv702, metadata["relax.expr.Constant"][145])
            lv704: R.Tensor((1, 768), dtype="float16") = R.reshape(lv703, R.shape([1, 768]))
            lv705: R.Tensor((1, 2304), dtype="float16") = R.matmul(lv704, metadata["relax.expr.Constant"][146], out_dtype="void")
            lv706: R.Tensor((1, 2304), dtype="float16") = R.add(lv705, metadata["relax.expr.Constant"][147])
            lv707: R.Tensor((1, 1, 2304), dtype="float16") = R.reshape(lv706, R.shape([1, 1, 2304]))
            lv708: R.Tuple(R.Tensor((1, 1, 768), dtype="float16"), R.Tensor((1, 1, 768), dtype="float16"), R.Tensor((1, 1, 768), dtype="float16")) = R.split(lv707, indices_or_sections=[768, 1536], axis=2)
            lv709: R.Tensor((1, 1, 768), dtype="float16") = lv708[0]
            lv710: R.Tensor((1, 1, 768), dtype="float16") = lv708[1]
            lv711: R.Tensor((1, 1, 768), dtype="float16") = lv708[2]
            lv712: R.Tensor((1, 1, 12, 64), dtype="float16") = R.reshape(lv709, R.shape([1, 1, 12, 64]))
            lv713: R.Tensor((1, 1, 12, 64), dtype="float16") = R.reshape(lv710, R.shape([1, 1, 12, 64]))
            lv714: R.Tensor((1, 1, 12, 64), dtype="float16") = R.reshape(lv711, R.shape([1, 1, 12, 64]))
            lv715: R.Tensor((1, 12, 1, 64), dtype="float16") = R.permute_dims(lv712, axes=[0, 2, 1, 3])
            lv716: R.Tensor((1, 12, past_sequence_length, 64), dtype="float16") = R.astype(past_key_values_10_key, dtype="float16")
            lv717: R.Tensor((1, 12, 1, 64), dtype="float16") = R.permute_dims(lv713, axes=[0, 2, 1, 3])
            lv718: R.Tensor((1, 12, past_sequence_length, 64), dtype="float16") = R.astype(past_key_values_10_value, dtype="float16")
            lv719: R.Tensor((1, 12, 1, 64), dtype="float16") = R.permute_dims(lv714, axes=[0, 2, 1, 3])
            lv720: R.Tensor((1, 12, past_sequence_length + 1, 64), dtype="float16") = R.concat((lv716, lv717), axis=-2)
            lv721: R.Tensor((1, 12, past_sequence_length + 1, 64), dtype="float16") = R.concat((lv718, lv719), axis=-2)
            lv722: R.Tensor((1, 12, 64, past_sequence_length + 1), dtype="float16") = R.permute_dims(lv720, axes=[0, 1, 3, 2])
            lv723: R.Tensor((1, 12, 1, 64), dtype="float16") = R.multiply(lv715, metadata["relax.expr.Constant"][148])
            lv724: R.Tensor((1, 12, 64, past_sequence_length + 1), dtype="float16") = R.multiply(lv722, metadata["relax.expr.Constant"][149])
            lv725: R.Tensor((1, 12, 1, past_sequence_length + 1), dtype="float16") = R.matmul(lv723, lv724, out_dtype="void")
            lv726: R.Tensor((1, 12, 1, past_sequence_length + 1), dtype="float16") = R.add(lv725, lv55)
            lv727: R.Tensor((1, 12, 1, past_sequence_length + 1), dtype="float16") = R.nn.softmax(lv726, axis=-1)
            lv728: R.Tensor((1, 12, 1, 64), dtype="float16") = R.matmul(lv727, lv721, out_dtype="void")
            lv729: R.Tensor((1, 1, 12, 64), dtype="float16") = R.permute_dims(lv728, axes=[0, 2, 1, 3])
            lv730: R.Tensor((1, 1, 768), dtype="float16") = R.reshape(lv729, R.shape([1, 1, 768]))
            lv731: R.Tensor((1, 768), dtype="float16") = R.reshape(lv730, R.shape([1, 768]))
            lv732: R.Tensor((1, 768), dtype="float16") = R.matmul(lv731, metadata["relax.expr.Constant"][150], out_dtype="void")
            lv733: R.Tensor((1, 768), dtype="float16") = R.add(lv732, metadata["relax.expr.Constant"][151])
            lv734: R.Tensor((1, 1, 768), dtype="float16") = R.reshape(lv733, R.shape([1, 1, 768]))
            lv735: R.Tensor((1, 1, 768), dtype="float16") = R.add(lv734, lv694)
            lv736: R.Tensor((1, 1, 1), dtype="float16") = R.mean(lv735, axis=[-1], keepdims=True)
            lv737: R.Tensor((1, 1, 768), dtype="float16") = R.subtract(lv735, lv736)
            lv738: R.Tensor((1, 1, 768), dtype="float16") = R.power(lv737, R.const(2.0, "float16"))
            lv739: R.Tensor((1, 1, 1), dtype="float16") = R.mean(lv738, axis=[-1], keepdims=True)
            lv740: R.Tensor((1, 1, 1), dtype="float16") = R.add(lv739, R.const(1.0013580322265625e-05, "float16"))
            lv741: R.Tensor((1, 1, 1), dtype="float16") = R.sqrt(lv740)
            lv742: R.Tensor((1, 1, 768), dtype="float16") = R.divide(lv737, lv741)
            lv743: R.Tensor((1, 1, 768), dtype="float16") = R.multiply(lv742, metadata["relax.expr.Constant"][152])
            lv744: R.Tensor((1, 1, 768), dtype="float16") = R.add(lv743, metadata["relax.expr.Constant"][153])
            lv745: R.Tensor((1, 768), dtype="float16") = R.reshape(lv744, R.shape([1, 768]))
            lv746: R.Tensor((1, 3072), dtype="float16") = R.matmul(lv745, metadata["relax.expr.Constant"][154], out_dtype="void")
            lv747: R.Tensor((1, 3072), dtype="float16") = R.add(lv746, metadata["relax.expr.Constant"][155])
            lv748: R.Tensor((1, 1, 3072), dtype="float16") = R.reshape(lv747, R.shape([1, 1, 3072]))
            lv749: R.Tensor((1, 1, 3072), dtype="float16") = R.power(lv748, R.const(3.0, "float16"))
            lv750: R.Tensor((1, 1, 3072), dtype="float16") = R.multiply(lv749, R.const(0.044708251953125, "float16"))
            lv751: R.Tensor((1, 1, 3072), dtype="float16") = R.add(lv748, lv750)
            lv752: R.Tensor((1, 1, 3072), dtype="float16") = R.multiply(lv751, R.const(0.7978515625, "float16"))
            lv753: R.Tensor((1, 1, 3072), dtype="float16") = R.tanh(lv752)
            lv754: R.Tensor((1, 1, 3072), dtype="float16") = R.multiply(lv748, R.const(0.5, "float16"))
            lv755: R.Tensor((1, 1, 3072), dtype="float16") = R.add(lv753, R.const(1.0, "float16"))
            lv756: R.Tensor((1, 1, 3072), dtype="float16") = R.multiply(lv754, lv755)
            lv757: R.Tensor((1, 3072), dtype="float16") = R.reshape(lv756, R.shape([1, 3072]))
            lv758: R.Tensor((1, 768), dtype="float16") = R.matmul(lv757, metadata["relax.expr.Constant"][156], out_dtype="void")
            lv759: R.Tensor((1, 768), dtype="float16") = R.add(lv758, metadata["relax.expr.Constant"][157])
            lv760: R.Tensor((1, 1, 768), dtype="float16") = R.reshape(lv759, R.shape([1, 1, 768]))
            lv761: R.Tensor((1, 1, 768), dtype="float16") = R.add(lv735, lv760)
            lv762: R.Tensor((1, 1, 1), dtype="float16") = R.mean(lv761, axis=[-1], keepdims=True)
            lv763: R.Tensor((1, 1, 768), dtype="float16") = R.subtract(lv761, lv762)
            lv764: R.Tensor((1, 1, 768), dtype="float16") = R.power(lv763, R.const(2.0, "float16"))
            lv765: R.Tensor((1, 1, 1), dtype="float16") = R.mean(lv764, axis=[-1], keepdims=True)
            lv766: R.Tensor((1, 1, 1), dtype="float16") = R.add(lv765, R.const(1.0013580322265625e-05, "float16"))
            lv767: R.Tensor((1, 1, 1), dtype="float16") = R.sqrt(lv766)
            lv768: R.Tensor((1, 1, 768), dtype="float16") = R.divide(lv763, lv767)
            lv769: R.Tensor((1, 1, 768), dtype="float16") = R.multiply(lv768, metadata["relax.expr.Constant"][158])
            lv770: R.Tensor((1, 1, 768), dtype="float16") = R.add(lv769, metadata["relax.expr.Constant"][159])
            lv771: R.Tensor((1, 768), dtype="float16") = R.reshape(lv770, R.shape([1, 768]))
            lv772: R.Tensor((1, 2304), dtype="float16") = R.matmul(lv771, metadata["relax.expr.Constant"][160], out_dtype="void")
            lv773: R.Tensor((1, 2304), dtype="float16") = R.add(lv772, metadata["relax.expr.Constant"][161])
            lv774: R.Tensor((1, 1, 2304), dtype="float16") = R.reshape(lv773, R.shape([1, 1, 2304]))
            lv775: R.Tuple(R.Tensor((1, 1, 768), dtype="float16"), R.Tensor((1, 1, 768), dtype="float16"), R.Tensor((1, 1, 768), dtype="float16")) = R.split(lv774, indices_or_sections=[768, 1536], axis=2)
            lv776: R.Tensor((1, 1, 768), dtype="float16") = lv775[0]
            lv777: R.Tensor((1, 1, 768), dtype="float16") = lv775[1]
            lv778: R.Tensor((1, 1, 768), dtype="float16") = lv775[2]
            lv779: R.Tensor((1, 1, 12, 64), dtype="float16") = R.reshape(lv776, R.shape([1, 1, 12, 64]))
            lv780: R.Tensor((1, 1, 12, 64), dtype="float16") = R.reshape(lv777, R.shape([1, 1, 12, 64]))
            lv781: R.Tensor((1, 1, 12, 64), dtype="float16") = R.reshape(lv778, R.shape([1, 1, 12, 64]))
            lv782: R.Tensor((1, 12, 1, 64), dtype="float16") = R.permute_dims(lv779, axes=[0, 2, 1, 3])
            lv783: R.Tensor((1, 12, past_sequence_length, 64), dtype="float16") = R.astype(past_key_values_11_key, dtype="float16")
            lv784: R.Tensor((1, 12, 1, 64), dtype="float16") = R.permute_dims(lv780, axes=[0, 2, 1, 3])
            lv785: R.Tensor((1, 12, past_sequence_length, 64), dtype="float16") = R.astype(past_key_values_11_value, dtype="float16")
            lv786: R.Tensor((1, 12, 1, 64), dtype="float16") = R.permute_dims(lv781, axes=[0, 2, 1, 3])
            lv787: R.Tensor((1, 12, past_sequence_length + 1, 64), dtype="float16") = R.concat((lv783, lv784), axis=-2)
            lv788: R.Tensor((1, 12, past_sequence_length + 1, 64), dtype="float16") = R.concat((lv785, lv786), axis=-2)
            lv789: R.Tensor((1, 12, 64, past_sequence_length + 1), dtype="float16") = R.permute_dims(lv787, axes=[0, 1, 3, 2])
            lv790: R.Tensor((1, 12, 1, 64), dtype="float16") = R.multiply(lv782, metadata["relax.expr.Constant"][162])
            lv791: R.Tensor((1, 12, 64, past_sequence_length + 1), dtype="float16") = R.multiply(lv789, metadata["relax.expr.Constant"][163])
            lv792: R.Tensor((1, 12, 1, past_sequence_length + 1), dtype="float16") = R.matmul(lv790, lv791, out_dtype="void")
            lv793: R.Tensor((1, 12, 1, past_sequence_length + 1), dtype="float16") = R.add(lv792, lv55)
            lv794: R.Tensor((1, 12, 1, past_sequence_length + 1), dtype="float16") = R.nn.softmax(lv793, axis=-1)
            lv795: R.Tensor((1, 12, 1, 64), dtype="float16") = R.matmul(lv794, lv788, out_dtype="void")
            lv796: R.Tensor((1, 1, 12, 64), dtype="float16") = R.permute_dims(lv795, axes=[0, 2, 1, 3])
            lv797: R.Tensor((1, 1, 768), dtype="float16") = R.reshape(lv796, R.shape([1, 1, 768]))
            lv798: R.Tensor((1, 768), dtype="float16") = R.reshape(lv797, R.shape([1, 768]))
            lv799: R.Tensor((1, 768), dtype="float16") = R.matmul(lv798, metadata["relax.expr.Constant"][164], out_dtype="void")
            lv800: R.Tensor((1, 768), dtype="float16") = R.add(lv799, metadata["relax.expr.Constant"][165])
            lv801: R.Tensor((1, 1, 768), dtype="float16") = R.reshape(lv800, R.shape([1, 1, 768]))
            lv802: R.Tensor((1, 1, 768), dtype="float16") = R.add(lv801, lv761)
            lv803: R.Tensor((1, 1, 1), dtype="float16") = R.mean(lv802, axis=[-1], keepdims=True)
            lv804: R.Tensor((1, 1, 768), dtype="float16") = R.subtract(lv802, lv803)
            lv805: R.Tensor((1, 1, 768), dtype="float16") = R.power(lv804, R.const(2.0, "float16"))
            lv806: R.Tensor((1, 1, 1), dtype="float16") = R.mean(lv805, axis=[-1], keepdims=True)
            lv807: R.Tensor((1, 1, 1), dtype="float16") = R.add(lv806, R.const(1.0013580322265625e-05, "float16"))
            lv808: R.Tensor((1, 1, 1), dtype="float16") = R.sqrt(lv807)
            lv809: R.Tensor((1, 1, 768), dtype="float16") = R.divide(lv804, lv808)
            lv810: R.Tensor((1, 1, 768), dtype="float16") = R.multiply(lv809, metadata["relax.expr.Constant"][166])
            lv811: R.Tensor((1, 1, 768), dtype="float16") = R.add(lv810, metadata["relax.expr.Constant"][167])
            lv812: R.Tensor((1, 768), dtype="float16") = R.reshape(lv811, R.shape([1, 768]))
            lv813: R.Tensor((1, 3072), dtype="float16") = R.matmul(lv812, metadata["relax.expr.Constant"][168], out_dtype="void")
            lv814: R.Tensor((1, 3072), dtype="float16") = R.add(lv813, metadata["relax.expr.Constant"][169])
            lv815: R.Tensor((1, 1, 3072), dtype="float16") = R.reshape(lv814, R.shape([1, 1, 3072]))
            lv816: R.Tensor((1, 1, 3072), dtype="float16") = R.power(lv815, R.const(3.0, "float16"))
            lv817: R.Tensor((1, 1, 3072), dtype="float16") = R.multiply(lv816, R.const(0.044708251953125, "float16"))
            lv818: R.Tensor((1, 1, 3072), dtype="float16") = R.add(lv815, lv817)
            lv819: R.Tensor((1, 1, 3072), dtype="float16") = R.multiply(lv818, R.const(0.7978515625, "float16"))
            lv820: R.Tensor((1, 1, 3072), dtype="float16") = R.tanh(lv819)
            lv821: R.Tensor((1, 1, 3072), dtype="float16") = R.multiply(lv815, R.const(0.5, "float16"))
            lv822: R.Tensor((1, 1, 3072), dtype="float16") = R.add(lv820, R.const(1.0, "float16"))
            lv823: R.Tensor((1, 1, 3072), dtype="float16") = R.multiply(lv821, lv822)
            lv824: R.Tensor((1, 3072), dtype="float16") = R.reshape(lv823, R.shape([1, 3072]))
            lv825: R.Tensor((1, 768), dtype="float16") = R.matmul(lv824, metadata["relax.expr.Constant"][170], out_dtype="void")
            lv826: R.Tensor((1, 768), dtype="float16") = R.add(lv825, metadata["relax.expr.Constant"][171])
            lv827: R.Tensor((1, 1, 768), dtype="float16") = R.reshape(lv826, R.shape([1, 1, 768]))
            lv828: R.Tensor((1, 1, 768), dtype="float16") = R.add(lv802, lv827)
            lv829: R.Tensor((1, 1, 1), dtype="float16") = R.mean(lv828, axis=[-1], keepdims=True)
            lv830: R.Tensor((1, 1, 768), dtype="float16") = R.subtract(lv828, lv829)
            lv831: R.Tensor((1, 1, 768), dtype="float16") = R.power(lv830, R.const(2.0, "float16"))
            lv832: R.Tensor((1, 1, 1), dtype="float16") = R.mean(lv831, axis=[-1], keepdims=True)
            lv833: R.Tensor((1, 1, 1), dtype="float16") = R.add(lv832, R.const(1.0013580322265625e-05, "float16"))
            lv834: R.Tensor((1, 1, 1), dtype="float16") = R.sqrt(lv833)
            lv835: R.Tensor((1, 1, 768), dtype="float16") = R.divide(lv830, lv834)
            lv836: R.Tensor((1, 1, 768), dtype="float16") = R.multiply(lv835, metadata["relax.expr.Constant"][172])
            lv837: R.Tensor((1, 1, 768), dtype="float16") = R.add(lv836, metadata["relax.expr.Constant"][173])
            lv838: R.Tensor((1, 1, 768), dtype="float16") = R.reshape(lv837, R.shape([1, 1, 768]))
            lv839: R.Tensor((1, 1, 50257), dtype="float16") = R.matmul(lv838, metadata["relax.expr.Constant"][174], out_dtype="void")
            lv840: R.Tensor((1, 1, 50257), dtype="float32") = R.astype(lv839, dtype="float32")
            lv841: R.Tensor((1, 12, past_sequence_length + 1, 64), dtype="float32") = R.astype(lv49, dtype="float32")
            lv842: R.Tensor((1, 12, past_sequence_length + 1, 64), dtype="float32") = R.astype(lv50, dtype="float32")
            lv843: R.Tensor((1, 12, past_sequence_length + 1, 64), dtype="float32") = R.astype(lv117, dtype="float32")
            lv844: R.Tensor((1, 12, past_sequence_length + 1, 64), dtype="float32") = R.astype(lv118, dtype="float32")
            lv845: R.Tensor((1, 12, past_sequence_length + 1, 64), dtype="float32") = R.astype(lv184, dtype="float32")
            lv846: R.Tensor((1, 12, past_sequence_length + 1, 64), dtype="float32") = R.astype(lv185, dtype="float32")
            lv847: R.Tensor((1, 12, past_sequence_length + 1, 64), dtype="float32") = R.astype(lv251, dtype="float32")
            lv848: R.Tensor((1, 12, past_sequence_length + 1, 64), dtype="float32") = R.astype(lv252, dtype="float32")
            lv849: R.Tensor((1, 12, past_sequence_length + 1, 64), dtype="float32") = R.astype(lv318, dtype="float32")
            lv850: R.Tensor((1, 12, past_sequence_length + 1, 64), dtype="float32") = R.astype(lv319, dtype="float32")
            lv851: R.Tensor((1, 12, past_sequence_length + 1, 64), dtype="float32") = R.astype(lv385, dtype="float32")
            lv852: R.Tensor((1, 12, past_sequence_length + 1, 64), dtype="float32") = R.astype(lv386, dtype="float32")
            lv853: R.Tensor((1, 12, past_sequence_length + 1, 64), dtype="float32") = R.astype(lv452, dtype="float32")
            lv854: R.Tensor((1, 12, past_sequence_length + 1, 64), dtype="float32") = R.astype(lv453, dtype="float32")
            lv855: R.Tensor((1, 12, past_sequence_length + 1, 64), dtype="float32") = R.astype(lv519, dtype="float32")
            lv856: R.Tensor((1, 12, past_sequence_length + 1, 64), dtype="float32") = R.astype(lv520, dtype="float32")
            lv857: R.Tensor((1, 12, past_sequence_length + 1, 64), dtype="float32") = R.astype(lv586, dtype="float32")
            lv858: R.Tensor((1, 12, past_sequence_length + 1, 64), dtype="float32") = R.astype(lv587, dtype="float32")
            lv859: R.Tensor((1, 12, past_sequence_length + 1, 64), dtype="float32") = R.astype(lv653, dtype="float32")
            lv860: R.Tensor((1, 12, past_sequence_length + 1, 64), dtype="float32") = R.astype(lv654, dtype="float32")
            lv861: R.Tensor((1, 12, past_sequence_length + 1, 64), dtype="float32") = R.astype(lv720, dtype="float32")
            lv862: R.Tensor((1, 12, past_sequence_length + 1, 64), dtype="float32") = R.astype(lv721, dtype="float32")
            lv863: R.Tensor((1, 12, past_sequence_length + 1, 64), dtype="float32") = R.astype(lv787, dtype="float32")
            lv864: R.Tensor((1, 12, past_sequence_length + 1, 64), dtype="float32") = R.astype(lv788, dtype="float32")
            gv: R.Tuple(R.Tensor((1, 1, 50257), dtype="float32"), R.Tensor((1, 12, past_sequence_length + 1, 64), dtype="float32"), R.Tensor((1, 12, past_sequence_length + 1, 64), dtype="float32"), R.Tensor((1, 12, past_sequence_length + 1, 64), dtype="float32"), R.Tensor((1, 12, past_sequence_length + 1, 64), dtype="float32"), R.Tensor((1, 12, past_sequence_length + 1, 64), dtype="float32"), R.Tensor((1, 12, past_sequence_length + 1, 64), dtype="float32"), R.Tensor((1, 12, past_sequence_length + 1, 64), dtype="float32"), R.Tensor((1, 12, past_sequence_length + 1, 64), dtype="float32"), R.Tensor((1, 12, past_sequence_length + 1, 64), dtype="float32"), R.Tensor((1, 12, past_sequence_length + 1, 64), dtype="float32"), R.Tensor((1, 12, past_sequence_length + 1, 64), dtype="float32"), R.Tensor((1, 12, past_sequence_length + 1, 64), dtype="float32"), R.Tensor((1, 12, past_sequence_length + 1, 64), dtype="float32"), R.Tensor((1, 12, past_sequence_length + 1, 64), dtype="float32"), R.Tensor((1, 12, past_sequence_length + 1, 64), dtype="float32"), R.Tensor((1, 12, past_sequence_length + 1, 64), dtype="float32"), R.Tensor((1, 12, past_sequence_length + 1, 64), dtype="float32"), R.Tensor((1, 12, past_sequence_length + 1, 64), dtype="float32"), R.Tensor((1, 12, past_sequence_length + 1, 64), dtype="float32"), R.Tensor((1, 12, past_sequence_length + 1, 64), dtype="float32"), R.Tensor((1, 12, past_sequence_length + 1, 64), dtype="float32"), R.Tensor((1, 12, past_sequence_length + 1, 64), dtype="float32"), R.Tensor((1, 12, past_sequence_length + 1, 64), dtype="float32"), R.Tensor((1, 12, past_sequence_length + 1, 64), dtype="float32")) = lv840, lv841, lv842, lv843, lv844, lv845, lv846, lv847, lv848, lv849, lv850, lv851, lv852, lv853, lv854, lv855, lv856, lv857, lv858, lv859, lv860, lv861, lv862, lv863, lv864
            R.output(gv)
        return gv

# Metadata omitted. Use show_meta=True in script() method to show it.
Done
